CSSRS/RSIMDCL/checkpoint/pore2background_9_1rsim/latest_net_F6.pth (torch, 44759 bytes, 6 tensors)

model.0.weight f4 [64, 4, 3, 3]
000000 ca e8 fb bb 11 37 5e 3d 59 54 21 3c 90 86 0e 3d
       -0.0076876627 0.054251734 0.00984677 0.034796298
000010 96 5a 5f 3c c9 96 7f 3d 2f 00 73 3a 26 fa 86 3d
       0.013632437 0.06239966 0.0009269742 0.06590681
000020 22 8b a4 3b 0f b8 ec bc 34 18 85 bb 29 c3 0b bd
       0.0050214687 -0.02889636 -0.004061723 -0.034121666
000030 30 6a ef bc 37 d6 62 bd 13 54 cc bb b1 68 de bc
       -0.029225439 -0.055380072 -0.0062356084 -0.02714953
000040 da bf 0d 3d 4f 5c fc bc 32 e1 8e bb cc c8 6e bd
       0.034606792 -0.030805735 -0.0043603415 -0.058296964
000050 7b 1f 2e bc e2 99 30 bc 05 65 33 3c 6e 79 ec bb
       -0.010627623 -0.010778876 0.010949378 -0.007216624
000060 8d 4f 0d 3c 3e d4 5b bc 71 a9 26 bb f6 40 01 bd
       0.008624923 -0.013417302 -0.0025430585 -0.031556092
000070 82 28 9a bc 60 7f d7 3b 4d d1 97 bb ad f9 d3 3b
       -0.018818144 0.0065764636 -0.004633105 0.0064689727
000080 7c 51 24 bd bc 18 1c 3a c4 39 bd bc b3 34 18 bc
       -0.040116772 0.00059546134 -0.023098834 -0.009289908
000090 a5 20 72 3d ee 1f 90 3d f8 a3 73 3d 35 04 b0 3d
       0.059113164 0.0703734 0.059482545 0.085945524
0000a0 cb c7 d4 3d e1 e1 ca 3d 0a e7 67 3d ae c8 94 3d
       0.1038967 0.09906364 0.05661682 0.07264839
0000b0 c0 cf 74 3d 3f 65 27 bd 47 53 b9 3c 86 89 f1 bc
       0.05976844 -0.04086804 0.022622718 -0.029484522
0000c0 c2 4b 82 bc 99 72 5e bc 54 1e 63 3b 1b c5 48 bd
       -0.015905265 -0.013577127 0.0034655528 -0.0490161
0000d0 bf 3d d4 3c 07 0e 1d bd 20 a9 04 bc 61 31 04 bd
       0.02590835 -0.038343456 -0.008096963 -0.032273654
0000e0 6d 55 07 bc 7e cc af bc ca 1b 7f 3d f8 1a c7 bc
       -0.008260113 -0.021459814 0.06228236 -0.024304852
0000f0 0c d9 3f bc bd 8c 25 bd 5e ae 49 bc 85 1c 0d 3c
       -0.011709463 -0.04041742 -0.012309639 0.008612757
000100 47 7c 8c bd 5b 4c da 3b c8 d1 c7 3b 94 5b 63 bc
       -0.068596415 0.0066619343 0.006098006 -0.013876814
000110 1b e5 ce 3b 16 9e f0 3b e7 06 8e bd 98 97 87 3a
       0.0063139326 0.007343064 -0.0693491 0.0010344861
000120 e5 0c da bb 45 2f ad bb db 7f 9c 3a 76 a9 31 3b
       -0.006654369 -0.005285176 0.0011939959 0.0027109063
000130 a4 ec f7 bb e3 16 bb 3b 1a 7d 62 ba 93 01 1d bc
       -0.0075660516 0.0057095154 -0.00086398574 -0.009582895
000140 2a 99 b3 3b 70 0a b8 3b f1 37 04 bc 07 f7 04 3c
       0.005480905 0.0056164786 -0.008069978 0.0081155365
000150 8c d0 26 3c dc 46 fc 3a 5d 27 17 3c 1a 58 4a ba
       0.010181557 0.0019247192 0.0092256935 -0.00077188166
000160 2f 67 b6 bb 85 2e ce 3b a2 8d 66 3b 79 86 b4 ba
       -0.0055664997 0.0062921667 0.0035179635 -0.0013772986
000170 02 91 21 3b 17 dc 8f ba 6a 97 a0 ba 7f 68 7d 3b
       0.0024653082 -0.0010975626 -0.0012252156 0.003866702
000180 61 46 11 3b bc 43 29 bb 05 9a 69 3a 95 21 67 bb
       0.0022167193 -0.0025827726 0.00089111953 -0.003526782
000190 87 e3 68 bb e7 73 da ba 82 d0 08 ba 67 dc 73 3b
       -0.0035536007 -0.0016666622 -0.00052190584 0.0037210227
0001a0 31 2b f0 3a c4 67 16 bb e3 e2 95 3b d9 e7 b4 bb
       0.0018323419 -0.0022950033 0.004574166 -0.0055208025
0001b0 1d 0c 2c 39 20 cd f6 3c 58 82 46 3c 03 e5 13 3d
       0.00016407711 0.030127108 0.012116037 0.036107074
0001c0 05 a4 6e 3d c1 b7 86 3d 38 a8 13 3c 63 5f f5 3c
       0.05826189 0.06578017 0.009012274 0.02995271
0001d0 8f aa 67 3c 00 48 bb bd 76 2b 59 3d 48 63 91 bd
       0.014139785 -0.09144592 0.053019963 -0.070990145
0001e0 68 7e aa bc cd ef 3f 3d a3 b0 38 bd 2f da c1 bd
       -0.020812228 0.04685955 -0.04509033 -0.09465443
0001f0 6b f2 c5 3d 7e 6d 97 bd c8 df 03 3c 03 ad 0d bd
       0.09665378 -0.07393931 0.008048959 -0.034588825
000200 c0 7d 0c 3c bc fa 9f bc c0 39 55 3d 0a 37 7f bc
       0.008574903 -0.01952874 0.052057028 -0.015577087
000210 d8 7b 29 3b 25 ff 22 bd a3 14 c5 3b 80 d0 91 bc
       0.002586117 -0.039794106 0.006014423 -0.017799616
000220 5a 85 96 bd c9 4f ce bc 0b cf 97 bc 10 07 49 bd
       -0.073496535 -0.025184529 -0.018531343 -0.049079
000230 37 73 ae bc d2 e9 c9 bc 65 0e ac bd c8 b4 f3 bc
       -0.021295173 -0.024647627 -0.08401183 -0.02974929
000240 eb 2f 6c 3d d2 61 80 3d 0b f6 2e 3d a3 f1 8a 3d
       0.057662886 0.06268658 0.042715114 0.0678437
000250 03 9b b0 3d 79 3e cd 3d a1 0f 81 3d ac eb 16 3d
       0.08623316 0.10021681 0.06301809 0.036845848
000260 7c 6e 8a 3d 71 4f 0f bd a0 54 19 3d 28 5a e1 bb
       0.067593545 -0.03498787 0.03743422 -0.0068772025
000270 e6 bc 0e 3b e4 61 ce bb 6c fc 08 3d 81 47 f4 bc
       0.0021780073 -0.0062982906 0.033443853 -0.029819252
000280 a9 5d df 3c e0 2e 69 bc 88 ae 4a 3c e2 48 52 bd
       0.02726634 -0.014232367 0.012370713 -0.051339038
000290 d1 61 12 3c 00 22 bc 3a eb 1f 2c 3d 2b bc 8f ba
       0.008934454 0.0014353395 0.042022627 -0.0010966113
0002a0 96 0f ae 3b b8 4c 7a bd b0 ac 55 3b b6 c2 26 bc
       0.0053119166 -0.06110832 0.003260415 -0.010178259
0002b0 3a e9 ae bd c1 8e 5e bc ac 16 c5 bc 95 7b 10 bd
       -0.08540578 -0.01358384 -0.024058662 -0.035274107
0002c0 c9 fa 00 bd cf e9 80 bc 66 1e aa bd d2 fc 9f bc
       -0.031489167 -0.015736489 -0.08306579 -0.019529734
0002d0 41 2e 1b 3d 10 7e 80 3d c7 0a 9a 3d 1e 43 81 3d
       0.037885908 0.062740445 0.07521587 0.0631163
0002e0 01 18 19 3e 91 e1 a7 3d 0a b0 e1 3c b6 b7 80 3d
       0.14950563 0.0819732 0.027549762 0.0628504
0002f0 73 b1 3e 3d 4a f9 87 bd 80 40 95 3d 08 26 64 bd
       0.046555948 -0.06639345 0.07287693 -0.055700332
000300 ad 76 38 bd f7 02 f0 3c 18 07 33 bc 93 0e a1 bd
       -0.045035053 0.029298289 -0.010926984 -0.07864108
000310 e2 4b 3b 3d 37 a8 83 bd e0 ad 9b bc 24 9a 86 3a
       0.045726664 -0.06428569 -0.019003808 0.0010269326
000320 bf 46 7d bc e5 11 4b bd 39 c8 ad 3d 04 83 3d bd
       -0.015458762 -0.049577612 0.08485455 -0.046267524
000330 1e e1 a8 bc 7d 3d dd bb 3a a3 9f bc 06 61 ff bc
       -0.020615157 -0.0067517147 -0.019487012 -0.031174194
000340 f6 47 ce bd ad 1e c9 bb 07 7c ff 3b ef 56 e6 bc
       -0.10072319 -0.00613769 0.0077967676 -0.028117625
000350 c8 ec 15 3c dc 7e f5 bc ad 12 cb bd 48 a8 95 bc
       0.009150691 -0.029967718 -0.099156715 -0.01826872
000360 ba bd 3e b9 ad 4a 07 3a 74 83 32 b8 36 af d7 39
       -0.0001819049 0.0005160969 -4.2560932e-05 0.00041138538
000370 b0 dd c3 39 07 85 1b 39 4e 3a 59 3a cf 35 2b 39
       0.00037358468 0.00014831508 0.0008286581 0.00016327876
000380 34 e7 26 ba dd be 06 b9 8d 0d 8c 3a 96 0c 02 39
       -0.00063668494 -0.00012850338 0.0010685191 0.00012402455
000390 f7 13 3c 39 fb 40 7b b9 78 bc 89 b9 ff 3d 96 39
       0.00017936515 -0.00023961432 -0.00026271096 0.0002865642
0003a0 06 d3 96 3a c2 d5 b5 b9 16 97 bf ba c1 a9 2a ba
       0.0011506982 -0.00034682272 -0.0014617171 -0.00065102807
0003b0 31 76 44 3a 90 3b 38 ba 69 89 ad b9 79 5e ab 3a
       0.00074944185 -0.00070279185 -0.0003309951 0.001307442
0003c0 a5 01 2e 3a 51 4f 76 39 07 7c 9f b9 86 14 9f ba
       0.00066378183 0.00023489936 -0.0003041925 -0.0012136854
0003d0 33 41 ca b9 66 bc a3 b7 8a 1e 82 b9 af 19 62 38
       -0.0003857702 -1.9518844e-05 -0.00024818286 5.390652e-05
0003e0 29 2a 38 ba e4 a0 15 3a f0 88 e6 39 cf df 1f ba
       -0.00070253253 0.00057078735 0.00043971045 -0.0006098719
0003f0 30 38 11 ba 84 db 71 3a 99 b1 7c ba 5a dd 99 ba
       -0.00055396836 0.0009226131 -0.0009639501 -0.0011738942

model.0.bias f4 [64]
000000 d0 98 87 3e fc aa 2b 3f a4 ce 11 bc 44 ca 75 3f
       0.26483774 0.67057776 -0.008899365 0.9601176
000010 01 7f 1b 3f 3a d9 80 3f af c2 9f ba d7 41 29 bb
       0.6074067 1.0066292 -0.0012188758 -0.0025826597
000020 e9 ac 25 3f 38 3d 21 3f 29 d1 50 3f d5 be 25 3f
       0.64716965 0.6298404 0.81569153 0.6474431
000030 63 42 36 3f 7c 6f 34 bb f1 77 30 3f 87 38 59 3f
       0.7119505 -0.002753227 0.68933016 0.8485188
000040 2e 7f 67 3f 9a f9 7d 3f 04 46 3b 3f 56 8c 60 3f
       0.90428436 0.99208987 0.7315371 0.87714136
000050 04 10 e2 ba 5b c3 85 3f 2a 0a 28 3f b8 1c 30 3f
       -0.0017247205 1.0450243 0.6564051 0.6879382
000060 fe 06 42 3f a5 9f 2b 3f 77 5b 16 3f da 18 30 3f
       0.7579192 0.67040473 0.58733314 0.6878792
000070 89 ef 52 ba 53 2a 34 3f 70 40 6a 3f 70 7e 2a 3f
       -0.0008046558 0.7037708 0.91504574 0.6659918
000080 22 c9 8b 3f c7 cc 30 3f 9e e6 41 3f 07 11 85 ba
       1.0920756 0.69062465 0.7574252 -0.0010152169
000090 cb b0 88 3f 39 9c d1 ba a1 6c 58 3f 99 2f f5 3e
       1.0678953 -0.0015991993 0.84540755 0.47887877
0000a0 c6 d9 5c ba b1 1d 98 3f 50 c3 73 3f 8e 3e a4 ba
       -0.0008424785 1.1884061 0.952199 -0.001253085
0000b0 72 9a 5e bb bb d0 55 3f 5e 22 6d 3f de 91 35 3f
       -0.0033966568 0.8352162 0.92630565 0.709257
0000c0 78 c3 01 3f ed 9c 2a 3f df 1e 74 ba 9e 97 90 3f
       0.50688887 0.666457 -0.00093124615 1.129627
0000d0 43 00 35 3f c8 3b 27 3f 9b 1b 45 3f 99 ae 22 3f
       0.70703524 0.65325594 0.7699525 0.63547665
0000e0 8c dc 3d 3f 96 b5 6f 3f 35 1d 52 3f f6 d1 73 ba
       0.7416465 0.93636453 0.82075816 -0.0009301001
0000f0 09 d5 24 3f 4f 07 7a bb 99 bd f0 ba 25 45 27 3f
       0.64387566 -0.003815133 -0.0018367051 0.6533988

model.4.weight f4 [64, 64]
000000 58 53 a7 ba 95 e0 92 bb 93 c8 e8 3a 54 1b 9f 3a
       -0.0012765927 -0.0044823387 0.0017759971 0.0012138882
000010 92 57 03 ba 55 48 bd b9 81 b9 2c ba e2 b4 6c bb
       -0.00050103024 -0.0003610278 -0.00065889215 -0.0036118557
000020 f8 95 25 bb 76 03 85 bb e5 7f 15 3b ca 55 38 bb
       -0.002526639 -0.0040592505 0.0022811827 -0.0028127306
000030 bb 23 36 3a 2c 85 ec ba 90 48 c1 ba 74 9e 2a b9
       0.0006948073 -0.0018045059 -0.0014746357 -0.00016271492
000040 e7 4f 72 3a 21 b0 24 bb 6e e4 73 bb 09 c0 19 3b
       0.0009243474 -0.0025129395 -0.0037215012 0.002346041
000050 24 2e d1 b9 29 ff a4 3b 99 91 39 3a cc ea 8c 3b
       -0.00039897964 0.0050353003 0.00070788857 0.004300451
000060 a4 fe bb ba 12 42 53 bb 65 bc aa 3a b1 42 11 bb
       -0.0014342857 -0.0032235426 0.0013026117 -0.0022164995
000070 b7 1e bc 3a 22 b8 52 3b b0 02 d4 3a 0f e9 36 bb
       0.0014352415 0.0032153209 0.0016175117 -0.002790991
000080 04 c8 e1 3a a2 c8 80 3b 97 4f 6b 3a 4b 07 c0 3a
       0.0017225747 0.0039301673 0.00089763984 0.0014650611
000090 b4 77 d6 ba aa dd 6e 3a 4e f6 df ba d9 b6 12 b8
       -0.0016362579 0.000911201 -0.0017086954 -3.4979403e-05
0000a0 f2 80 a1 bb 14 83 3c bb a6 28 a3 bb b3 3e d2 ba
       -0.0049287016 -0.0028764652 -0.004979211 -0.0016040414
0000b0 bb 74 02 bb 74 a2 2c bb 57 d1 e2 3a 90 ba ae ba
       -0.0019906003 -0.0026341947 0.001730482 -0.0013330746
0000c0 e1 27 fb b9 a3 54 9a b9 fd d4 e4 b8 66 0d 2f ba
       -0.00047904163 -0.00029436228 -0.000109115594 -0.0006677717
0000d0 e8 24 04 bb 17 53 ec 3a f8 4e 74 bb f3 bb af ba
       -0.00201636 0.0018030134 -0.0037278514 -0.0013407454
0000e0 2e 41 b3 3b f2 b8 f4 39 ec bc 66 3b 29 5e bc b9
       0.0054704165 0.00046677102 0.003520782 -0.0003592831
0000f0 06 9c 51 3b 56 9f 80 ba 86 00 dd 36 14 b2 b1 3a
       0.0031983866 -0.0009813111 6.586374e-06 0.00135571
000100 7a 12 57 bb e4 3e d9 bb 64 cd 80 3a 1d 42 5d 3a
       -0.003281741 -0.0066298116 0.0009826836 0.00084403326
000110 24 21 00 bb ec a4 15 ba 99 00 1a 3b 12 89 25 3a
       -0.0019551003 -0.0005708474 0.0023498891 0.00063146756
000120 c6 ae 82 bb 30 44 e6 ba 91 40 27 bb 69 a2 76 bb
       -0.00398812 -0.0017567929 -0.0025520662 -0.0037633425
000130 57 fc 2c ba 06 9c 93 ba 26 c1 8e ba eb 5a 40 b9
       -0.0006598881 -0.0011261709 -0.0010891303 -0.00018344416
000140 ec cf 0d ba 20 38 fd 38 a6 e3 40 bb 51 0b 26 3b
       -0.0005409706 0.00012074434 -0.0029432564 0.0025336335
000150 77 3b 01 3b b0 67 0f b8 43 71 2e ba fc da f1 3a
       0.0019719282 -3.4190423e-05 -0.00066544506 0.0018452103
000160 81 0f 89 3a 46 12 7e bb 04 29 2c bb 4e 5d cc ba
       0.0010456891 -0.0038768216 -0.0026269564 -0.0015591772
000170 ff 84 09 3b 47 e5 8c 38 45 21 0f bb fe b5 26 3b
       0.0020983813 6.7184264e-05 -0.0021839899 0.0025438066
000180 d1 14 b5 b9 ea 50 59 ba 77 de b5 3a 52 e3 cd bb
       -0.0003453852 -0.000828995 0.0013875504 -0.006283202
000190 7a 73 17 bb 81 bd ca 39 25 1e 0d ba 1d 67 a1 b8
       -0.00231096 0.00038669634 -0.0005383215 -7.6962846e-05
0001a0 3c 87 1b 3b 5d ae 4e 3b 48 61 8a ba 0c aa d3 b8
       0.002373173 0.0031537034 -0.0010557557 -0.00010092938
0001b0 d4 b1 91 3b 69 1a be 3a 6e 8f f3 3a 76 5d b9 b9
       0.0044462476 0.001450372 0.0018582174 -0.00035355584
0001c0 88 e9 bb 39 9f 3a 20 bc 9a 4a 11 bb 4b 6b 57 3a
       0.00035841414 -0.009779601 -0.002216971 0.0008217587
0001d0 8a ae af ba 6a 7c 45 ba 46 14 0c 3b 90 9a 68 ba
       -0.0013403457 -0.0007533493 0.0021374389 -0.0008873129
0001e0 66 d1 d8 ba 47 81 c0 3a d2 d5 b1 ba 05 e3 2d 3a
       -0.0016541898 0.0014686965 -0.0013567752 0.0006633255
0001f0 22 99 50 3b ab 8c 50 3a a9 c9 a1 ba b3 92 c6 bb
       0.0031829556 0.00079555315 -0.0012343425 -0.0060599684
000200 24 6f 9e 3a 10 de de ba 64 fe 9a 3a ec 19 ff ba
       0.0012087566 -0.0017003436 0.0011825082 -0.0019462681
000210 7b 2a a4 39 3e b9 2c bb 8b 57 bb ba 89 09 53 3b
       0.00031312168 -0.002635553 -0.0014293058 0.0032201728
000220 c4 6a 92 bb 77 0d 8f 3b 90 d8 14 3b 4a d4 48 bb
       -0.004468294 0.004365619 0.002271209 -0.0030644112
000230 c5 04 bb ba 40 d3 3b bb bf 07 0c 3b 92 ad 9d 3b
       -0.0014268389 -0.002865985 0.0021366922 0.004811951
000240 13 42 7e ba 85 4f aa ba ec 41 58 bb 93 34 2e 3b
       -0.0009699177 -0.0012993669 -0.0032998277 0.002658163
000250 1e f5 6b 3b d8 92 12 3a 5b 45 52 ba 04 34 1c bb
       0.0036004256 0.00055913394 -0.0008021199 -0.0023834715
000260 0f 4c 3b 3b 1c 0b 20 3b 09 a8 6a ba a6 22 8e 3a
       0.002857927 0.0024420684 -0.0008951431 0.0010844066
000270 d6 99 87 39 f0 5e 7a bb 42 65 8a 3a 6e 11 18 3b
       0.00025863823 -0.003820356 0.0010558742 0.0023203748
000280 32 21 23 bb 79 09 80 bb 89 d9 0e bb 52 7b 3a bb
       -0.0024891612 -0.003907379 -0.0021797142 -0.0028454852
000290 1e 26 4d bb b1 27 23 3b 96 c7 a0 3a 47 6f ea 39
       -0.0031303237 0.0024895484 0.0012266512 0.00044714866
0002a0 01 f4 c7 3a 63 58 06 bb 1f 90 0f 3a 29 e4 e4 b9
       0.0015255214 -0.002049946 0.0005476493 -0.0004365754
0002b0 af a5 ac ba 86 9f 54 ba f7 e3 2e bb 65 95 c0 ba
       -0.0013171936 -0.0008110929 -0.002668617 -0.001469296
0002c0 82 82 ba 3a b3 a5 ee 39 ca 3c 5f 3b e4 fc aa bb
       0.0014229568 0.00045518353 0.0034063333 -0.005218135
0002d0 d5 66 50 bb b4 ca 9d bb de d7 26 b9 ea 19 90 bb
       -0.0031799574 -0.004815424 -0.0001591141 -0.0043976204
0002e0 bc 40 37 bb 1e 9d 28 3b 49 93 49 39 2f 1d f7 3a
       -0.0027962169 0.0025728415 0.00019223722 0.0018853302
0002f0 a6 60 60 ba 04 60 49 bb a2 58 b0 39 e0 3d d2 3b
       -0.00085593236 -0.0030727396 0.00033635373 0.0064160675
000300 98 98 db ba ce b0 3f 3a 63 7c 21 3a 1e 62 f0 3a
       -0.001675385 0.0007312418 0.00061601977 0.0018339788
000310 7e ec 93 ba 8f 55 b3 ba 64 aa 4d 3a f0 b6 3a ba
       -0.001128569 -0.0013682115 0.00078455196 -0.0007122597
000320 c8 1b b4 bb 38 41 33 bb 99 b2 ed 3a 19 cb 11 3b
       -0.005496476 -0.0027352106 0.0018134891 0.00222463
000330 b7 d7 52 bb 95 81 37 39 95 94 c2 39 30 fe 2b bb
       -0.0032172033 0.00017500513 0.00037113266 -0.0026244037
000340 57 4f 0f 3a 6e 0a 9c 3a 8a 7d c6 ba 28 6b 9c 3a
       0.00054668396 0.0011904964 -0.0015143615 0.001193379
000350 95 28 be 39 a3 47 c8 3a a0 c3 3c bb 11 e9 88 3a
       0.0003626986 0.0015280138 -0.0028803125 0.0010445436
000360 c4 0a 35 3b be 04 a8 3b 3d 0d 9b ba 80 55 2e 39
       0.0027624825 0.0051275184 -0.0011829507 0.00016625784
000370 4f 3d c0 39 41 d1 62 ba 42 a7 58 bb ff 98 79 3b
       0.00036666772 -0.0008652397 -0.0033058678 0.0038085578
000380 78 93 31 3b 79 b6 11 bb 9e 77 92 ba 93 6c de ba
       0.0027095955 -0.0022234006 -0.0011174565 -0.0016969613
000390 f5 02 e6 ba 8b 37 73 bb 97 7b d5 3a c0 99 23 b9
       -0.0017548489 -0.0037111964 0.0016287443 -0.00015602168
0003a0 20 8f da 3b b3 98 5c ba bd e5 b2 3b 5d 7f e9 ba
       0.006669894 -0.0008415088 0.005459516 -0.0017814446
0003b0 a3 74 18 3a 55 ca fc 3a b3 65 ef ba b7 4a 7e ba
       0.000581572 0.0019286374 -0.0018264562 -0.00097004644
0003c0 e5 ae 87 3b ea c4 03 bc 23 9a a9 3b b6 27 f6 3a
       0.004140722 -0.008042553 0.005175845 0.0018780145
0003d0 33 58 b3 ba 40 37 06 bb 94 03 09 bb 1f ff cc 39
       -0.0013682902 -0.002047971 -0.0020906674 0.00039099992
0003e0 40 98 37 3b eb 43 0a 3b 8f 0b 66 bb 14 32 2b 3b
       0.0028014332 0.0021097611 -0.0035102104 0.0026122378
0003f0 77 bd 0c bb ce a7 b5 3b c5 bf c7 bb cd 4f b4 3a
       -0.0021475235 0.0055436855 -0.0060958588 0.0013756693

model.4.bias f4 [64]
000000 00 00 00 00 d8 84 84 39 00 00 00 00 69 6f a7 39
       0.0 0.00025275978 0.0 0.0003193573
000010 a2 8d d2 b9 6f c9 e0 b9 df fc aa bb 00 00 00 00
       -0.00040159846 -0.0004287469 -0.005218133 0.0
000020 16 bd e0 ba 46 a3 c5 bb 2e 3c 96 39 00 00 00 00
       -0.0017146196 -0.0060314266 0.00028655067 0.0
000030 73 fb 6b ba b6 03 af 39 dd 34 c5 bb c6 77 ff 39
       -0.00090020074 0.00033381366 -0.0060182647 0.00048726628
000040 a2 8d d2 b9 7d 1f c2 bb 00 00 00 00 00 00 00 00
       -0.00040159846 -0.005924164 0.0 0.0
000050 8f 3b 54 3c ac 98 8f bb 00 00 00 00 a2 8d d2 b9
       0.012953653 -0.0043822136 0.0 -0.00040159846
000060 d1 d0 a2 bb f3 6a 41 bb 76 88 db bb aa 07 bf bb
       -0.0049687405 -0.002951321 -0.006699617 -0.005829771
000070 21 49 d3 b9 95 8c 3f 3e 00 00 00 00 20 49 d3 b9
       -0.0004029954 0.18705972 0.0 -0.00040299539
000080 af 3f 13 3e a2 8d d2 b9 91 5a 3a b8 39 d5 0a b9
       0.14379762 -0.00040159846 -4.4430202e-05 -0.00013240137
000090 50 bd 9f 3d 4b 40 3f 3e 78 c0 a4 39 a3 8d d2 b9
       0.0779978 0.1867687 0.00031423918 -0.0004015985
0000a0 94 87 dc 3b 00 00 00 00 3a 53 e4 39 0b 44 3e 3e
       0.0067300294 0.0 0.00043549557 0.18580644
0000b0 1e 54 cf bb 00 00 00 00 27 a7 9e bb 00 00 00 00
       -0.006327166 0.0 -0.0048417035 0.0
0000c0 dd 08 ab 39 54 0e e5 3d a2 8d d2 b9 5a 96 da bb
       0.00032622265 0.111843735 -0.00040159846 -0.0066707553
0000d0 ee 5d f9 bb f7 8b d7 bb d0 6b 6c 3e c4 1b 56 3e
       -0.0076100742 -0.0065779644 0.23088002 0.20909029
0000e0 21 49 d3 b9 e3 41 89 39 29 44 be bb ab e3 e7 39
       -0.0004029954 0.00026179766 -0.005806465 0.0004422938
0000f0 79 79 18 ba 00 00 00 00 28 78 74 bc 62 bd 2d 3e
       -0.00058164407 0.0 -0.014921226 0.16966775

model.6.weight f4 [64, 64]
000000 de c4 b0 3a ac cb b3 ba dd 31 b6 39 cb 97 cd ba
       0.0013486405 -0.0013717315 0.00034750896 -0.0015685497
000010 f5 fc d9 ba a9 aa 46 3b 88 a8 ee 3b 77 52 9d ba
       -0.0016631173 0.0030314124 0.007283274 -0.0012002726
000020 32 c7 2e 3b 38 45 00 3c 9b 3e cb ba 5b a5 9f bb
       0.0026669023 0.007829003 -0.0015506329 -0.004872007
000030 83 84 c8 39 5f 97 fa ba 56 29 17 bb 1e 8e 3b ba
       0.00038245702 -0.0019118598 -0.002306541 -0.0007154661
000040 a1 34 83 3a 95 ae aa 3b d7 18 9c ba b1 9e a1 b9
       0.0010010191 0.0052088 -0.0011909258 -0.00030826547
000050 4a ce 37 bc c6 f8 38 ba 47 d6 7f 3a 6a 68 0a 3a
       -0.011218617 -0.0007056113 0.0009759408 0.0005279841
000060 73 36 39 3a 99 79 fc bb c4 bb 25 3b 52 59 13 ba
       0.00070653035 -0.0077049253 0.002528892 -0.0005620915
000070 2a 05 33 bb f0 9b 65 bc db 1a c3 3a 86 b4 c6 3a
       -0.002731631 -0.014014229 0.0014885323 0.0015160001
000080 0e 09 50 bc e7 c0 06 bb 70 b7 28 3b bf 9d 63 bb
       -0.012697471 -0.0020561756 0.0025744103 -0.0034731475
000090 45 b5 12 bc ae 07 41 bc a6 a6 fb ba 63 fc d8 ba
       -0.008954351 -0.011781616 -0.0019199445 -0.0016554709
0000a0 a9 bc 31 bc c6 9d 03 3b 3c 38 02 bb b4 68 22 bc
       -0.010848203 0.0020083054 -0.0019869944 -0.0099126585
0000b0 1d 19 9b 3a 22 ef 0a b9 a5 6f a1 bb 41 ce e6 ba
       0.0011833046 -0.0001324979 -0.004926639 -0.0017609076
0000c0 a3 83 ce ba 21 13 4d bc be 5a 48 3b e1 a4 53 3b
       -0.0015755784 -0.012516768 0.0030571665 0.003229432
0000d0 0a 61 d3 b9 9b 88 9c 3b 8b 2d 3e bc 87 45 38 bc
       -0.00040317356 0.004777027 -0.011607538 -0.011247045
0000e0 36 f4 96 ba 90 07 b5 ba 60 9f 2a bc bf 2d e1 ba
       -0.0011516872 -0.0013811458 -0.0104139745 -0.0017179771
0000f0 65 64 80 39 cf 42 29 bb 12 09 25 bc cb a3 46 bc
       0.00024488862 -0.0025827175 -0.010072963 -0.012124012
000100 61 9b 48 3b 78 79 cd 3b ed a2 45 bb c4 82 e7 3b
       0.0030610191 0.0062705837 -0.0030156926 0.007065149
000110 0a 9b ec 3a 5f 9c a1 ba d1 88 cd 3b 98 e8 b7 3a
       0.0018051576 -0.0012329927 0.0062724133 0.001403111
000120 99 22 15 bb ed d1 67 ba 88 16 04 3c 9c 7f 8c ba
       -0.0022756218 -0.0008843232 0.0080620125 -0.0010719183
000130 46 3c 89 b9 b4 7c 20 3c b2 af 9f 3b 62 7f 8b 3b
       -0.00026175583 0.009795357 0.0048732394 0.0042571286
000140 68 b4 1d bb 2e 4a 74 3a 7b 1d fc 39 57 ab b1 39
       -0.002406383 0.0009318915 0.0004808715 0.0003388773
000150 30 08 4f 3d dd 94 c6 39 ee 83 21 3b b8 ee 00 3a
       0.050544918 0.00037876415 0.0024645287 0.00049183844
000160 26 93 f0 ba d8 ca 7e 3c 33 26 2b 3a c0 27 df bb
       -0.00183544 0.015551291 0.00065288245 -0.0068101585
000170 63 9c bd ba 8e 51 52 3d 78 51 dc bb fd 9f aa ba
       -0.0014466163 0.051347308 -0.006723579 -0.0013017651
000180 dc e4 50 3d e2 3e 92 3a fa 5d c5 3a a3 0c 27 3a
       0.050999507 0.0011157657 0.0015057914 0.00063724275
000190 bb 52 4e 3d e6 10 56 3d 90 75 21 3c 40 8b ff 3a
       0.050371867 0.05226221 0.009854689 0.0019496456
0001a0 f2 a6 4d 3d 27 9d 01 bb d7 9f 0c 3c 6b e6 5a 3d
       0.05020804 -0.0019777508 0.008583031 0.0534424
0001b0 2e c1 0d bb 73 6c 45 3a 29 e8 46 3c f8 68 76 3b
       -0.0021630037 0.0007531114 0.012140312 0.0037599187
0001c0 c9 b5 f8 3b 6f 7a 57 3d 7c d5 a0 3a b1 4c e9 3b
       0.00759003 0.052606996 0.0012270655 0.007119738
0001d0 2e 12 09 3c a8 ed 16 3c ed 1e 56 3d 81 0d 63 3d
       0.008366151 0.009211935 0.052275587 0.0554328
0001e0 47 aa 96 3a 86 56 f1 3b a3 4b 58 3b ba ab 23 3c
       0.0011494838 0.0073650507 0.0033004067 0.009989673
0001f0 ff b9 69 3a 4a 22 24 3b 51 e8 3a 3d 25 ea 51 3d
       0.000891596 0.0025044852 0.04563171 0.05124869
000200 af 99 9b 3a 99 79 18 3c 77 91 ae 3a de 94 29 3c
       0.0011871363 0.009306335 0.0013318498 0.010350434
000210 0d 83 76 3a 41 2e bd ba 9f 4d e9 bb 7e 16 31 3a
       0.00094036834 -0.001443334 -0.007119849 0.0006755366
000220 b6 ae 25 3a 7b 5b 1d 3c 16 e4 3c 3c e6 2d 08 bb
       0.00063202844 0.00960433 0.011528989 -0.002077931
000230 8d 04 a1 bb 01 b0 5b 3c 46 95 be 3a ac da c5 3b
       -0.0049138726 0.013408662 0.0014540337 0.0060380306
000240 8e 87 53 ba 53 e6 3c 3a df 1d 0c bc ef 9a ae b9
       -0.00080692105 0.0007205952 -0.008552044 -0.000333033
000250 6e 8d 8f 3d 49 fa 8f ba 70 39 09 bb d9 f3 fe b9
       0.070093974 -0.0010984625 -0.0020938776 -0.00048628336
000260 65 72 c9 3a da 2b 02 3c 6a 13 b9 ba da 16 b1 ba
       0.0015369175 0.007945025 -0.0014120166 -0.0013510839
000270 68 b5 90 3b 98 de 99 3d e4 53 d2 3a 4e cc 01 bb
       0.0044161566 0.075131595 0.001604673 -0.0019805613
000280 c9 3c 93 3d 61 dc 5a 3a e6 a3 73 3b a9 5e 0e 3b
       0.07189328 0.0008348879 0.0037176549 0.0021723902
000290 e4 c0 89 3d 0f 30 94 3d 63 6f 68 3c 02 b3 d4 ba
       0.06726244 0.07235729 0.014186713 -0.0016227665
0002a0 dc fb 8c 3d 41 0c d7 3a 5f c7 45 3c 68 b6 8e 3d
       0.06883976 0.001640685 0.01207146 0.06968385
0002b0 91 3b 7d ba 64 d8 04 bb e1 08 77 3c 85 61 4e bb
       -0.000966006 -0.002027058 0.0150778005 -0.0031491232
0002c0 10 f3 34 3c 4c 0a 91 3d 78 cf b1 bb 08 43 87 ba
       0.011044279 0.07082042 -0.0054263435 -0.001031966
0002d0 b2 84 98 3c 2b 6c c7 3b f9 7b 99 3d f3 ac 98 3d
       0.018617962 0.0060858927 0.07494349 0.074548624
0002e0 d8 d7 af ba d3 b5 28 3c 26 fa 8a 3c 00 f8 60 3c
       -0.0013415767 0.0102972565 0.016964983 0.013731003
0002f0 9e 1a 1f 3b 14 8a 2f ba 07 a3 81 3d 7a fd 9a 3d
       0.002427734 -0.00066962955 0.06329923 0.07567878
000300 ed af 3d bb 2b da 8c 39 c2 c3 26 bb ac f6 b7 ba
       -0.0028943971 0.0002686543 -0.002544627 -0.0014035306
000310 fe e0 8e bb be 6d a9 ba 6f c9 04 bb 46 74 85 3b
       -0.0043603173 -0.0012926382 -0.0020261665 0.0040726988
000320 d5 59 ac bb 8f c1 4b bb 53 ce d5 ba 07 98 2f 3b
       -0.0052597323 -0.0031090712 -0.00163121 0.0026793496
000330 1d 2f 21 3b 4b 00 f4 ba 78 77 18 3b 26 1f 6a ba
       0.0024594732 -0.001861581 0.0023264568 -0.0008931033
000340 49 b1 0c 3a a6 37 1e ba b8 a6 25 ba be 95 ab ba
       0.0005366994 -0.0006035514 -0.00063190935 -0.0013090891
000350 24 92 32 bc bb 07 2b 3b 52 71 a8 39 4d fc c3 ba
       -0.0108991 0.0026097137 0.00032127887 -0.0014952511
000360 a2 36 9c 3b bd 31 02 bc 8d 0d a5 ba 21 7b 18 3c
       0.004767255 -0.007946429 -0.001259254 0.0093067
000370 e7 73 43 3b 97 3b 4b bc 13 39 f1 3a 81 54 9c bb
       0.0029823722 -0.012404344 0.001840385 -0.004770816
000380 af de 3e bc d8 6f 9d 39 2e ff 94 bb 11 93 34 3b
       -0.011649772 0.00030028704 -0.0045470214 0.0027553479
000390 ba 33 4b bc 73 d1 2b bc ed 66 08 bb 00 55 e9 ba
       -0.012402469 -0.010486948 -0.0020813302 -0.0017801821
0003a0 af 01 36 bc ca 56 2f bb 2e 4e f2 ba 12 d6 51 bc
       -0.0111088 -0.0026754611 -0.0018486434 -0.012807386
0003b0 1d 93 0f bb 01 07 1b 3b e7 a4 f5 3b 6e 64 26 3b
       -0.0021907755 0.0023655298 0.0074964645 0.002538945
0003c0 dd 9e eb ba bb a8 2d bc eb 02 bf 3a 1a 67 52 ba
       -0.0017976422 -0.0105993105 0.0014573013 -0.00080262276
0003d0 bf 10 06 bc 5a fa c7 bb a6 52 1d bc de f8 35 bc
       -0.0081827035 -0.0061028423 -0.009602224 -0.011106698
0003e0 e7 35 a8 ba 4a c4 d7 ba a8 62 85 bb 07 94 0a bb
       -0.0012833447 -0.0016461697 -0.0040705986 -0.002114536
0003f0 6b 74 1a 3b 3c b6 4b ba 7c 50 1d bc 27 df 2e bc
       0.0023567926 -0.00077709905 -0.0096017085 -0.010673321

model.6.bias f4 [64]
000000 01 68 b9 bb 6b a8 03 3d 05 2c 1e 3d 3a 1a 10 bc
       -0.00565815 0.032143038 0.0386162 -0.008795315
000010 27 4e 95 bb 1e ed ff 3b 58 ea aa 3c f2 c5 5a 3d
       -0.0045564356 0.007810249 0.020863697 0.05341143
000020 c7 fb 43 bd c9 31 23 3d 2d 44 1f bd e5 c2 19 38
       -0.047847535 0.0398424 -0.038883377 3.6659552e-05
000030 ee 09 2a bd ab 3a 88 3c 9e 63 a6 b8 51 f2 8d 3c
       -0.041513376 0.016629538 -7.934052e-05 0.01732746
000040 61 6e a1 bb 14 ed e0 3c 31 bd 1a bd c4 68 c1 bd
       -0.0049264883 0.027456798 -0.037778083 -0.094438106
000050 49 f3 bd bb bc 0b 80 3c 16 7a 72 3c 2a 8b 5d 3d
       -0.005796824 0.015630595 0.014799615 0.054087795
000060 79 7c 14 bc 19 1f 29 bc 71 34 a7 bc a0 a6 6f 3c
       -0.00906288 -0.010322356 -0.020410748 0.014627129
000070 c1 d8 dd 3b 71 6f 8e bb 92 15 34 3c 07 10 23 bd
       0.006770224 -0.004346781 0.010991471 -0.039810207
000080 e6 30 23 bc aa 6f bf 3b b4 7a 35 3d 00 3d 14 3d
       -0.009960389 0.005842169 0.044306472 0.036190987
000090 48 36 7e b9 2f 22 8f bb 92 51 05 bd ea 04 c7 3d
       -0.00024243549 -0.0043680887 -0.032548495 0.09717734
0000a0 78 71 41 bc 4a 80 4e bc 60 a2 3b 3d 25 3d 08 bd
       -0.011806838 -0.012603829 0.04580915 -0.033261437
0000b0 79 46 1e bd 1f 95 c9 bb fb 16 3c bd f6 ab 1a bc
       -0.038641427 -0.00615181 -0.045920353 -0.009440413
0000c0 35 53 1c bd 34 b6 27 bd cd 7e da bc 90 cd 1e bc
       -0.03816529 -0.040945247 -0.026671791 -0.009692565
0000d0 c3 14 12 3d 0a ee 4d bc ae 3e c6 bb 75 77 d8 bb
       0.03566433 -0.01256896 -0.0060499525 -0.0066060373
0000e0 6e ef 0c 3c 9c d2 02 3c 39 1a 00 bd 9b 8c c0 3b
       0.008602006 0.0079847835 -0.031275008 0.0058761365
0000f0 48 b7 1e bc 19 7e cc 3c 65 30 6f bd e9 1b 11 bd
       -0.009687252 0.024962472 -0.058395762 -0.035427008
