CSSRS/RSIMDCL/checkpoint/pore2background_9_1rsim/latest_net_F4.pth (torch, 44759 bytes, 6 tensors)

model.0.weight f4 [64, 4, 3, 3]
0	0x3d4ad15c	0.049516067
1	0x3d37e226	0.044893406
2	0x3d757992	0.05993039
3	0x3c1cd74f	0.009572818
4	0xbc91c1c9	-0.0177926
5	0x3d0a4b66	0.03376331
6	0x3d3d0b3e	0.0461533
7	0x3d3e07c3	0.04639412
8	0x3d7d3af8	0.061823815
9	0xbd2f3fa5	-0.042785306
10	0x3d997c43	0.07494404
11	0xbd2830c0	-0.041062117
12	0xbc984a2c	-0.018590055
13	0x3d56229c	0.0522791
14	0xbc709bed	-0.014685613
15	0xbcfd2974	-0.030903555
16	0x3d9e2397	0.07721632
17	0xbcefccb3	-0.029272413
18	0xbc4220cf	-0.0118486425
19	0x3cc51ae2	0.02406067
20	0xbc275bf4	-0.010214794
21	0xbc6e7372	-0.0145538915
22	0x3d606861	0.054787043
23	0xbbd1869b	-0.00639422
24	0xbc151629	-0.009099522
25	0x3cf37cf6	0.029722672
26	0xbc5e56b2	-0.013570474
27	0x3d1b287f	0.037880417
28	0xbd3d5a91	-0.04622895
29	0x3cd6dad5	0.026227394
30	0x3c4c0284	0.012451772
31	0xbd9713e1	-0.073768385
32	0x3c82de01	0.015975
33	0x3d00ef83	0.031478416
34	0xbd4b4691	-0.049627844
35	0x3d38a947	0.04508331
36	0x3d1b3f90	0.037902415
37	0x3d1e613f	0.03866696
38	0x3d37c39f	0.044864293
39	0x3c6b3c16	0.014357587
40	0x3bebfdb0	0.0072018728
41	0x3ce3143c	0.02771961
42	0x3d08dc80	0.03341341
43	0x3d46423a	0.048403002
44	0x3d3a9b23	0.045558106
45	0xbcefaee8	-0.029258206
46	0x3d549ae2	0.05190552
47	0xbcbee187	-0.0233009
48	0xbc77f1c1	-0.015133322
49	0x3d5d5077	0.054031815
50	0xbc4dd7e8	-0.012563683
51	0xbcfc4df5	-0.030798892
52	0x3d540423	0.051761758
53	0xbcbc5dde	-0.022993978
54	0x3aff9b91	0.0019501318
55	0x3d0f7ec9	0.03503302
56	0xba83b63d	-0.0010048818
57	0xbc447187	-0.011989958
58	0x3d5e77b2	0.05431337
59	0xbc3ed33f	-0.011647045
60	0xbb7cb669	-0.0038560873
61	0x3cfa1885	0.03052927
62	0xbb25866c	-0.0025257124
63	0x3ca01eb8	0.019545898
64	0xbce04668	-0.027377322
65	0x3c88b373	0.01668713
66	0x3c6b1e5e	0.014350502
67	0xbd74fd83	-0.05981208
68	0x3c72fdce	0.01483102
69	0x3cad58ed	0.021160567
70	0xbcf3379c	-0.029689603
71	0x3c8eb73b	0.017421355
72	0x3d1573b2	0.03648729
73	0x3d2baa2a	0.041910328
74	0x3d4a369a	0.04936848
75	0x3caf7ea2	0.021422688
76	0x3c0de456	0.008660397
77	0x3d126522	0.03574098
78	0x3d0b8393	0.034061026
79	0x3d1659cc	0.03670673
80	0x3d3f36e8	0.046683222
81	0xbd221277	-0.03956839
82	0x3d5f9f15	0.05459507
83	0xbd134a8b	-0.03595976
84	0xbc7e119e	-0.01550713
85	0x3d2f43a7	0.042789128
86	0xbb1a6ad4	-0.002356221
87	0xbd1f427b	-0.03888176
88	0x3d649924	0.05581011
89	0xbcca294d	-0.024677897
90	0x3ba00de1	0.004884467
91	0x3cd80e1b	0.026373914
92	0x3b94a11f	0.0045358087
93	0xbc82cb34	-0.015966035
94	0x3d65a006	0.056060813
95	0xbbdef6aa	-0.006804307
96	0xbaeabb01	-0.0017908515
97	0x3cd95f78	0.02653478
98	0x3bd501fa	0.0065004798
99	0x3c995273	0.018716073
100	0xbd24a089	-0.04019216
101	0x3c80a0b1	0.015701624
102	0x3c596f8f	0.013271227
103	0xbd7e0bd2	-0.06202299
104	0x3c825a1f	0.015912114
105	0x3c8d46f2	0.017245743
106	0xbd32fa27	-0.043695595
107	0x3c899b61	0.016797723
108	0x3d537797	0.05162772
109	0x3d3b904b	0.045791905
110	0x3d72432d	0.059146095
111	0x3d10b9a2	0.035333283
112	0xbc2547a4	-0.010087881
113	0x3d48a559	0.048985813
114	0x3d367f32	0.044554897
115	0x3d32288a	0.043495692
116	0x3d6ca638	0.057775706
117	0xbccc9628	-0.024973944
118	0x3d56b696	0.05242022
119	0xbcc01ef2	-0.023452256
120	0xbc26feeb	-0.010192613
121	0x3d3c5a1b	0.04598437
122	0xbbd1c512	-0.0064016664
123	0xbcdd8f1f	-0.027045785
124	0x3d3874ad	0.045033146
125	0xbcc38431	-0.023866745
126	0x3bb3a2da	0.00548206
127	0x3ced23bd	0.028947705
128	0x3bb30001	0.005462647
129	0xbb0fa87a	-0.0021920488
130	0x3d90dcaf	0.07073342
131	0x3bb2aa01	0.005452395
132	0xba997c36	-0.0011709991
133	0x3d02e0f9	0.031952832
134	0x3b54d5f7	0.0032476166
135	0x3ca95842	0.020671967
136	0xbcd7908e	-0.026314046
137	0x3c8dc987	0.01730801
138	0x3b9515d6	0.004549722
139	0xbd9c447f	-0.07630252
140	0x3ca1988f	0.019726066
141	0x3c9e6a50	0.019337803
142	0xbd1cc67b	-0.038275223
143	0x3c87e645	0.016589293
144	0x3d00fa47	0.031488683
145	0x3d4523d5	0.048129875
146	0x3d4af66e	0.04955142
147	0x3c331bbc	0.010931905
148	0x3abc7eff	0.001438111
149	0x3cec6210	0.028855354
150	0x3d0f42bc	0.034975752
151	0x3d4dc9c7	0.050241258
152	0x3d48381d	0.04888164
153	0xbd1f0903	-0.038826954
154	0x3d8bca6c	0.06825718
155	0xbd217f25	-0.039427895
156	0xbc456905	-0.012048964
157	0x3d69636b	0.056979578
158	0xbc43bada	-0.011946404
159	0xbd29d749	-0.041465078
160	0x3d80766f	0.062725894
161	0xbd2724a4	-0.040806428
162	0xbb9ad004	-0.0047245044
163	0x3d0e8b06	0.03480055
164	0xbbdf2822	-0.006810204
165	0xbb895706	-0.004191282
166	0x3d818208	0.063236296
167	0xbbea1cfb	-0.007144568
168	0xbc055ee8	-0.008140303
169	0x3cf3f27a	0.029778708
170	0xbbfc244f	-0.007694758
171	0x3c8656af	0.016398756
172	0xbd29aa32	-0.041422077
173	0x3c84d800	0.016216278
174	0x3c327d6d	0.010894162
175	0xbd91a1da	-0.07110949
176	0x3c62961b	0.013829733
177	0x3c929d2c	0.017897211
178	0xbd5cc599	-0.05389938
179	0x3c6ca563	0.014443728
180	0x3d034565	0.0320486
181	0x3d387b4c	0.04503946
182	0x3d4ae4aa	0.049534477
183	0x3c82f6ab	0.015986761
184	0x3c102d20	0.008799821
185	0x3cf1ab7f	0.029500721
186	0x3d126660	0.035742164
187	0x3d2fea54	0.042948082
188	0x3d45f51f	0.04832947
189	0xbd3bc1be	-0.045839064
190	0x3d8de2b6	0.06928007
191	0xbcd2c296	-0.025727551
192	0xbd17f220	-0.037096143
193	0x3d75e79c	0.060035333
194	0xbcb96217	-0.02262978
195	0xbd1e9691	-0.03871781
196	0x3d8705f1	0.0659293
197	0xbcd70413	-0.02624706
198	0xbc742faa	-0.014903942
199	0x3d110822	0.035408147
200	0x3af4abff	0.0018666981
201	0xbc9a4a57	-0.018834276
202	0x3d40b7dd	0.047050346
203	0xbc07f776	-0.008298745
204	0xbc7204a5	-0.014771615
205	0x3d1a560f	0.037679728
206	0xbb3dc4a4	-0.0028956318
207	0x3d20651d	0.03915893
208	0xbd30089d	-0.042976964
209	0x3cea5504	0.028604992
210	0x3c9079ac	0.017636143
211	0xbd832406	-0.06403355
212	0x3c9e5f67	0.0193326
213	0x3d1adb6e	0.03780692
214	0xbd2eaa12	-0.04264266
215	0x3d0ee992	0.03489072
216	0x3d3bfa2b	0.045892876
217	0x3d67cc3f	0.05659127
218	0x3d80061a	0.06251164
219	0x3c8cf85b	0.017208269
220	0x3a8c76b0	0.0010716524
221	0x3d27f1b5	0.041001994
222	0x3d501dc3	0.050809633
223	0x3d36fd92	0.044675417
224	0x3d7d47a3	0.061835896
225	0xbcffc8ff	-0.031223772
226	0x3d73262d	0.05936258
227	0xbcecb213	-0.028893506
228	0xbc865635	-0.016398529
229	0x3d3d6881	0.04624224
230	0xbc69f3c8	-0.014279313
231	0xbd10fa45	-0.035394926
232	0x3d75c185	0.059999008
233	0xbcf71551	-0.030161532
234	0xbad13c93	-0.0015963487
235	0x3ce0479b	0.027377894
236	0xbbcc3225	-0.0062315636
237	0xbc0867f0	-0.008325562
238	0x3d918126	0.07104711
239	0xba505211	-0.0007946799
240	0xbc55a66f	-0.013040169
241	0x3d0b4e27	0.03401008
242	0xbc64e826	-0.013971364
243	0x3d057b5d	0.03258835
244	0xbd4320fc	-0.04763888
245	0x3c971bcc	0.018445872
246	0x3c564808	0.013078697
247	0xbd877cc7	-0.06615596
248	0x3c785cdf	0.015158861
249	0x3ce8c370	0.028413504
250	0xbd54c092	-0.05194146
251	0x3c886da8	0.01665385
252	0x3d27b2d1	0.040942017
253	0x3d3db6ef	0.046317037
254	0x3d672ba1	0.056438092
255	0x3c8e051d	0.017336423

model.0.bias f4 [64]
0	0x3fed6e61	1.854931
1	0x3fe136cb	1.7594846
2	0x3ffaf919	1.9607269
3	0x3ff131c2	1.884331
4	0x3ff48b93	1.9105095
5	0x4006fd1c	2.1091986
6	0x4000ea93	2.0143173
7	0x40028c68	2.0398197
8	0x40006eef	2.0067708
9	0x3fe73631	1.8063413
10	0x3fe287bd	1.7697674
11	0x3fc90bff	1.5706786
12	0x40000b08	2.0006733
13	0x3feac9ee	1.8342874
14	0x40056ac1	2.0846407
15	0x3ffa8d88	1.9574442
16	0x3feba2ba	1.8409035
17	0x3fe25ab8	1.7683935
18	0x4008a068	2.1347904
19	0x3ff25c85	1.8934485
20	0x3ffc5261	1.971264
21	0x3ffb7700	1.9645691
22	0x40053793	2.081517
23	0x3febd8c9	1.8425533
24	0x400061fb	2.0059803
25	0x3ff5c005	1.9199225
26	0x3ffbacfd	1.9662167
27	0x3ffe6f9a	1.9877808
28	0x3ffc4278	1.9707785
29	0x4007cdac	2.1219282
30	0x4004945b	2.071555
31	0x400626e2	2.0961232
32	0x3fdc5d72	1.7216017
33	0x3ff228ad	1.8918663
34	0x40019e83	2.0252998
35	0x3fedffc3	1.8593677
36	0x3fea1d85	1.8290259
37	0x3ff4dde2	1.9130213
38	0x3fecc3e4	1.8497281
39	0x4009538d	2.1457245
40	0x3fefaf35	1.8725344
41	0x4008c7bb	2.1371906
42	0x40027458	2.038351
43	0x3fd9876f	1.6994456
44	0x3ffedc21	1.9910928
45	0x4007661e	2.1156077
46	0x400769e8	2.115839
47	0x400bd984	2.185151
48	0x400b9005	2.1806653
49	0x4001abb2	2.0261045
50	0x3fffb2e4	1.9976468
51	0x3ff718c4	1.9304433
52	0x3fe34155	1.7754313
53	0x3ff8a9ee	1.9426858
54	0x3ff1b888	1.888444
55	0x3ffac0db	1.9590105
56	0x3fea064d	1.8283173
57	0x3fde32f4	1.73593
58	0x4000f3b6	2.014875
59	0x3fef8ad5	1.8714243
60	0x3feb9e04	1.8407598
61	0x4009d974	2.1538973
62	0x4003f521	2.0618365
63	0x400694b4	2.102826

model.4.weight f4 [64, 64]
0	0x3e7038da	0.23459187
1	0x3e6f8759	0.23391475
2	0x3e7823f4	0.24232465
3	0x3e811de4	0.25218117
4	0x3e724a92	0.23661259
5	0x3e786683	0.24257855
6	0x3e70c6ec	0.23513383
7	0x3e73c540	0.23805714
8	0x3e7bf979	0.24606885
9	0x3e733a99	0.23752822
10	0x3e797d6c	0.24364251
11	0x3e76f086	0.2411519
12	0x3e74e307	0.23914729
13	0x3e80567e	0.25065988
14	0x3e728a50	0.23685575
15	0x3e8312d8	0.25600314
16	0x3e6e8c56	0.23295721
17	0x3e7cbdf7	0.24681841
18	0x3e73a0a4	0.23791748
19	0x3e7d567c	0.24740022
20	0x3e74886b	0.23880164
21	0x3e71d472	0.23616198
22	0x3e73e6e7	0.23818551
23	0x3e788149	0.24268068
24	0x3e770a72	0.24125078
25	0x3e75f953	0.24020891
26	0x3e71157e	0.23543355
27	0x3e73d794	0.23812705
28	0x3e7e06c7	0.24807273
29	0x3e6f1ac1	0.2335005
30	0x3e76e425	0.24110468
31	0x3e7ea700	0.24868393
32	0x3e776d54	0.24162799
33	0x3e7b99d7	0.24570404
34	0x3e6ce731	0.23135068
35	0x3e729210	0.23688531
36	0x3e82e02f	0.25561664
37	0x3e73a111	0.2379191
38	0x3e753a89	0.2394811
39	0x3e78e466	0.24305877
40	0x3e82846f	0.25491664
41	0x3e79ed07	0.24406825
42	0x3e75d38e	0.24006483
43	0x3e79ae0c	0.243828
44	0x3e7be6a7	0.24599706
45	0x3e75ba71	0.23996903
46	0x3e6ce936	0.23135838
47	0x3e78ff32	0.243161
48	0x3e6d12c4	0.2315169
49	0x3e79396c	0.24338311
50	0x3e788b76	0.2427195
51	0x3e71db55	0.23618825
52	0x3e76e3e3	0.2411037
53	0x3e82dd94	0.25559676
54	0x3e8045a7	0.2505314
55	0x3e76e1ea	0.24109617
56	0x3e74b749	0.23898043
57	0x3e80351b	0.25040516
58	0x3e80805b	0.25097927
59	0x3e72cfb8	0.23712051
60	0x3e76c273	0.24097614
61	0x3e7d47b2	0.24734381
62	0x3e77dfda	0.24206486
63	0x3e78e621	0.24306537
64	0xb98be8ae	-0.00026685506
65	0x3b55b98c	0.0032611815
66	0x3b238dc3	0.0024956323
67	0xbb671369	-0.0035259372
68	0xbb3f29e7	-0.0029169263
69	0x3b34e0df	0.0027599854
70	0x3ac2153d	0.0014807355
71	0xbb63d597	-0.003476476
72	0xbb52ac8f	-0.003214631
73	0xbb67baf9	-0.0035359247
74	0xb97ad4ac	-0.00023921084
75	0x3acca1e1	0.0015612209
76	0xbb081143	-0.0020762242
77	0xbb4d55d2	-0.003133167
78	0x3b1b7f25	0.0023726907
79	0xbaac190c	-0.0013130023
80	0xbb0debf8	-0.002165554
81	0xbbc6874c	-0.006058609
82	0xba47ca8c	-0.00076214294
83	0xbb26cab9	-0.0025450422
84	0xba895efc	-0.0010480578
85	0xba9ff05a	-0.0012202368
86	0x3b98fbe3	0.004668699
87	0xba7398bf	-0.00092924753
88	0xba8ae625	-0.0010597153
89	0x3b1b1e4b	0.002366918
90	0xba607fbb	-0.0008563955
91	0xbac4cb42	-0.0015014189
92	0x39a5c5ec	0.00031618716
93	0x3b2ffe93	0.002685462
94	0x3ba9b815	0.005179415
95	0xbb08c940	-0.0020871907
96	0xbb895884	-0.00419146
97	0xbb22ec15	-0.0024859954
98	0x3b437d6d	0.0029829398
99	0xba517c85	-0.0007991272
100	0xba74d3a9	-0.0009339401
101	0xba307921	-0.0006731917
102	0x3b399656	0.0028318367
103	0xb95c6fbb	-0.00021022458
104	0x3b00b254	0.0019637542
105	0xb9e208d5	-0.0004311266
106	0xbac971e5	-0.0015369026
107	0x3a9da363	0.0012026842
108	0xbab8348d	-0.0014053747
109	0xb9c1c8c8	-0.00036961422
110	0x3b1af26d	0.0023643032
111	0x3a05bac5	0.0005101378
112	0xbb3cc474	-0.0028803619
113	0x3b6ea1a3	0.003641226
114	0x3ac198fb	0.0014770323
115	0x3b480e0f	0.0030525958
116	0x3ab540e3	0.0013828542
117	0xbaa333a2	-0.0012451301
118	0x3b3c7850	0.0028758235
119	0xba1dfd55	-0.0006026824
120	0x3b2ef551	0.0026696513
121	0xbb3bd233	-0.0028659224
122	0xba3c651a	-0.0007186696
123	0xb8a16633	-7.696114e-05
124	0xbae3a42a	-0.001736765
125	0xbb3eeaa8	-0.0029131565
126	0x3ae9d674	0.0017840401
127	0x3ba6916d	0.005083254
128	0xbb95a0f6	-0.004566307
129	0xbb827273	-0.0039809286
130	0xbbdc879f	-0.0067300345
131	0xbbb27b36	-0.005446817
132	0xbb7b7456	-0.0038368902
133	0xbb875134	-0.004129553
134	0xbbd14664	-0.006386565
135	0xbb640b01	-0.0034796598
136	0xbb68692f	-0.0035463085
137	0xbb5eafcf	-0.0033979302
138	0xbaabb749	-0.0013100888
139	0xbb2d0332	-0.002639961
140	0xbbae9785	-0.005328121
141	0xbb2e4bd4	-0.002659549
142	0xbbee914b	-0.007280504
143	0xbb9fb845	-0.0048742616
144	0xbb088ec6	-0.0020837053
145	0xbb9ff3ba	-0.0048813494
146	0xbc025de3	-0.007956955
147	0xbc16b1b7	-0.009197644
148	0xbbe5ffd7	-0.007019024
149	0x3b043e6d	0.002017881
150	0xbbc7082c	-0.006073972
151	0xbba44117	-0.005012642
152	0xbbbbdf0e	-0.0057333773
153	0xbbfa0fa7	-0.0076312604
154	0xba31d63d	-0.0006783938
155	0xba0f2e22	-0.00054618914
156	0xbaffdd4e	-0.001952091
157	0xba181b8b	-0.0005802444
158	0xbb91e08f	-0.0044518183
159	0xbb9a4f34	-0.004709149
160	0xbb7dfacf	-0.003875423
161	0x3b093a61	0.0020939338
162	0xbbd2d3ca	-0.0064339386
163	0x3a1f43b3	0.00060754566
164	0xbb0c55a0	-0.0021413341
165	0xbbb63ae4	-0.0055612195
166	0xbb52808d	-0.003212008
167	0xbb531977	-0.0032211223
168	0xbadaee2f	-0.0016703064
169	0xbbf24982	-0.0073940167
170	0xbbb7e38f	-0.005611844
171	0xbbad3730	-0.00528612
172	0xbbff3513	-0.0077883094
173	0xbb33e189	-0.0027447662
174	0xbb024284	-0.0019876072
175	0xbb86b5c3	-0.004111023
176	0xbbee99b8	-0.0072815083
177	0xba5ff6d5	-0.0008543556
178	0xbb81b87c	-0.00395876
179	0xbb9ac4f7	-0.004723187
180	0x3a8e5718	0.0010859696
181	0xbb7a8456	-0.003822585
182	0xbbe1e1d1	-0.0068933745
183	0xbc563b2c	-0.013075631
184	0xbc043841	-0.008070053
185	0xbb58831e	-0.0033037136
186	0xbab49c95	-0.0013779575
187	0xbbc56a9e	-0.0060246726
188	0xbbbdf9af	-0.005797587
189	0xbc1d948a	-0.009617934
190	0xbbf07b2a	-0.007338901
191	0xbc02aa42	-0.007975163
192	0xba737cc8	-0.0009288308
193	0x382febef	4.194298e-05
194	0xbb009412	-0.0019619507
195	0xbaa5b9d3	-0.0012643881
196	0x3b1ead13	0.0024212047
197	0xbbb42b13	-0.005498299
198	0xbaf5dd86	-0.0018758036
199	0x39a0b106	0.0003064947
200	0xbb0e9fec	-0.0021762801
201	0xbb7b045a	-0.0038302154
202	0xb8da94b6	-0.000104227496
203	0xb80fdebe	-3.43013e-05
204	0x3a8d6b35	0.0010789396
205	0x3b2036ad	0.0024446652
206	0x390c4e1b	0.00013380537
207	0xba2927d7	-0.0006452775
208	0xb9c858dc	-0.00038213178
209	0xb9d8697a	-0.00041277317
210	0x3b20738d	0.0024482936
211	0x3a86d27e	0.001028612
212	0xb911af24	-0.00013893523
213	0x3b8db393	0.0043243854
214	0xba6747b9	-0.0008822638
215	0x3b8a549a	0.004221511
216	0x3b8ad2a1	0.0042365347
217	0x3a89a0af	0.0010500158
218	0xbba8ab1d	-0.0051473514
219	0x3aacda70	0.0013187658
220	0xbb4243ed	-0.0029642538
221	0xba925a80	-0.0011165887
222	0x3b2e5502	0.0026600962
223	0xbb2aab0c	-0.0026041893
224	0xbb0b0118	-0.0021210369
225	0xb9c53d53	-0.00037620458
226	0x3b368ce5	0.0027854976
227	0x38ba1750	8.8735134e-05
228	0xbad28da2	-0.0016063938
229	0xbaca4a79	-0.0015433572
230	0x3b2f98cf	0.0026793962
231	0xbb1e667c	-0.0024169972
232	0xba110889	-0.0005532583
233	0xbb767c08	-0.003761055
234	0xb9f71be0	-0.0004713228
235	0xbb30e729	-0.002699325
236	0xbb326a49	-0.0027223995
237	0x3a91a898	0.0011112867
238	0x3b0baade	0.0021311562
239	0xb888a586	-6.5158165e-05
240	0x39d5a21b	0.00040747304
241	0xba4a08af	-0.00077069824
242	0x3b1449a5	0.0022626903
243	0x3a42314e	0.00074078597
244	0x39da7d3d	0.0004167351
245	0xbb03ad1c	-0.0020092195
246	0xbb0b6cfb	-0.0021274674
247	0x3af7feb8	0.0018920517
248	0xbab8e9a8	-0.0014107721
249	0x3a6eb561	0.0009106007
250	0x3a3a9942	0.0007118174
251	0xbb3f8da0	-0.0029228702
252	0xbb97fe5f	-0.0046384777
253	0xbad2660b	-0.001605214
254	0x39a83151	0.000320802
255	0x3b61a2c4	0.0034429291

model.4.bias f4 [64]
0	0x3e4d25ac	0.20033902
1	0xb9b2994b	-0.00034065018
2	0xba08bcb5	-0.0005216108
3	0xb9901b3b	-0.0002748611
4	0xb9d28da1	-0.00040159843
5	0xbb1d9141	-0.0024042877
6	0x399c3da0	0.00029800553
7	0xb9d28da2	-0.00040159846
8	0xbb1f7c98	-0.0024335738
9	0xb9ed6c71	-0.00045284958
10	0x00000000	0.0
11	0x00000000	0.0
12	0x3e09b254	0.13446933
13	0xb9d28da1	-0.00040159843
14	0xb9d973ac	-0.00041475648
15	0x00000000	0.0
16	0xb9d34921	-0.0004029954
17	0xb9d28da1	-0.00040159843
18	0x3e21360f	0.15743278
19	0xb9d34920	-0.00040299539
20	0x3c8e2904	0.017353542
21	0x398916e5	0.00026147734
22	0x00000000	0.0
23	0xb995d507	-0.00028578212
24	0x00000000	0.0
25	0xb9d28da2	-0.00040159846
26	0xb9d28da2	-0.00040159846
27	0xb9d28da2	-0.00040159846
28	0xb9d28da2	-0.00040159846
29	0xb9d65465	-0.0004088014
30	0xba6f0eb1	-0.00091193157
31	0x39b391e3	0.00034250235
32	0x00000000	0.0
33	0x00000000	0.0
34	0x00000000	0.0
35	0x00000000	0.0
36	0x00000000	0.0
37	0x39cc5c34	0.0003897861
38	0xb9d28da2	-0.00040159846
39	0xb9d28da2	-0.00040159846
40	0x00000000	0.0
41	0x00000000	0.0
42	0xba88a279	-0.0010424397
43	0xba6f0eb2	-0.0009119316
44	0xb9d28da2	-0.00040159846
45	0x00000000	0.0
46	0xb9d28da2	-0.00040159846
47	0xb9d28da1	-0.00040159843
48	0x00000000	0.0
49	0x00000000	0.0
50	0x3e23ed55	0.16008504
51	0xb9d34923	-0.00040299547
52	0xb99a9360	-0.00029482972
53	0xb9d28da1	-0.00040159843
54	0xbbd61e22	-0.006534354
55	0xba824e60	-0.000994157
56	0x00000000	0.0
57	0xb9d28da1	-0.00040159843
58	0x00000000	0.0
59	0xb9e8a9ab	-0.000443769
60	0x39a48b0b	0.00031384113
61	0x3b111e1f	0.0022143198
62	0x00000000	0.0
63	0xbb4820a7	-0.003053704

model.6.weight f4 [64, 64]
0	0xbc43fa7a	-0.011961574
1	0xbb10e370	-0.002210822
2	0xbb9dea1f	-0.004819169
3	0xbaa096cf	-0.0012251976
4	0xba97337d	-0.001153573
5	0xbbc26977	-0.0059329825
6	0xbad6f1b1	-0.0016398934
7	0x3a80d734	0.000982976
8	0xbbeafee0	-0.0071714967
9	0x3b214483	0.0024607487
10	0x3a469aea	0.00075761846
11	0xba6cb79c	-0.00090300455
12	0xbc539dc2	-0.01291603
13	0xba2587ba	-0.00063144753
14	0xbace9642	-0.0015761333
15	0xba97c9de	-0.0011580547
16	0xbb9a8f54	-0.004716793
17	0xbb20ea7b	-0.0024553824
18	0xbc260ddb	-0.010135139
19	0xba0b0ca3	-0.0005304312
20	0xbc37c6ad	-0.011216802
21	0xba68379e	-0.0008858385
22	0x3b5dfbcf	0.0033872013
23	0xbaf69777	-0.0018813451
24	0xbb198ef2	-0.002343115
25	0x3ad428c8	0.001618647
26	0xb9a9a407	-0.00032356402
27	0xbab67786	-0.0013921119
28	0xba49bfd7	-0.0007696128
29	0x3a1132b9	0.00055388693
30	0xba0a2391	-0.0005269582
31	0xbb08999e	-0.0020843516
32	0xb9993aa7	-0.00029226133
33	0x395ed36e	0.00021250334
34	0xb9a6dc00	-0.000318259
35	0x3b598b90	0.0033194758
36	0x3ad3a52c	0.0016147248
37	0xbb202d74	-0.0024441155
38	0x3a197756	0.0005854269
39	0xbb932469	-0.0044904244
40	0x3b2c5dbc	0.0026300987
41	0xbb52952c	-0.003213237
42	0x3b076d0a	0.0020664358
43	0xbb1704a1	-0.002304353
44	0x3a037bd7	0.0005015707
45	0xb7816dc8	-1.542912e-05
46	0x385f33b3	5.321549e-05
47	0xb9fafc72	-0.00047871802
48	0xbb66cc22	-0.0035216887
49	0x3ab8bc72	0.0014094247
50	0xbc48a43e	-0.01224619
51	0xbb281b01	-0.0025650861
52	0xba4f75a0	-0.0007913951
53	0x3a3ac6f7	0.0007124985
54	0x3ba925ac	0.0051619615
55	0xbb26277c	-0.0025353124
56	0xbb2a176f	-0.002595391
57	0x3b97a011	0.0046272357
58	0x3af48edd	0.0018658299
59	0xbc00f9f4	-0.0078720935
60	0xbac3afdd	-0.0014929731
61	0xbb579722	-0.0032896479
62	0xbb2cf93b	-0.002639367
63	0xbba9eb34	-0.005185509
64	0x3d59e0c5	0.053192873
65	0x3c434cc0	0.011920154
66	0x3b283b96	0.0025670282
67	0xbbde0c15	-0.0067763426
68	0x3a5dfe3c	0.0008468365
69	0x3cdf4625	0.027255127
70	0x3bfe123a	0.0077536376
71	0xbb55f8bf	-0.0032649485
72	0x3d01ee96	0.031721674
73	0x3b3d0b03	0.0028845675
74	0xba8c8692	-0.0010721257
75	0xbb0157f5	-0.0019736264
76	0x3d5aaf13	0.05338962
77	0xbb5e55f9	-0.0033925755
78	0x3ad3c3d8	0.0016156388
79	0xbb388006	-0.002815248
80	0xbb3c4f71	-0.0028733874
81	0xb9abe489	-0.00032785934
82	0x3d5ed8fb	0.054406147
83	0xb8ef134d	-0.00011400003
84	0x3d4e8d06	0.05042746
85	0x3b8bc4bf	0.0042653973
86	0xbaa0a96a	-0.001225752
87	0xbb60800e	-0.0034256014
88	0xb9ef4ef0	-0.00045644445
89	0x3a7cd5a4	0.0009644872
90	0x3b0f4da2	0.002186634
91	0x3a94d49e	0.0011354869
92	0x3b2a4f0f	0.0025987064
93	0xbac9467b	-0.0015356088
94	0x3aeea5c7	0.0018207364
95	0x3c2beb8f	0.010493173
96	0xba3df199	-0.00072457787
97	0xba865292	-0.0010247997
98	0x399e45d7	0.00030188143
99	0xbb82bff0	-0.003990166
100	0xbba06f7a	-0.0048961015
101	0x3c443f90	0.011978045
102	0x39c77b3b	0.00038048052
103	0x39438643	0.00018646666
104	0xba5d6c4c	-0.00084466184
105	0x3948ab81	0.00019137377
106	0xbb8a535b	-0.0042213625
107	0x3b16ab79	0.002299039
108	0x3a914eab	0.0011086067
109	0x3b29d3a2	0.0025913497
110	0xba0c9246	-0.00053623726
111	0xbb381732	-0.0028089997
112	0xbb6c893e	-0.0036092545
113	0x39b6375c	0.0003475499
114	0x3d4cc645	0.049993772
115	0xbb177295	-0.0023109068
116	0x3b552226	0.0032521575
117	0x39fe66ec	0.00048523338
118	0xba444fa7	-0.0007488676
119	0x3abe67e9	0.0014526817
120	0x3b91bcfd	0.004447578
121	0x3b096aa6	0.0020968108
122	0xbb463cb4	-0.0030248584
123	0x393ee4e1	0.00018205076
124	0x3bfed8d9	0.007777315
125	0x3c835b41	0.016034724
126	0x3aad05c7	0.0013200574
127	0xbb6a6092	-0.0035763127
128	0x3d98f01b	0.074676715
129	0x3c89b6b7	0.016810758
130	0x3b33f0b1	0.0027456696
131	0xb950f3c8	-0.00019927241
132	0x3a3899a0	0.0007041935
133	0x3d1adc80	0.03780794
134	0x3c3a25ca	0.011361549
135	0x3a29dbcc	0.00064795907
136	0x3d32968c	0.043600604
137	0x3a26bda6	0.0006360657
138	0x3b65f944	0.00350912
139	0x3b1dd4f0	0.002408322
140	0x3d9b548f	0.07584488
141	0x3a8027df	0.0009777508
142	0x3abebb63	0.0014551695
143	0x3a347a95	0.0006884721
144	0x3a76e456	0.000941818
145	0x3b6ecf48	0.0036439467
146	0x3d8eef87	0.0697928
147	0x3b69d54a	0.0035680109
148	0x3d8f7251	0.07004226
149	0x3bca9889	0.0061827344
150	0x39261c4f	0.0001584154
151	0xb98776bf	-0.0002583768
152	0x39bf15e6	0.00036446674
153	0x3a5165cf	0.0007987888
154	0x3abfc4b5	0.0014630767
155	0x3b806512	0.0039182985
156	0xbae310c3	-0.0017323721
157	0xbacd0153	-0.0015640653
158	0x3b034a1b	0.0020033184
159	0x3c701fbb	0.014656003
160	0x3acb7f09	0.001552553
161	0x3aceb2e7	0.001576987
162	0x3b7f20c1	0.0038929435
163	0xbab380e1	-0.0013695025
164	0x3b37065d	0.0027927377
165	0x3c888896	0.016666692
166	0x3aacf78e	0.0013196336
167	0xba131372	-0.00056105026
168	0xbb2b75e9	-0.002616281
169	0x3b57b15c	0.003291211
170	0xba50fc99	-0.00079722103
171	0xb84ba797	-4.855505e-05
172	0x38d1efc4	0.000100105564
173	0xbb8055c9	-0.0039164764
174	0xbb321854	-0.0027175145
175	0xbba7deb4	-0.005122984
176	0xbb94c981	-0.0045406227
177	0xbaea942e	-0.0017896944
178	0x3d962a19	0.07332248
179	0xba4e03c6	-0.00078588387
180	0x3bc3cabe	0.0059750965
181	0x3a4a679b	0.0007721127
182	0x3ace7442	0.00157512
183	0x3ae322ec	0.0017329133
184	0xbb2323bb	-0.0024893123
185	0xba3b47a2	-0.0007144158
186	0xbb920a26	-0.004456776
187	0x3bfb8176	0.007675345
188	0x3c2fa96b	0.010721545
189	0x3cb4b55a	0.022059131
190	0xba51c3f0	-0.0008001914
191	0xbb43031d	-0.0029756494
192	0xbc3fbe88	-0.011703141
193	0xbb216add	-0.0024630346
194	0x3b1e2664	0.002413177
195	0xba2a0798	-0.0006486117
196	0x3b99b496	0.004690717
197	0xbbc449c3	-0.0059902384
198	0xbae1a9d2	-0.0017216748
199	0xbb452304	-0.0030080685
200	0xbbdf42de	-0.006813391
201	0x3b187075	0.002326039
202	0x3abc3180	0.0014358014
203	0xbb597ca0	-0.0033185855
204	0xbc3f72a0	-0.011685044
205	0xbaf367ad	-0.0018570327
206	0xbb9c5a84	-0.0047715325
207	0xbaaa7660	-0.0013005249
208	0x38976996	7.219908e-05
209	0xbb2c8cba	-0.0026328997
210	0xbc34d127	-0.011036194
211	0x39e16367	0.00042989405
212	0xbc3188db	-0.010835852
213	0xba6275e0	-0.00086387806
214	0xbb4d250a	-0.0031302595
215	0x3a92c4ae	0.0011197531
216	0x39f3c345	0.0004649406
217	0xbb291677	-0.0025800744
218	0x3bd1cdd3	0.00640271
219	0x3b9e9143	0.004839094
220	0xb9d78c26	-0.00041112414
221	0x3b2d5c59	0.0026452749
222	0x39b88a4e	0.0003519826
223	0xbb139f59	-0.0022525399
224	0x3923b5da	0.00015612636
225	0x3aab1404	0.001305223
226	0xbb1daaa6	-0.0024058013
227	0x3b586977	0.0033021846
228	0xbb17e552	-0.0023177457
229	0xbb2e5c69	-0.0026605374
230	0x3b9930a5	0.0046749883
231	0xbac36eb7	-0.0014910315
232	0xba964a84	-0.0011466299
233	0x3a7b6c66	0.0009591043
234	0x3b8aa1c4	0.0042307097
235	0xbafb5740	-0.0019175783
236	0xbb1432d3	-0.0022613301
237	0xbaa43339	-0.0012527473
238	0xba1febd1	-0.0006100508
239	0x3ab5001f	0.001380924
240	0xbad128e4	-0.0015957621
241	0x3b95209f	0.004551008
242	0xbc33deb6	-0.010978391
243	0xb8185119	-3.6315152e-05
244	0xbaa3e276	-0.0012503404
245	0xba7c6222	-0.000962766
246	0xbb8e1df7	-0.004337068
247	0xba082c7a	-0.0005194616
248	0x3affa31b	0.0019503565
249	0x3a4529bc	0.00075211725
250	0xb881b582	-6.185008e-05
251	0xbbe5fe62	-0.00701885
252	0xbaab1814	-0.001305344
253	0xbb586034	-0.0033016326
254	0x38f314e6	0.000115910356
255	0x3b20f326	0.002455899

model.6.bias f4 [64]
0	0xbb9b8e35	-0.004747177
1	0x3d0800ce	0.033203892
2	0x3d244618	0.04010591
3	0xbbb646c1	-0.0055626337
4	0xbb8d5912	-0.0043135965
5	0x3beb6c0e	0.007184512
6	0x3c95ced0	0.018287092
7	0x3d2ad32e	0.041705303
8	0xbd1fa825	-0.038978714
9	0x3d0fed3f	0.035138365
10	0xbd2392d8	-0.039934963
11	0xbafff00e	-0.0019526498
12	0xbd196673	-0.03745122
13	0x3cb6e05f	0.022323785
14	0xbb12b263	-0.0022384159
15	0x3c946f05	0.018119344
16	0xbbf79ce9	-0.007556547
17	0x3ce9a476	0.028520804
18	0xbd224c2a	-0.039623417
19	0xbd77f914	-0.060540274
20	0xbba0ae0a	-0.0049035596
21	0x3c852c14	0.01625637
22	0x3c97bce5	0.01852269
23	0x3d35f3cf	0.044421967
24	0xbc0f073a	-0.00872975
25	0xbc24fff8	-0.010070793
26	0xbc755741	-0.014974416
27	0x3c793447	0.015210218
28	0x3bd2f903	0.006438376
29	0xbc0d8a10	-0.008638874
30	0x3c332e12	0.010936277
31	0xbd14b8cf	-0.03630906
32	0xbc17d42c	-0.009266894
33	0x3bb1fd90	0.0054318383
34	0x3d2d33ff	0.042285915
35	0x3d221c40	0.039577723
36	0xbafe0ec3	-0.0019383061
37	0xbbdfc95c	-0.006829424
38	0xbd0ef9cb	-0.03490619
39	0x3d92ac5f	0.071617834
40	0xbc2072d8	-0.009793006
41	0xbc3ff4e3	-0.0117161
42	0x3d10c953	0.035348248
43	0xbd095d1d	-0.033536065
44	0xbd1c1761	-0.038108233
45	0xbbb14b6e	-0.0054106032
46	0xbd3e732c	-0.046496555
47	0xbbf451d5	-0.007456044
48	0xbd195598	-0.037435144
49	0xbd1c16a4	-0.03810753
50	0xbcdc4881	-0.026890041
51	0xbc1c3002	-0.00953293
52	0x3d01bcb9	0.03167412
53	0xbc3fd329	-0.011708059
54	0xbba3054b	-0.004974996
55	0xbbd25388	-0.006418649
56	0x3c07c487	0.008286602
57	0x3c006bb7	0.007838181
58	0xbcf2bc1d	-0.029630715
59	0x3bad615e	0.005291148
60	0xbbfcc2bf	-0.007713645
61	0x3c8fa985	0.017536888
62	0xbd3cb9d6	-0.046075664
63	0xbcf4d6aa	-0.029887516
