CSSRS/RSIMDCL/checkpoint/pore2background_9_1rsim/latest_net_F3.pth (torch, 44759 bytes, 6 tensors)

model.0.weight f4 [64, 4, 3, 3]
00000000: 4c8a ff3c 584a 823d 375e 0a3d ddb8 b0ba
00000010: ee1d 993d 1158 493c 48f3 0f3d e940 823d
00000020: 3f5f 203d c7c8 ab3c b33b 403d 9b7f af3c
00000030: f3d0 ebbc d604 d9bc e3d2 b1bc cec9 5c3c
00000040: dfca db3c f6a6 cb3c 3c8d 37bd f897 8d3c
00000050: df98 08bd fbd9 af3c 7a6a f13a f08f cc3c
00000060: f128 56bd 624c f93c aec5 f0bc f7e1 303c
00000070: 44ee e9bb 9042 013c 4615 573d 48f6 353d
00000080: 35b5 273d ba24 4f3c 78f4 0bbd d79e 973c
00000090: ee4e aabc b8a9 c03d b47f 53bb 0563 4bbc
000000a0: 0322 a43d d601 cebc 03da 5fbc fa6b c63d
000000b0: e7cd b83a 5f92 84bc 57fc ed3d 4e54 ccbc
000000c0: 47cd f5bc 9281 b83d 3555 9ebc 99ac 80bc
000000d0: 661f eb3d 75d4 c5bc a90d 8ebd c820 d43d
000000e0: c69f bbbd 99dc 93bd 8f67 663d 75ce cebd
000000f0: fcee 88bd 9d14 e63d 024a b7bd ce48 253d
00000100: 4792 fdbc b356 993c 6982 ac3d 3b75 833d
00000110: c3c7 9b3d 9893 3b3d 2a2d 6ebd baa9 e63c
00000120: 7a9b 1aba cda4 edb9 3a5a 0038 c9fb f138
00000130: 30e6 073a 852f 49b9 f53b 2d39 c53e e738
00000140: adb1 aa39 3eda 2fba 4b86 b5b9 a827 43ba
00000150: d89a 0e3a 7225 4b3a 015c 6538 d9c4 03ba
00000160: 39ce bf38 ba88 fdba 99f1 abba 41f7 233a
00000170: 99d8 93ba 2b19 dab9 d07b 69b7 d165 81b7
00000180: f8fc 433a 34ae 05ba 7d10 28b8 fc52 b439
00000190: 9f47 e9b9 2b1f 4b38 aeb7 593a 0b9d 883a
000001a0: f5b6 38ba 5727 b6b9 0bcc ad38 bc7e 1739
000001b0: 5757 cbbc c6bd c03d 84dc 02bb 65d0 1bbd
000001c0: d8ad 973d 5a81 60bc 203f cabc 010b c53d
000001d0: 59a2 133b be3c 8ebd f895 e23d 2eac d0bc
000001e0: a8fd 81bd 38e1 fe3d 03c3 30bd 273f 9fbd
000001f0: 50fe e13d 02f2 69bd d36c d4bd 9675 cd3d
00000200: 175e b5bd 5a68 13be 2c5d 7c3d 878d 0abe
00000210: 5811 cbbd 6dd0 cc3d 8f4a aabd cbdb f23c
00000220: 42a1 17bd 9aa5 9d3c eccf 653d fd17 57bb
00000230: 05fd 4b3d 243a 043d 2f82 64bd 16e1 d43c
00000240: 3ee2 a8bb aaa1 a03d cc81 f03c c735 aabb
00000250: 1e6a 713d 9abf eb3c 4d1f cb3b dc0b 8f3d
00000260: c4e3 323d 3595 95bd 8a8c c83d ba2b 5dbd
00000270: aa1e 0ebd 5c21 fb3d d82d 06bd ce19 a1bd
00000280: 7334 c23d 4906 5abd a5bf eebd e3c1 cd3d
00000290: 2249 debd 8f20 2cbe 2f2b a23d f699 1fbe
000002a0: 916d fbbd dd0b d83d 1949 b5bd 2296 e83c
000002b0: 472d 06bd 0314 d23c fea7 e33c c027 9b3a
000002c0: eeaa 043d 6431 603d 9f17 03bd ad0f 213d
000002d0: cd5c f3bb c76d bf3c cfe6 2e3c 7e15 e43a
000002e0: 436d 1dba 89c8 f83c 4361 b5bc 3813 a73c
000002f0: c899 d03b f571 c3bd b88c 4d3d ebc1 e4bd
00000300: 7fc0 b9bd 9d4e a23d 5bf8 8ebd a298 01be
00000310: 9aa8 883d af47 e0bd 752b bfbd 17dc ed3d
00000320: 54ae e0bd 833b 31be 1c80 c93d c3f2 18be
00000330: 5d19 03be 1110 ab3d 7051 f0bd 5363 243d
00000340: e9ba d0bc ea9d 023d d26c 6ebb b3e4 f9bb
00000350: 10c5 e43c 4dc9 363d 6c31 e5bc 6c7b d83c
00000360: d117 d6bc 5415 83bc eef8 57bc ece9 00bd
00000370: fd5e 28bd fd57 bb3a ad8c 2dbd e571 cfbc
00000380: 3c89 7dbc 33ac f9bd a093 903c 8b67 dbbd
00000390: 2aa3 bcbd 4ac1 8a3d 01ad 83bd 9b9e dbbd
000003a0: da98 233d 603e e0bd b4c8 84bd fa4c 9d3d
000003b0: 9a2b 82bd 5a3b 14be 0882 c73d c2c7 00be
000003c0: d9a2 b1bd 4a1c a13d e26a 65bd 527e 113b
000003d0: 5231 d3bc ccc2 35bb 49b1 5cbb d357 bcbc
000003e0: 0306 afbb 35c5 ff3b ebaa 20bd 5ba8 29bb
000003f0: 393a 0dbc fdca 843d c305 2dba f63a 9bbc
0.031193875 0.06361836 0.033781257 -0.0013482828 0.07476412 0.012289063 0.03514412 0.06360037
0.039153334 0.020969762 0.046931934 0.021423152 -0.028786158 -0.026491564 -0.021707004 0.013475848
0.026830135 0.024859887 -0.044812426 0.017284378 -0.033348914 0.021466246 0.0018418573 0.024970978
-0.05228514 0.03043193 -0.029391136 0.010796062 -0.007138999 0.007889405 0.052510522 0.044424325
0.040944297 0.012643034 -0.03416869 0.018508358 -0.02078959 0.09407371 -0.0032272162 -0.012413745
0.080143 -0.02514736 -0.013662818 0.09688564 0.001409945 -0.016183076 0.11620396 -0.024942543
-0.03000511 0.090090886 -0.01932774 -0.015707301 0.11480598 -0.024149159 -0.06936199 0.10357815
-0.09161334 -0.0721981 0.056251105 -0.10097972 -0.06686208 0.112344004 -0.08949663 0.040352635
-0.03095354 0.0187181 0.08423311 0.06418844 0.07606461 0.045795053 -0.05814854 0.028157104
-0.00058978016 -0.0004532695 3.0601608e-05 0.00011538674 0.0005184142 -0.00019186556 0.00016520901 0.0001102663
0.00032557306 -0.0006708241 -0.00034623066 -0.0007444569 0.00054399436 0.0007749415 5.468354e-05 -0.0005026586
9.146002e-05 -0.0019343116 -0.0013118266 0.00062548 -0.0011279761 -0.00041598952 -1.391671e-05 -1.542541e-05
0.0007476355 -0.00050995057 -4.0069677e-05 0.00034394104 -0.00044494585 4.8428e-05 0.00083052635 0.0010422779
-0.00070463057 -0.00034743056 8.287289e-05 0.00014447694 -0.02482192 0.094111964 -0.0019967863 -0.038040537
0.07406205 -0.013702715 -0.024688303 0.096212395 0.0022527187 -0.069451794 0.110637605 -0.025472727
-0.06347209 0.12445301 -0.043154728 -0.07775717 0.110348344 -0.057115562 -0.10372319 0.10032193
-0.08855837 -0.14395276 0.061612293 -0.13530551 -0.099154174 0.100006916 -0.08315002 0.029645821
-0.03701902 0.019244004 0.056106493 -0.0032820695 0.049801845 0.03228201 -0.055788215 0.025986236
-0.0051539233 0.07843335 0.029358767 -0.005194399 0.05893909 0.028777886 0.0061987997 0.06984684
0.043674245 -0.073038496 0.09792431 -0.05399678 -0.034697212 0.12262222 -0.032758564 -0.0786625
0.0948266 -0.05322865 -0.11657647 0.100467466 -0.10853793 -0.16809295 0.07918393 -0.15586075
-0.122767575 0.10549138 -0.08851833 0.028391901 -0.032758024 0.025644308 0.027790066 0.0011837408
0.032389574 0.054734603 -0.03200495 0.03932159 -0.007426834 0.023367776 0.010675146 0.0017401425
-0.0006005356 0.03036906 -0.022141105 0.020394906 0.0063659884 -0.0954322 0.050183028 -0.111697994
-0.09069919 0.079251505 -0.06980964 -0.12655881 0.06672783 -0.109511726 -0.09334461 0.116142444
-0.109707505 -0.17307858 0.09838888 -0.14936356 -0.12802644 0.08352674 -0.11734283 0.040133785
-0.02547975 0.03188888 -0.003638078 -0.00762614 0.027925998 0.04462557 -0.027977668 0.02642604
-0.026134403 -0.016001381 -0.013181908 -0.031473085 -0.041106213 0.001429319 -0.042370487 -0.025322864
-0.015474614 -0.121910475 0.017648518 -0.10713109 -0.092108086 0.06775148 -0.06429482 -0.10723611
0.039940692 -0.10949397 -0.064835936 0.07680698 -0.063559726 -0.14475766 0.09741598 -0.12576202
-0.08673639 0.07866724 -0.056010135 0.0022200537 -0.025780354 -0.0027734516 -0.0033675006 -0.022991097
-0.005341293 0.0078054913 -0.0392255 -0.0025887701 -0.008619838 0.064840294 -0.0006600285 -0.018949013

model.0.bias f4 [64]
00000000: 6929 e73e 0a01 a93f 659d a8ba ddac fe3f
00000010: 4b37 db3f d497 bc3f 465b aa3f b27d e93f
00000020: bd50 b03f 15ed ab3f 866d d53f d2aa 2a3f
00000030: fd11 ff3f 7f2f 2e3f 2020 013f 6049 113f
00000040: 60d7 46bb dc0b 273f 11a2 f63e 2e9d 0340
00000050: 92bb 013f b416 123f 3f0e e63f 6f18 083f
00000060: 90f8 bc3f 579b db3e 3488 d83f 389e fe3e
00000070: b6bb de3f 7b7c a5ba fa81 0d3f 312e cc3f
00000080: 245f cd3f dd38 eb3f 3a4a 7b3f 923a da3f
00000090: 2f15 f43e 039f ec3e 1bd7 d93f 9181 14bb
000000a0: 0e54 e13f 0b9e e93e 1bd5 173f c49f c33f
000000b0: da7d f03e 9e88 5c3f 51d0 e33f 717a e63e
000000c0: e9c9 583f 973d 96ba ac22 2b3f da68 ee3f
000000d0: 7f6c 473f e3ba 2b3f 8240 2d3f 3e3d 5b3f
000000e0: 9f77 e53e a34d e03f 19ee 823f f813 85ba
000000f0: a300 f13f 17f9 fb3f b044 a43f 1e6b 123f
0.4514878 1.3203442 -0.001286429 1.9896504 1.7126249 1.4733834 1.3309104 1.8241484
1.3774639 1.3431727 1.6674049 0.666669 1.9927365 0.68041223 0.50439644 0.56752586
-0.0030340776 0.6525247 0.48170522 2.0564685 0.50676835 0.5706589 1.7973098 0.5316228
1.4763355 0.42891952 1.6916566 0.49730086 1.7401035 -0.0012625599 0.55276453 1.5951596
1.604466 1.8376728 0.98160136 1.7049124 0.47672412 0.46215066 1.701877 -0.0022660235
1.7603776 0.4562839 0.5930955 1.5283132 0.46971017 0.8614596 1.7797948 0.4501529
0.8468309 -0.0011462447 0.6684978 1.8625748 0.77899927 0.6708204 0.67676556 0.85640323
0.44817826 1.7523693 1.0228912 -0.0010153046 1.8828319 1.9685391 1.2833462 0.571947

model.4.weight f4 [64, 64]
00000000: 3c57 b9bb b2d5 1cbc ce3d c3b4 5b7c 56bb
00000010: b451 b6bb 4f89 29bc 9865 0abc 7e98 9fbb
00000020: e8c4 84bb 91d1 83bb f8b9 b3bb 9fe3 1fbb
00000030: 4cc0 f6bb e5b9 4fbc d2c4 2ebc 9d18 1dbc
00000040: c1e1 3b3b 9d61 a5bb 8d74 56bb b796 6cba
00000050: 440a 11bb d9d8 0cbc 37fd 4dbb c1e1 05bc
00000060: 410f 86bb 5fb0 e4bb aa12 93bb 3176 90bb
00000070: 0c2f d8bb 8514 583b 84d3 c6bb 53e6 53bb
00000080: 323a 2fbc bee6 d1bb 293a 1cbc 1a84 13bb
00000090: 50af f3bb 9034 dabb 2f57 04bb 1c53 973a
000000a0: e502 debb 7ca3 28bb 476f 37bc fe98 9cbb
000000b0: 2415 efbb 16d0 eebb 4746 bebb 84bd 26bc
000000c0: a90a 1bbc 94ec 96b9 3489 aebb c9b3 bcbb
000000d0: 275f adba 0231 d9bb c434 a5bb 7218 98bb
000000e0: b7eb b3bb 7b57 fabb 57f3 7fbb abcf 87ba
000000f0: c451 00bc 5fda 09bb 610d 10bc a6ca 04bc
00000100: ac34 463a 2557 c5ba b2aa da3a d5c4 a3bb
00000110: 4367 4abb b3e1 faba bbfc e939 672e 9eb9
00000120: 1834 dc39 e769 ebb9 5ff9 77bb 15cf a0bb
00000130: 934c 4db9 4ad3 ab3a 7aa8 283b 5bea 063b
00000140: 4a7c 403b c46f e53a 3406 7aba be5e 5a3a
00000150: b1c6 bfba 3332 edba 4beb a3ba 6943 afba
00000160: 9617 87ba 3d82 13bb 4019 22bb 9d44 cc38
00000170: 5c72 b5ba 8016 9eba a277 8239 6283 8eb9
00000180: 4539 d4bb e61f 18bb 5248 3d3b f51b 7f3b
00000190: b09b 17ba 02f8 10bb 61ee 9f3b 0a23 b4ba
000001a0: 3219 d63b e53a 4fba 1e05 e6b9 8eca 5d3b
000001b0: d924 a9b9 3ca0 3cbb 4515 35ba cdd7 fcba
000001c0: 6056 f3ba c723 9dba debb c2ba 4f1b 0f3b
000001d0: 9575 99bb 7710 253b 616b 583b 9962 0dbb
000001e0: 4fa1 4abb c40a ac3a 6cba 823b 7d7c c9ba
000001f0: d836 5cbb c0dc 123b c971 fb3a 4141 1bbb
00000200: 5f65 e0bb 8c60 ffbb 62a8 2dbb d7a8 1eb8
00000210: 8671 e0bb c3c8 6cbb b357 49bb 344f 15bc
00000220: 953b e1bb e93b 86bb 61df bdbb 05e6 3ebc
00000230: 23dd 5bbb ac74 703b d1a2 f6bb f63e b5bb
00000240: 4249 6ab8 8412 d6bb c6c3 f0bb e62b 96bb
00000250: a557 33bc c791 d3bb 9f02 5fbb 8703 04bc
00000260: b82d 1bbb 87bd 1fbc 4e11 d8bb d6f6 64bb
00000270: 580f e0bb 77c8 1e3b 7dff d2bb 2c64 efbb
00000280: a0ad 08bc 5075 a3bb eac7 f2bb e70b 98bb
00000290: 6cd8 28bc 071b c5bb 3fe4 f2bb c5d5 7cba
000002a0: bbe2 59bb e244 bebb 22a4 8fbb 2119 00bc
000002b0: bc8f 4abc 0260 debb f835 91bb dc36 3cbc
000002c0: 8e95 edbb 52e2 da3b 1921 bbbb ef00 17bc
000002d0: 027b dfbb 39e2 59bc d4e6 98bb 4e86 07bc
000002e0: 905c edbb 04a1 c1ba 94dc 62bb bbd3 353b
000002f0: 80a5 dabb 709a f0bb 1446 1fbc 0923 83bb
00000300: b2ef 483a 26b9 08bb fab6 163a f970 f6b9
00000310: f6d0 80bb 52fd bfba 3379 5fba ea99 ab3a
00000320: 265a 593a d957 e1ba 95c3 7dbb 898b 7934
00000330: 1d9b 27bb 66f7 27ba 4e6f e038 4c0c 60b8
00000340: 891a 1239 e0db 9bba 3b41 f8ba d466 773b
00000350: 179f ce3a 4130 dc3a a445 2f3a 9c34 5dbb
00000360: f44c 9bba b4b4 a2b8 1099 b73a be8e c2bb
00000370: 21a1 fcba d38d 5cbb f7a9 2639 3661 153b
00000380: 8926 2fba d440 313a 0ead 2bbb 6289 543a
00000390: f48c 74bb d07b 63bb e96d 8b3a fc86 5bbb
000003a0: ad83 23bb 73d9 863b d0e1 4e3b 0a95 ce3a
000003b0: d244 9bba 0784 a6bb 3da6 7e3b 5e5b 81b8
000003c0: 53b4 68bb 6932 b13a 947b 76bb 3d59 7c3b
000003d0: bce5 74bb ce78 efba 2169 7c3a eb74 df3a
000003e0: c5dd 41bb 9304 73b9 778d b939 ae02 96ba
000003f0: 495b a03a 18ca 54bb cd46 b8bb 1728 9cba
-0.005656151 -0.009572433 -3.636655e-07 -0.003272793 -0.005563939 -0.010347678 -0.008447073 -0.0048704734
-0.0040517934 -0.004022785 -0.0054848157 -0.0024397147 -0.007530248 -0.012678598 -0.010667043 -0.009588388
0.0028668495 -0.005047037 -0.0032723278 -0.0009025144 -0.0022131363 -0.008596622 -0.0031431445 -0.0081715
-0.004091174 -0.006979033 -0.004488309 -0.0044086208 -0.0065974053 0.0032971215 -0.006067695 -0.003233333
-0.010695027 -0.0064056804 -0.009535351 -0.0022509159 -0.0074366704 -0.006659098 -0.0020193567 0.0011545154
-0.0067752474 -0.002573221 -0.011195964 -0.0047789803 -0.0072962213 -0.0072879894 -0.0058067176 -0.01017702
-0.009462991 -0.00028786494 -0.0053264145 -0.0057587367 -0.001322721 -0.0066281566 -0.0050416905 -0.004641586
-0.005490746 -0.007639823 -0.0039054954 -0.0010361572 -0.007831994 -0.00210347 -0.008792252 -0.008104956
0.00075609493 -0.0015055878 0.0016682951 -0.0049978294 -0.0030884303 -0.001914075 0.00044629522 -0.0003017068
0.00042000483 -0.00044901596 -0.0037837846 -0.0049074986 -0.0001957885 0.0013109234 0.0025735185 0.0020586464
0.0029370957 0.0017504622 -0.00095376675 0.0008330158 -0.0014631358 -0.0018096626 -0.0012506036 -0.001337153
-0.0010306712 -0.0022508048 -0.0024734288 9.740258e-05 -0.0013843286 -0.0012061149 0.00024884666 -0.00027182238
-0.0064765536 -0.0023212372 0.0028882218 0.0038926576 -0.0005783392 -0.002212048 0.004880712 -0.0013743353
0.0065337652 -0.00079051993 -0.0004387283 0.0033842656 -0.00032261646 -0.002878203 -0.00069077715 -0.0019290388
-0.001856517 -0.0011988812 -0.0014857014 0.0021836346 -0.0046832063 0.0025186816 0.0033022987 -0.0021573661
-0.0030918901 0.0013125767 0.0039895084 -0.0015372183 -0.0033602025 0.002240941 0.0019183691 -0.0023690017
-0.006848022 -0.0077934917 -0.002649807 -3.782738e-05 -0.0068494705 -0.0036130405 -0.0030722439 -0.009113122
-0.006873558 -0.0040964973 -0.005794451 -0.011651521 -0.0033548556 0.0036690636 -0.0075267334 -0.005531187
-5.5858174e-05 -0.006532969 -0.0073475568 -0.00458287 -0.010946189 -0.006456587 -0.0034028662 -0.008057482
-0.0023678374 -0.009749777 -0.0065938598 -0.0034937165 -0.0068377666 0.0024228373 -0.006439148 -0.0073056426
-0.008342177 -0.00498835 -0.0074090855 -0.0046400907 -0.010305505 -0.006015185 -0.007412463 -0.0009644891
-0.0033246714 -0.0058065513 -0.00438358 -0.007818491 -0.0123633705 -0.0067863474 -0.0044314824 -0.011487689
-0.0072504943 0.0066798115 -0.0057107327 -0.009216531 -0.0068200836 -0.013298565 -0.0046661887 -0.008271767
-0.0072437003 -0.0014772718 -0.0034616338 0.002774461 -0.006672561 -0.007342629 -0.009721298 -0.0040019793
0.0007665112 -0.002086231 0.00057493115 -0.00047004948 -0.00393116 -0.0014647639 -0.0008524835 0.0013092135
0.0008291326 -0.0017192318 -0.0038721312 2.3240695e-07 -0.0025574632 -0.00064074097 0.000107018845 -5.3417214e-05
0.0001393353 -0.0011891089 -0.0018940339 0.00377505 0.0015763965 0.0016799049 0.00066860975 -0.0033753281
-0.0011848495 -7.7584205e-05 0.0014007408 -0.0059374264 -0.0019274094 -0.003365387 0.0001589431 0.0022793538
-0.00066814624 0.00067616743 -0.0026195678 0.000810763 -0.003731546 -0.003471125 0.0010637614 -0.0033497205
-0.002495031 0.0041152774 0.00315677 0.001576097 -0.0011846072 -0.005081657 0.003885641 -6.168218e-05
-0.0035507872 0.0013519052 -0.003761028 0.0038505339 -0.0037368378 -0.0018270256 0.00096287025 0.0017048394
-0.0029581648 -0.0002317599 0.0003539135 -0.001144489 0.0012234236 -0.003246909 -0.0056236745 -0.0011913803

model.4.bias f4 [64]
00000000: b740 c1bb a28d d2b9 0bda c2bb 0000 0000
00000010: 0000 0000 fd0b 22bc b39e cb3d 0000 0000
00000020: a28d d2b9 e186 18ba f371 253e 0000 0000
00000030: 0000 0000 a28d d2b9 8233 bb3d 91a1 ed3d
00000040: 8340 a8bb 5a6a 14bb 4c6c 93ba a18d d2b9
00000050: 9e57 cfbb 700e 8439 a28d d2b9 a28d d2b9
00000060: cb7f b03d a28d d2b9 4035 a6bb 73c8 ab3d
00000070: da9f 183e a28d d2b9 d176 8e3d a18d d2b9
00000080: 1fec 9abc 0eed 033e 0000 0000 a28d d2b9
00000090: a28d d2b9 3e2c aaba 0000 0000 2149 d3b9
000000a0: f06f 2abb 0c30 313e a18d d2b9 a28d d2b9
000000b0: 0000 0000 0000 0000 a75e b5bb a28d d2b9
000000c0: 9157 cfbb af10 08ba a18d d2b9 0000 0000
000000d0: 5e17 6fba 0000 0000 d653 e3ba a54c cabb
000000e0: 0000 0000 949f 86bb ee96 b4ba 0000 0000
000000f0: a18d d2b9 fa35 1ebb a18d d2b9 8f54 b03d
-0.005897607 -0.00040159846 -0.005946403 0.0 0.0 -0.009890554 0.09942379 0.0
-0.00040159846 -0.00058184384 0.1615675 0.0 0.0 -0.00040159846 0.09140684 0.11603082
-0.0051346435 -0.0022646398 -0.0011247485 -0.00040159843 -0.0063275835 0.0002518776 -0.00040159846 -0.00040159846
0.086181246 -0.00040159846 -0.005072266 0.08387842 0.14904729 -0.00040159846 0.06956256 -0.00040159843
-0.01891142 0.12883398 0.0 -0.00040159846 -0.00040159846 -0.0012983156 0.0 -0.0004029954
-0.0026006661 0.17303485 -0.00040159843 -0.00040159846 0.0 0.0 -0.005534965 -0.00040159846
-0.0063275774 -0.00051904743 -0.00040159843 0.0 -0.00091206084 0.0 -0.0017343711 -0.0061736875
0.0 -0.0041083787 -0.0013777891 0.0 -0.00040159843 -0.002414106 -0.00040159843 0.08609878

model.6.weight f4 [64, 64]
00000000: f386 cabb 2424 3f3b 05cb 2b3b 2931 d23a
00000010: 8481 cd3a b487 e3bb ef68 2abc 69fc 293b
00000020: ad0e 4b3b f661 3c3b ad5d 43bc 4af2 8b3a
00000030: 96ae 13ba c9e9 55ba d80b 3dbc abad 5abc
00000040: 24d3 8fbb 63ae 87bb c933 41bb ff77 1e39
00000050: c3f9 c83b 5a0d fcba 207a 92ba 5024 45ba
00000060: 9111 3bbc 7d64 1e3b e506 05bc 1c94 d0bb
00000070: 61e5 4bbc fe90 543a adf5 50bc 294d bc3a
00000080: e0b4 34bc 1117 0dbc c026 3f3b cb10 ba3a
00000090: bddd c4b9 c390 03bb d3de dc3a 31c5 573a
000000a0: 5832 d5bb 4b73 46bc 44af 07ba d5fe d4b8
000000b0: 7e52 b33a 46a2 df39 bc33 c63b a860 4f3b
000000c0: 9e2a 5dba 8763 bebb f45c 543b e165 97bb
000000d0: 0c8d 53bb 4c84 1ab9 2d9c 71ba 46b6 bdbb
000000e0: effc 403a fb32 683b 15c8 c1bb 3b0a dfb9
000000f0: 47bf a4ba 6c4b e6bb 6716 efb8 e641 57bc
00000100: d52b dd3b 6dac 6b39 38fd 01bb 40db 2bba
00000110: 33a3 1ebb 5c28 193d e667 5b3d d49c 90b9
00000120: 6fa2 023b f519 b43a 0310 513d e062 4bbb
00000130: cb77 cd38 b93a 8239 5b4d 4c3d 9029 593d
00000140: f0fe 2cb9 4255 e539 f9b9 9f3b e5e2 b5b9
00000150: a71a 06bc 3d69 1b3c 879f dd3a 2886 c539
00000160: 74ef 4e3d 6ec1 fa38 bf11 143d 9f70 583d
00000170: b2ec 513d 4b74 ad3b c12e 503d 83c3 1fb9
00000180: e50d 4b3d d1df 663d 206f 2ebb d88c 31ba
00000190: 58d8 82bb e369 dfba 30e8 3f3b 6c80 3bba
000001a0: 8fb7 ef3c 19f4 503d 9fed 083b 183a 62bb
000001b0: 09c2 fc3a 00ca 213b 3bb3 153b 02a9 563a
000001c0: e311 c4bb 63c6 893b 3148 333a a796 39bb
000001d0: b8df 9fbb 77a1 feb5 52c6 23bb 66a8 3e3c
000001e0: fcd2 e2ba 2169 10ba cc3c df3c f426 78b8
000001f0: cbcc b1ba b7d6 fb3c ff93 7339 6da3 513d
00000200: a512 ffbb 9d2c 3ebb 7d80 d839 3511 be3b
00000210: b4b9 d83a 783a 403d 1216 8f3d bf6b 00bb
00000220: 73b4 443a 8a9e 423a e61d 943d e642 193b
00000230: dc09 413b 1a4b 23b9 1428 923d 53a3 943d
00000240: d362 3fbb 7f11 833b 7284 3cbb 6318 543b
00000250: 45d0 9bbb 8343 5b3c e337 843a ca99 d2bb
00000260: 3874 923d e745 ffba d640 4d3d 9b91 8d3d
00000270: fd41 933d 1415 b43a acf9 8d3d 4322 45ba
00000280: bef7 8c3d 2388 9a3d de7a 1c3b a927 173b
00000290: c829 9c3b 706f c8ba 35cc 1a3b 2db3 033a
000002a0: 6a7f 263d bdfe 943d a3ab c2ba 0fb2 57bb
000002b0: 2aac 76ba 7402 173b c29f f0ba 84ac f63a
000002c0: 050c 2bbc bad4 62bb 3b6b 64ba 6790 2f3b
000002d0: 0d0f c3ba f2df ee3a c907 0fbb 9c5d 29bb
000002e0: be2e b93a d9cc f4bb 7b14 1a3d 60e8 b63a
000002f0: ba06 04bb b2c1 2e3d 3fce a33b ec12 8f3d
00000300: fd83 873b 1ffb dbba 4a3f af39 f695 87ba
00000310: 79e3 fdba 566f 76bb a263 08bc 269c 243b
00000320: 826d 3fbb b443 c33b 67fb 35bc 9983 50bb
00000330: 0e36 33bb 56ee 4439 ea2d 3abc e0f8 50bc
00000340: 7513 f93a fee5 51bb a122 483b 67b8 1abb
00000350: c537 bd3b 2c0b 04bb 3be6 263b 630a 3dba
00000360: 0391 37bc df55 35ba b101 f9bb 8c80 08bc
00000370: 5891 42bc 6045 59ba 96f3 1fbc e9ec c63a
00000380: 968d 2ebc 81cb 25bc acc4 5f3a 8fd8 06ba
00000390: 0855 153b 176c 813b 9c9d 2a3b 0f84 f639
000003a0: 51b4 cabb 0d8b 41bc 87be 50bb 4e18 8d3a
000003b0: 29df 8ebb c318 9f3a 6912 0d3c af2e 87ba
000003c0: 3ce6 c23b 0252 753b 5954 953b 7de9 f93a
000003d0: 03b8 573a eb96 0d3b 6578 073b f8a8 3abb
000003e0: 1e1b 383b 278f 1dbb 5f97 c3bb ddb6 3abb
000003f0: 84db db38 ff47 d2bb b0d4 cab9 d315 47bc
-0.006180638 0.0029165829 0.0026213538 0.0016036379 0.0015678857 -0.0069436673 -0.010400995 0.0025937802
0.003098409 0.0028744913 -0.0119241895 0.0010677066 -0.00056336203 -0.0008160142 -0.011538468 -0.01334707
-0.0043891836 -0.0041406616 -0.002948033 0.00015112756 0.0061332895 -0.0019230053 -0.0011175312 -0.00075203646
-0.011417762 0.0024168782 -0.00811932 -0.0063653123 -0.012444825 0.0008108764 -0.012753886 0.0014366257
-0.011029452 -0.0086114565 0.0029167384 0.0014195679 -0.0003754924 -0.0020075298 0.0016851075 0.0008230983
-0.0065062456 -0.012112449 -0.0005175958 -0.00010156414 0.0013681201 0.00042654778 0.0060486477 0.0031643305
-0.00084368314 -0.0058102044 0.0032404037 -0.004620299 -0.0032280115 -0.00014735869 -0.00092166924 -0.005789551
0.0007361909 0.0035430777 -0.005913744 -0.00042541497 -0.0012569212 -0.007028034 -0.00011400581 -0.01313827
0.00674961 0.0002247558 -0.0019834768 -0.0006555803 -0.002420616 0.037392005 0.053565882 -0.00027582666
0.0019933244 0.0013740646 0.05104066 -0.0031034276 9.797475e-05 0.00024839284 0.04987846 0.053018153
-0.0001649817 0.00043741806 0.0048744646 -0.0003469206 -0.008185065 0.00948554 0.0016908505 0.00037674722
0.05052133 0.00011956958 0.036149736 0.05284178 0.05125112 0.005293404 0.050825838 -0.00015236255
0.049573798 0.05636579 -0.0026616529 -0.00067730015 -0.0039930753 -0.0017045107 0.0029282682 -0.000715262
0.029262332 0.05101404 0.0020893586 -0.003451949 0.0019283901 0.0024687052 0.0022842425 0.0008188636
-0.0059835776 0.0042045577 0.00068390655 -0.0028318556 -0.0048789643 -1.8971467e-06 -0.0024990034 0.011636829
-0.001730531 -0.00055088295 0.02725067 -5.9164086e-05 -0.0013565061 0.030742032 0.00023229419 0.051181246
-0.007784205 -0.002901829 0.00041294462 0.005800391 0.0016534836 0.04693076 0.069866315 -0.0019595472
0.00075036957 0.0007424137 0.07232265 0.0023385822 0.002945534 -0.00015572869 0.071365505 0.07257714
-0.002920319 0.0039998884 -0.0028765467 0.0032363168 -0.0047550523 0.013382795 0.0010087456 -0.0064270245
0.07151073 -0.0019475789 0.05011066 0.06912538 0.07190321 0.0013739192 0.06932387 -0.0007520059
0.068831906 0.07545497 0.0023876945 0.002306441 0.004765723 -0.0015292 0.0023620252 0.00050239527
0.040648855 0.0727515 -0.0014852177 -0.0032912528 -0.000940981 0.0023042234 -0.0018358158 0.0018819724
-0.010439877 -0.0034611658 -0.00087134884 0.0026788951 -0.0014881805 0.00182247 -0.0021824709 -0.002584315
0.001412831 -0.007470709 0.037617188 0.0013954751 -0.002014561 0.04266519 0.0049989517 0.06986031
0.0041356073 -0.0016783214 0.00033425755 -0.0010344374 -0.001937016 -0.0037602982 -0.008324536 0.0025117486
-0.002920956 0.0059589986 -0.011107302 -0.003181672 -0.0027345452 0.00018780804 -0.011363486 -0.012754649
0.0019002991 -0.0032027955 0.0030538219 -0.0023608448 0.0057744705 -0.002014826 0.0025466818 -0.00072113256
-0.011204007 -0.0006917398 -0.0075990786 -0.008331429 -0.011875473 -0.0008288231 -0.009762665 0.0015176806
-0.010653874 -0.01011932 0.00085360813 -0.0005143964 0.0022786278 0.003949653 0.0026033884 0.00047019168
-0.006186046 -0.011812937 -0.0031851844 0.001076469 -0.004360099 0.0012138117 0.008610346 -0.0010313595
0.005947856 0.0037432914 0.004557174 0.0019066777 0.0008229019 0.0021604847 0.0020671126 -0.002848206
0.0028092335 -0.0024041624 -0.0059689726 -0.0028490343 0.00010483622 -0.006417274 -0.00038686907 -0.012151199

model.6.bias f4 [64]
00000000: 6475 edbb 6d95 e83c 9d65 423d 2b9b eabb
00000010: 680c bdbb 1adf 183c 8930 853c 1950 443d
00000020: e19c 38bd 077b 313d 12e7 33bd c379 0a3a
00000030: 8f27 24bd 70b6 7f3c d2b6 9dba 0921 8a3c
00000040: 65ee e1bb d07b ed3c e5b0 32bd 7f12 8dbd
00000050: e3a1 08bc 9142 773c 8727 8a3c 69df 4d3d
00000060: aaba 34bc 6d7e 41bc 79eb 71bc 6dcc 5e3c
00000070: a8ca 0a3c 07e4 b7bb 9f80 553c 1104 42bd
00000080: 48c3 38bc 33fd 123c ca50 533d f30e 173d
00000090: 59c1 aeb8 7d05 e7bb c926 1fbd bb07 bd3d
000000a0: 7edc 6abc ab4d 72bc 0473 403d ae23 18bd
000000b0: b90f 22bd d0e8 04bc 1f65 71bd 5dcd 10bc
000000c0: bc4a 48bd 5dcb 39bd 326f dfbc fac1 31bc
000000d0: 04db 0a3d 8b44 67bc 4fb9 febb a97f 1cbc
000000e0: 1f17 523c 1b98 273c 65f5 e8bc 5a04 fd3b
000000f0: 31d1 2ebc 4d76 ca3c b278 4cbd f805 06bd
-0.00724666 0.028391564 0.047460187 -0.0071596107 -0.005769301 0.009330535 0.016258495 0.04792795
-0.045071486 0.04333022 -0.043921538 0.0005282426 -0.04007679 0.015607461 -0.0012032634 0.016861456
-0.006894874 0.028989702 -0.04362573 -0.068882935 -0.008339378 0.015091554 0.016864551 0.05026189
-0.011030832 -0.011809927 -0.014765614 0.013598544 0.008471169 -0.0056119 0.013031154 -0.04736716
-0.011277027 0.0089715 0.05159072 0.03687949 -8.33298e-05 -0.007050215 -0.038855348 0.0922999
-0.014334796 -0.014789025 0.046984687 -0.0371434 -0.039565776 -0.008112147 -0.058934327 -0.008838025
-0.048899397 -0.045359958 -0.027274702 -0.01084947 0.033900276 -0.014115463 -0.0077735553 -0.009551921
0.012822895 0.010229136 -0.028437326 0.007721466 -0.010669992 0.024714613 -0.04991979 -0.032720536
