CSSRS/RSIMDCL/checkpoint/pore2background_9_1rsim/latest_net_F5.pth (torch, 44759 bytes, 6 tensors)

model.0.weight f4 [64, 4, 3, 3]
0	0x3c4377d2	0.011930423
1	0x3d834fab	0.0641168
2	0x3cb284e1	0.021791877
3	0x3c1d0e3e	0.009585915
4	0x3d2a678d	0.04160266
5	0x3ca20ad9	0.019780563
6	0x3c46e087	0.012138492
7	0x3d7b4e0e	0.061353736
8	0x3cc30f5c	0.023811035
9	0xbd535ee7	-0.051604178
10	0x3d60e5f8	0.054906815
11	0xbd073d61	-0.03301752
12	0xbd8ec75e	-0.0697162
13	0x3d4c6d23	0.04990877
14	0xbd4fca94	-0.050730303
15	0xbd59b33b	-0.053149443
16	0x3d692a40	0.05692506
17	0xbd05eb68	-0.032695204
18	0xbd355d53	-0.044278454
19	0x3c82217c	0.015885107
20	0xbd13167f	-0.035910126
21	0xbd48a247	-0.048982885
22	0x3d7359b1	0.05941171
23	0xbd2214a2	-0.03957046
24	0xbd236c1a	-0.039898016
25	0x3c63358e	0.013867749
26	0xbd0db502	-0.03459645
27	0xbbf9be7c	-0.0076215845
28	0xbb145ff6	-0.0022640205
29	0xbc14faba	-0.009092981
30	0xbd03e781	-0.0322032
31	0xbcab2bcb	-0.020894906
32	0xbd0ed48d	-0.034870673
33	0xbc4eea15	-0.012629052
34	0xbc0769ca	-0.008264968
35	0xbc5092a7	-0.012730277
36	0x3ca9ea1d	0.020741517
37	0x3d69c2de	0.057070605
38	0x3cdc7cea	0.026915032
39	0x3cc93335	0.02456055
40	0x3d2a779c	0.041617975
41	0x3cf9dbaf	0.030500261
42	0x3cc11999	0.023571776
43	0x3d5227be	0.051307432
44	0x3cf1f7c8	0.029537097
45	0xbd05080b	-0.032478373
46	0x3d343fb7	0.044006076
47	0xbcb8ab04	-0.022542484
48	0xbd57bbfe	-0.052669518
49	0x3d4068bd	0.046974886
50	0xbd3a5b6e	-0.04549735
51	0xbd00cc2a	-0.031444706
52	0x3d3f0b7a	0.046641804
53	0xbca923b5	-0.02064691
54	0xbd1bf2b8	-0.03807327
55	0x3cc0b17e	0.023522135
56	0xbcfbbb1e	-0.030728873
57	0xbd142a53	-0.036173176
58	0x3d6a22f6	0.057162248
59	0xbcd1641d	-0.025560433
60	0xbd2229d0	-0.039590657
61	0x3bde2d58	0.0067803077
62	0xbcf34a98	-0.029698655
63	0xbc6788ae	-0.014131708
64	0xbc6fcc0c	-0.014636051
65	0xbc56b2fc	-0.013104197
66	0xbccc9606	-0.02497388
67	0xbc61a25b	-0.013771619
68	0xbd1833fc	-0.03715895
69	0xbca2ae11	-0.019858392
70	0xbc93af9c	-0.018028073
71	0xbc94b608	-0.018153206
72	0x3c8586d9	0.016299652
73	0x3d52310d	0.05131631
74	0x3c49d8ac	0.012319725
75	0x3cd85d7d	0.026411766
76	0x3d1f2cc0	0.038861036
77	0x3ceea919	0.029133366
78	0x3c1c6664	0.009545896
79	0x3d4a6bb3	0.049419116
80	0x3cb1eb91	0.021718772
81	0xbcefcedf	-0.029273449
82	0x3d4fbffa	0.050720192
83	0xbbe6ed26	-0.0070473133
84	0xbd2fa258	-0.042879432
85	0x3d0dd05b	0.03462253
86	0xbcd786a7	-0.026309324
87	0xbcb91d30	-0.022596925
88	0x3d4446c3	0.047919046
89	0xbc4e4cde	-0.012591569
90	0xbd0a1d1f	-0.03371918
91	0x3b90f200	0.00442338
92	0xbcbb8b75	-0.022893647
93	0xbcfeb8d8	-0.031094
94	0x3d0280db	0.031861167
95	0xbc8d4c0e	-0.01724818
96	0xbd0d7fdf	-0.034545776
97	0xbbb18643	-0.0054176166
98	0xbcb03404	-0.021509178
99	0x3a6ea142	0.0009103009
100	0xbb4fcd29	-0.0031707978
101	0xbc2a4884	-0.010393266
102	0xbcf697c7	-0.03010167
103	0xbcb05fd1	-0.021530064
104	0xbd333ca7	-0.043759014
105	0xbc2a17ed	-0.010381681
106	0xbc3a4b82	-0.0113705415
107	0xbc0e24a4	-0.008675728
108	0x3c372f9d	0.0111807855
109	0x3d2f2978	0.042764157
110	0x3cddacf7	0.027060015
111	0x3c60e35f	0.0137260845
112	0x3d13471e	0.035956495
113	0x3d04f137	0.032456603
114	0x3c5566f6	0.013025036
115	0x3d5041f6	0.050844155
116	0x3d1bded2	0.038054295
117	0xbd19543e	-0.037433855
118	0x3d078091	0.033081595
119	0xbc574b01	-0.013140441
120	0xbd10cb66	-0.035350226
121	0x3d0317e9	0.032005224
122	0xbcc186ac	-0.023623787
123	0xbd150eb2	-0.036390968
124	0x3d0ac0c4	0.033875242
125	0xbc9408fe	-0.018070694
126	0xbcf0b87f	-0.02938485
127	0x3c237acd	0.009978008
128	0xbd0a197f	-0.03371572
129	0xbd0025ee	-0.031286173
130	0x3d34d724	0.044150487
131	0xbcb9d6ca	-0.022685427
132	0xbcd26f89	-0.02568795
133	0x3c1028bf	0.008798777
134	0xbc6e1c1d	-0.01453307
135	0xbc76d8b6	-0.015066316
136	0x3ca258b4	0.019817688
137	0xbbd25ebe	-0.0064199856
138	0xbd5b13d9	-0.053485725
139	0xbc813df0	-0.015776604
140	0xbd788013	-0.060669016
141	0xbc52719f	-0.012844472
142	0xbc5bc16b	-0.013412814
143	0xbc3cd3ab	-0.011525075
144	0xbcd5ff96	-0.02612285
145	0xbbe52c5f	-0.006993815
146	0xbc316332	-0.010826873
147	0x3c82b14f	0.015953688
148	0x3c1af5c6	0.009458011
149	0x3c7c569a	0.015401507
150	0xbcc08451	-0.023500593
151	0xbb821e6f	-0.003970913
152	0x3bafa144	0.0053598005
153	0x3bbfc43c	0.0058522504
154	0x3d5933bc	0.053027853
155	0x3b951f79	0.004550871
156	0xbcc5ab72	-0.024129603
157	0x3d2a802b	0.041626137
158	0xbd16b93c	-0.036797747
159	0xbca8b951	-0.020596178
160	0x3cd791a2	0.02631456
161	0x3b657eb9	0.003501816
162	0xbd3296f6	-0.043601
163	0xbc1eaf6d	-0.009685379
164	0xbd0a076b	-0.03369848
165	0xbcc671f7	-0.024224265
166	0x3ca84ddf	0.020544944
167	0xbc889726	-0.016673636
168	0xbc7ffe04	-0.015624527
169	0xbc535453	-0.012898522
170	0xbcebf4f4	-0.028803326
171	0xbbb3fd21	-0.005492822
172	0xbc2739c9	-0.010206648
173	0x3cb4cadf	0.022069393
174	0xbc214220	-0.009842426
175	0xbba790fe	-0.00511372
176	0xbbcd8e52	-0.0062730694
177	0xbb47d709	-0.0030493161
178	0xbc810404	-0.015748985
179	0x3cb0a4a6	0.021562885
180	0xbcbb84f5	-0.022890547
181	0xbbab104d	-0.005220449
182	0x3bbd06ae	0.0057686185
183	0x3b1aee73	0.0023640662
184	0x3d03ce42	0.032179125
185	0x3b6235ca	0.0034516924
186	0xbc5bf484	-0.013424996
187	0xbbe4fd68	-0.006988216
188	0xbcacd4e1	-0.021097602
189	0xbbafff45	-0.0053710067
190	0x3d141093	0.03614862
191	0x3b4a0028	0.0030822847
192	0xbd0d28c7	-0.034462716
193	0x3d6697b8	0.056297034
194	0xbc9dafb5	-0.019248823
195	0x3a90479e	0.0011007672
196	0x3ce3b6a5	0.027797053
197	0xbb3e7154	-0.0029059248
198	0xbca70fa4	-0.0203932
199	0xbbaba967	-0.0052387
200	0xbcd091a2	-0.025460068
201	0xbd041901	-0.032250408
202	0x3cea4773	0.028598523
203	0xbbc91779	-0.0061368314
204	0xbc78ce43	-0.015185895
205	0xbba0758d	-0.0048968256
206	0xbc6719ca	-0.01410527
207	0x3ce26b28	0.027638987
208	0x3bad0351	0.0052799364
209	0x3cec8d0f	0.028875856
210	0xbb584222	-0.0032998403
211	0xbc08e8a5	-0.008356248
212	0xbc36a126	-0.011146819
213	0x3bf26c6f	0.00739818
214	0xbc7f2b17	-0.015574238
215	0x3b3e7116	0.0029059104
216	0x3c7bf3c7	0.015377945
217	0x3d4cd9b0	0.05001229
218	0x3d1b07fa	0.037849404
219	0x3ca509ff	0.020146368
220	0x3d044671	0.03229374
221	0x3d050dca	0.032483853
222	0x3c7ec415	0.015549679
223	0x3d73fa76	0.05956503
224	0x3cd5c128	0.02609308
225	0xbd49945f	-0.049213763
226	0x3d371c43	0.044704687
227	0xbc9a5fd1	-0.018844517
228	0xbd29c4de	-0.041447513
229	0x3d0581d3	0.032594513
230	0xbccb259b	-0.024798205
231	0xbd0c8cc9	-0.03431395
232	0x3d217a14	0.039423063
233	0xbcc22006	-0.02369691
234	0xbce79fc6	-0.028274428
235	0x3bdf4ee8	0.0068148263
236	0xbcedae89	-0.029013889
237	0xbd0c7c9e	-0.03429853
238	0x3d141836	0.0361559
239	0xbcecceb8	-0.028907165
240	0xbcd948c0	-0.026523948
241	0x3c4452ab	0.0119826
242	0xbc4010ef	-0.011722787
243	0x3bd289f0	0.006425135
244	0xbc3c55ea	-0.011495093
245	0xbc8f6986	-0.017506372
246	0xbd3baf25	-0.045821328
247	0xbd044087	-0.0322881
248	0xbd1fc162	-0.039002784
249	0xbc908f79	-0.017646538
250	0xbc4b2255	-0.012398322
251	0xbc24a9fb	-0.010050292
252	0x3b8ef24b	0.0043623797
253	0x3d4d8cd1	0.05018312
254	0x3c8a19dc	0.016858034
255	0x3c757253	0.01498087

model.0.bias f4 [64]
0	0x3fa5e95c	1.2961841
1	0x3fa87e5c	1.3163562
2	0x3fb28d3a	1.3949349
3	0x3faa8f20	1.3324928
4	0x3f89f88b	1.0778974
5	0x3f8f7dbb	1.1210245
6	0x3fad2080	1.3525543
7	0x3fa67640	1.3004837
8	0x3f81e022	1.0146525
9	0x3fab015d	1.3359791
10	0x3fae0c86	1.3597572
11	0x3fa79a9c	1.3094058
12	0x3faef40f	1.3668231
13	0x3fb0b863	1.380627
14	0x3f9dd4ea	1.2330601
15	0x3faaabb2	1.3333647
16	0x3fb573c9	1.417596
17	0x3f8652fb	1.0494074
18	0x3fa6c784	1.3029637
19	0x3fa90fbe	1.3207929
20	0x3fa4f9b5	1.2888705
21	0x3fb197ac	1.3874412
22	0x3fb04f3c	1.377418
23	0x3fac2d12	1.3451254
24	0x3f481207	0.7815251
25	0x3fada96f	1.3567332
26	0x3fa70f91	1.3051625
27	0x3f9f1698	1.242877
28	0x3fa89711	1.3171102
29	0x3fb18587	1.3868874
30	0x3f95ec02	1.1712649
31	0x3fa11d19	1.2587005
32	0x3fa03b97	1.2518185
33	0x3f98fb36	1.1951663
34	0x3fa10d3f	1.2582167
35	0x3faceff8	1.3510733
36	0x3f9ca494	1.2237725
37	0x3f56efdc	0.83959746
38	0x3fa1115a	1.258342
39	0x3f232676	0.6373056
40	0x3fa2c6dd	1.2716938
41	0x3ecb1204	0.39662182
42	0x3fa9ef89	1.3276225
43	0x3faa9531	1.332678
44	0x3f868514	1.0509362
45	0x3fa3c1e5	1.2793547
46	0x3f5c32e4	0.8601515
47	0x3f9fd9d4	1.2488351
48	0x3fac3ed1	1.345667
49	0x3fa02fc9	1.2514583
50	0x3faa96c9	1.3327266
51	0x3fa93726	1.3219955
52	0x3fb05c03	1.377808
53	0x3fa6785f	1.3005484
54	0x3f995e80	1.1981964
55	0x3fae1fd2	1.3603461
56	0x3fa83c45	1.3143393
57	0x3fabcccd	1.3421875
58	0x3fa9d2bb	1.3267435
59	0x3fa80175	1.3125445
60	0x3f932e9e	1.1498601
61	0x3fabb1cc	1.3413634
62	0x3fb0fba2	1.3826792
63	0x3f989cdd	1.1922871

model.4.weight f4 [64, 64]
0	0xbba9ac98	-0.0051780455
1	0xba879e9f	-0.0010346955
2	0xba2db17e	-0.00066258747
3	0x385d88c1	5.2817868e-05
4	0x3ae52677	0.0017482777
5	0xbad011a3	-0.0015874397
6	0x3b96dd98	0.0046040528
7	0xbb167797	-0.0022959465
8	0x3b015334	0.001973343
9	0x3a78764d	0.00094780774
10	0x3b972198	0.004612159
11	0xbb1a6823	-0.0023560605
12	0x3b5d07aa	0.0033726492
13	0x3b00907f	0.0019617376
14	0xb9aeb477	-0.00033322323
15	0xbba2d646	-0.004969391
16	0x39f3f276	0.0004652922
17	0xb916e531	-0.00014390495
18	0x3b154296	0.0022775284
19	0xbb5ecef9	-0.0033997877
20	0x3b8f524c	0.004373824
21	0xba66a755	-0.0008798738
22	0xb89e9f59	-7.563708e-05
23	0xbbc35895	-0.0059614875
24	0x3a655cf4	0.0008749508
25	0x3abff365	0.0014644681
26	0x3ab3d540	0.001372017
27	0xb9bee45c	-0.00036409765
28	0xbb11e7bb	-0.0022263366
29	0x38a4fb65	7.866955e-05
30	0x3ac91f57	0.0015344423
31	0xba9de66e	-0.0012046823
32	0xba9e0744	-0.0012056609
33	0x3b1f7ab2	0.0024334607
34	0xb8bca0be	-8.994479e-05
35	0xbb95da10	-0.004573114
36	0xbc13922e	-0.00900702
37	0xba2a5797	-0.0006498037
38	0x3ae399ed	0.0017364599
39	0x3b35c017	0.0027732903
40	0x39e2f298	0.00043286826
41	0x3b3dae51	0.0028943012
42	0x3b0c0e3b	0.0021370787
43	0xbb0593ac	-0.0020382209
44	0x3b5a7985	0.0033336591
45	0xba0a0577	-0.00052650966
46	0xbb7a803c	-0.0038223406
47	0xbb229469	-0.0024807698
48	0x3a1d3a34	0.00059977476
49	0xba47685b	-0.0007606798
50	0xba32be91	-0.0006818558
51	0x39f789cc	0.00047214178
52	0xbad54782	-0.0016271921
53	0x3b79103f	0.0038004068
54	0xbb1b9911	-0.0023742358
55	0x3a89609e	0.0010481065
56	0x35d35986	1.574678e-06
57	0x3a1f0adb	0.0006066986
58	0x3a1b1564	0.0005915968
59	0xbb31bde8	-0.002712125
60	0x3b209624	0.0024503553
61	0x3b1049e6	0.0022016703
62	0x3c0059d6	0.007833919
63	0xba605c0b	-0.00085586373
64	0xbc2368a4	-0.009973679
65	0xbc20f928	-0.0098250285
66	0xbb7867dd	-0.0037903704
67	0xbbb2fe83	-0.005462469
68	0xbb335a20	-0.002736695
69	0xbbb2bc4e	-0.0054545766
70	0xbbc6d382	-0.006067694
71	0xbc1672a9	-0.009182611
72	0xbbc278f5	-0.0059348294
73	0xbb7e83d9	-0.0038835912
74	0xbc17f044	-0.009273592
75	0xbc1c8aa2	-0.009554537
76	0xbbf05bf9	-0.0073351827
77	0xbba73504	-0.0051027555
78	0xbbd9ac4d	-0.0066428543
79	0xbb48dccb	-0.003064918
80	0xbbdd8418	-0.0067601316
81	0xbb2e39a6	-0.0026584654
82	0xbbaaf47f	-0.0052171345
83	0xbb5e48f9	-0.0033918007
84	0xbc3024d9	-0.010750973
85	0xbc037098	-0.00802245
86	0xbc3375a8	-0.010953344
87	0xbc561a77	-0.013067833
88	0xbbf7f718	-0.0075672977
89	0xbbac1166	-0.0052510975
90	0xbba3b87a	-0.0049963566
91	0xbb58b679	-0.0033067747
92	0xbc148ab2	-0.009066271
93	0xbb9d5b69	-0.0048021567
94	0xbbb8e248	-0.005642209
95	0xbbd84aa3	-0.0066006943
96	0xbbd25779	-0.006419119
97	0xbbbfc330	-0.0058521256
98	0xbbd72ffd	-0.006567
99	0xbaf17a3e	-0.0018423272
100	0xbba8256b	-0.0051314137
101	0xbb97ca5c	-0.0046322774
102	0xbb9258f4	-0.0044661704
103	0xbb846d8a	-0.0040413784
104	0xbc453f91	-0.012039081
105	0xbb78e96c	-0.0037980927
106	0xbbfecede	-0.0077761253
107	0xbb5373d1	-0.0032265077
108	0xbbe30f0e	-0.006929285
109	0xbbe90ecd	-0.00711236
110	0xbbe3ed0d	-0.006955749
111	0xbba268c7	-0.004956338
112	0xbba31f5e	-0.0049781045
113	0xbbead212	-0.0071661556
114	0xbb69d460	-0.0035679564
115	0xbbd5e4d9	-0.006527525
116	0xbbcf32f9	-0.006323215
117	0xbbbe528c	-0.00580818
118	0xbb9ab1e4	-0.0047209132
119	0xbba8a71d	-0.0051468746
120	0xbc1fc9ab	-0.009752671
121	0xbbcad669	-0.0061901105
122	0xbba5e3ac	-0.005062541
123	0xbc016f3c	-0.0079000555
124	0xbb8904e7	-0.0041814926
125	0xbbd7ed39	-0.0065895584
126	0xbbdc6691	-0.006726094
127	0xbb6e8780	-0.0036396682
128	0x3e342cbd	0.17595191
129	0x3e378bd5	0.17924435
130	0x3e2e091b	0.16995661
131	0x3e2caaf0	0.16862082
132	0x3e13dee6	0.14440498
133	0x3e15e9d7	0.14639984
134	0x3e3231df	0.17401837
135	0x3e26613b	0.16248028
136	0x3e0df42f	0.1386268
137	0x3e30be64	0.17260128
138	0x3e330475	0.17482169
139	0x3e382280	0.1798191
140	0x3e2c4b76	0.16825661
141	0x3e317119	0.173283
142	0x3e21db3d	0.15806289
143	0x3e33c35f	0.17554997
144	0x3e32f6ee	0.17477009
145	0x3e123576	0.14278206
146	0x3e34d904	0.1766091
147	0x3e31b1b0	0.17352939
148	0x3e2f6bb6	0.17130932
149	0x3e2df09d	0.16986318
150	0x3e2c90e5	0.16852148
151	0x3e35cee3	0.17754702
152	0x3deab278	0.114598215
153	0x3e2c45c0	0.16823483
154	0x3e349de6	0.17638358
155	0x3e3373bc	0.17524618
156	0x3e3171e8	0.17328608
157	0x3e315765	0.17318495
158	0x3e1c032d	0.15235586
159	0x3e370eed	0.17876787
160	0x3e38a213	0.18030576
161	0x3e21b7c0	0.15792751
162	0x3e314192	0.1731017
163	0x3e390e24	0.180718
164	0x3e340c6b	0.17582862
165	0x3dfae36d	0.12250409
166	0x3e3b673e	0.18301103
167	0x3dc50211	0.09619535
168	0x3e3ba105	0.18323143
169	0x3d99f91e	0.075182185
170	0x3e32b472	0.17451647
171	0x3e3bebd4	0.1835168
172	0x3e109422	0.14119008
173	0x3e317fdb	0.17333929
174	0x3e05c5ab	0.13063686
175	0x3e3f0b35	0.18656619
176	0x3e2af652	0.16695526
177	0x3e30fb78	0.17283428
178	0x3e371816	0.17880282
179	0x3e2e786e	0.17038128
180	0x3e2ac868	0.16678011
181	0x3e270ae5	0.1631275
182	0x3e380bbd	0.17973228
183	0x3e38f1af	0.18060945
184	0x3e3847ed	0.17996188
185	0x3e27e1a3	0.16394667
186	0x3e349dd4	0.17638332
187	0x3e357a0a	0.17722335
188	0x3e1d4d72	0.15361574
189	0x3e386473	0.18007068
190	0x3e2cc80c	0.16873187
191	0x3e40349a	0.18770066
192	0xbb758bbe	-0.0037467326
193	0xbb01cdaf	-0.0019806435
194	0xba8e7c52	-0.001087079
195	0x3aff1c38	0.0019463366
196	0xb92a9700	-0.00016268715
197	0xbacf3c25	-0.0015810771
198	0xbb3a16aa	-0.0028394856
199	0x3b777542	0.00377591
200	0x3b4ea4cc	0.0031531332
201	0x3c0bc72b	0.008531372
202	0x3a113fbc	0.0005540808
203	0xbb4164c9	-0.0029509536
204	0xb9e230f3	-0.0004314255
205	0xbb1b5b8d	-0.0023705692
206	0x3b4d6bc1	0.0031344744
207	0xbb3f1932	-0.0029159305
208	0xbb90bcab	-0.004417022
209	0xbb106fef	-0.0022039374
210	0xbb1f931b	-0.0024349156
211	0xbb3021ab	-0.0026875536
212	0xbc155e03	-0.009116652
213	0x3a946492	0.0011321476
214	0x38987bad	7.270961e-05
215	0x3b4a4a26	0.003086695
216	0xbbfa979c	-0.007647468
217	0x3b58850f	0.0033038293
218	0xba9edd95	-0.001212048
219	0x39fcda6e	0.00048227928
220	0x392cbd02	0.00016473609
221	0x3b878b53	0.004136482
222	0x3a149f4b	0.00056694885
223	0xbb495fd0	-0.0030727275
224	0xb98def83	-0.00027072066
225	0xbb9d2eeb	-0.004796853
226	0xbb29c726	-0.0025906055
227	0xbb0573eb	-0.0020363282
228	0x398a3813	0.0002636319
229	0xbb2f677d	-0.0026764565
230	0xbad58338	-0.0016289717
231	0xb9b515fd	-0.00034539393
232	0xbac66b93	-0.0015138261
233	0xbbb8d3d3	-0.005640486
234	0x3a314f97	0.0006763874
235	0x3b8f43c0	0.00437209
236	0xbabdda37	-0.0014484589
237	0xba69ccf3	-0.00089187844
238	0x3ac5d76b	0.0015094107
239	0xbb87237e	-0.004124104
240	0xba557a93	-0.000814357
241	0x3bbd4cc2	0.0057769725
242	0xbaac8545	-0.0013162276
243	0xbb6e6f7c	-0.0036382368
244	0xbaee4194	-0.0018177503
245	0xb9f61315	-0.00046934994
246	0xbba25344	-0.0049537737
247	0xbb87ba07	-0.0041420492
248	0x3b22e72a	0.0024857023
249	0xba83c5be	-0.0010053439
250	0xba797b6e	-0.00095169886
251	0xbac3e789	-0.0014946322
252	0x3a82e51d	0.0009986494
253	0xbb3ffa19	-0.0029293357
254	0xba38974f	-0.00070415897
255	0xbb4a9af0	-0.0030915104

model.4.bias f4 [64]
0	0xb9d28da1	-0.00040159843
1	0xbbcf573e	-0.0063275388
2	0x3e1afb8c	0.1513502
3	0x00000000	0.0
4	0xbb294249	-0.0025826863
5	0xbb1cf571	-0.0023950005
6	0xb9d28da1	-0.00040159843
7	0x3e003429	0.12519898
8	0x00000000	0.0
9	0xb9d34921	-0.0004029954
10	0xb9d28da2	-0.00040159846
11	0xb976c827	-0.00023534951
12	0xb9e6557f	-0.00043932718
13	0xbad50a83	-0.0016253743
14	0xbc6536b0	-0.013990089
15	0xba8b1258	-0.0010610325
16	0xbbb44076	-0.0055008484
17	0x3960ddf3	0.00021444987
18	0x00000000	0.0
19	0xba50daa3	-0.000796715
20	0x00000000	0.0
21	0x00000000	0.0
22	0xbb1dc089	-0.0024071059
23	0x3e63769c	0.22213215
24	0xb9d34922	-0.00040299544
25	0xb9d34921	-0.0004029954
26	0xb970de0b	-0.00022970901
27	0x3d215e83	0.039396774
28	0xbbbe4218	-0.005806219
29	0x39b49489	0.00034442943
30	0xb9d28da2	-0.00040159846
31	0x39b43d5c	0.00034377992
32	0xb9d28da2	-0.00040159846
33	0xba90e7a9	-0.0011055368
34	0x3dfb8af8	0.122823656
35	0x398a4d16	0.00026378845
36	0x00000000	0.0
37	0x00000000	0.0
38	0x00000000	0.0
39	0xb9d28da1	-0.00040159843
40	0xb9d28da2	-0.00040159846
41	0x00000000	0.0
42	0xbbdf2a6b	-0.0068104765
43	0xb9d28da1	-0.00040159843
44	0xbb2976cd	-0.0025858164
45	0x00000000	0.0
46	0x3e25d01a	0.16192666
47	0xb9d28da2	-0.00040159846
48	0xba80a5e5	-0.0009815065
49	0xb9d28da2	-0.00040159846
50	0x3ce8752f	0.02837619
51	0xb9d28da2	-0.00040159846
52	0x00000000	0.0
53	0xb9d34921	-0.0004029954
54	0xb9d28da2	-0.00040159846
55	0x3936ae0f	0.00017421714
56	0xb9d28da2	-0.00040159846
57	0xb9d28da2	-0.00040159846
58	0xb9d34921	-0.0004029954
59	0x00000000	0.0
60	0xbaffe873	-0.0019524231
61	0x00000000	0.0
62	0x00000000	0.0
63	0xb9d28da2	-0.00040159846

model.6.weight f4 [64, 64]
0	0x3b7408ba	0.0037236647
1	0xb98b76de	-0.0002660071
2	0xbc4c66cf	-0.012475683
3	0x3acae4af	0.001547953
4	0x3b70aa6c	0.0036722673
5	0x3aa19f10	0.001233073
6	0x39a7cae5	0.0003200389
7	0xbc79e5d7	-0.015252552
8	0x3ad709f0	0.001640616
9	0xba304120	-0.00067235716
10	0xb9109ce6	-0.0001379136
11	0xbacb1f05	-0.0015496915
12	0xbb0ab3b9	-0.0021164252
13	0xba5a6d7e	-0.00083323556
14	0xbc35b61d	-0.0110907825
15	0xbc023f16	-0.007949611
16	0x3bab1006	0.005220416
17	0xbac77e5c	-0.0015220153
18	0xbb067ca8	-0.0020521078
19	0xbb8e9541	-0.0043512885
20	0xbb5bd792	-0.0033545238
21	0xba3604de	-0.0006943474
22	0xb9b5758a	-0.00034610584
23	0xbc1c5135	-0.009540846
24	0xbb5cd16e	-0.0033694166
25	0x3b29daaa	0.0025917687
26	0xbaaeff55	-0.0013351241
27	0xbc5d2733	-0.013498115
28	0x3afbbafc	0.0019205506
29	0xbb664f67	-0.0035142542
30	0xbb11d96d	-0.002225484
31	0xbc384605	-0.011247163
32	0xbb9678dc	-0.0045920443
33	0xbb76075c	-0.0037541008
34	0xbc3810d0	-0.011234477
35	0xba9797bb	-0.0011565605
36	0x3b587397	0.0033027881
37	0x394e13b2	0.00019653028
38	0x3aed9eae	0.0018128955
39	0xbaea42be	-0.0017872674
40	0xbb930ea0	-0.0044878274
41	0xba3f1902	-0.0007289798
42	0x3b4a0a3d	0.0030828856
43	0x3a489c41	0.0007652678
44	0xbbe5983b	-0.0070066727
45	0xbb2e1bd3	-0.0026566877
46	0xbc2a37e5	-0.010389303
47	0xbbc046a0	-0.005867794
48	0x3ab0b530	0.0013481732
49	0xbb1c8ace	-0.0023886445
50	0xbc47ec2d	-0.012202305
51	0x3b06e4c5	0.0020583135
52	0xbb10081a	-0.0021977485
53	0x3b386191	0.0028134326
54	0x3b18f884	0.0023341486
55	0xbb11fa16	-0.0022274307
56	0x3b243d4d	0.0025060952
57	0xbac66912	-0.0015137515
58	0x3a4b8d9a	0.0007764936
59	0x3b501b82	0.0031754677
60	0x3baf25e0	0.005345091
61	0x3a308dc7	0.00067349937
62	0xbb9652b5	-0.004587496
63	0x3a509f7f	0.0007958337
64	0x3b582512	0.003298108
65	0x3a194322	0.00058464904
66	0x3d524a3d	0.05134033
67	0x3aa453b4	0.0012537153
68	0x3c046937	0.008081726
69	0x383c7d48	4.493937e-05
70	0x37fa01d4	2.9803174e-05
71	0x3d5710ec	0.052506372
72	0xbb0f5e6d	-0.002187635
73	0xba1320f7	-0.0005612517
74	0xbb5b942c	-0.0033505065
75	0xba0d0359	-0.0005379222
76	0xbad6cb51	-0.0016387497
77	0x3bca709d	0.0061779753
78	0x3d4c386f	0.049858507
79	0xbb1d7888	-0.002402814
80	0xba777d14	-0.00094409403
81	0x3bde9105	0.00679219
82	0x3b2d01b0	0.002639871
83	0x3b8bbb71	0.004264288
84	0x3b869897	0.0041075456
85	0xbaa4b9bb	-0.0012567559
86	0xbac4a74b	-0.001500347
87	0x3d4e018f	0.050294455
88	0xbb5ef078	-0.0034017842
89	0xbab9c81b	-0.0014174016
90	0x3a8ca6ce	0.0010730864
91	0x3d4f3f01	0.050597195
92	0xbba0946f	-0.004900507
93	0x3c900e53	0.017584955
94	0x3ad21981	0.0016029329
95	0x3d4f2426	0.050571583
96	0x3b07aa1f	0.0020700765
97	0xba74615a	-0.0009322368
98	0x3d59194f	0.05300265
99	0x3bd3c84b	0.0064630858
100	0x3b457705	0.0030130756
101	0x3a105deb	0.0005507159
102	0xba1b932e	-0.0005934712
103	0xba03e71f	-0.0005031693
104	0xbb597866	-0.0033183335
105	0xba00d98b	-0.0004915229
106	0xbb7a2988	-0.0038171727
107	0xbae01fce	-0.0017099322
108	0x3cfd471f	0.030917702
109	0xbb6f1fb0	-0.0036487393
110	0x3d631bae	0.05544632
111	0xbb13e7b3	-0.0022568523
112	0x3bc40620	0.0059821755
113	0x3af15024	0.0018410725
114	0x3d4e0fad	0.05030792
115	0xba93909c	-0.0011258307
116	0xbb84b6f3	-0.0040501296
117	0x3920a659	0.00015320758
118	0x3a75c55d	0.0009375418
119	0x3c40980f	0.011755004
120	0x3adff3ff	0.0017086266
121	0x3af8cc39	0.0018981762
122	0x3aff2dab	0.0019468566
123	0x3a8dbb49	0.0010813262
124	0xbad207ec	-0.001602409
125	0x39f99ddc	0.00047610595
126	0xbb4d5f39	-0.0031337275
127	0x3b4664fc	0.0030272594
128	0x3b8277cb	0.0039815656
129	0x3b5baabe	0.0033518518
130	0x3d910a9c	0.07082102
131	0xb9c10c00	-0.0003682077
132	0xbbb2b850	-0.0054541007
133	0xba8d8455	-0.0010796884
134	0x3aaa2bee	0.0012983063
135	0x3d91da03	0.071216606
136	0x3b7949e0	0.0038038418
137	0xba1ed986	-0.0006059635
138	0xb99800d5	-0.0002899232
139	0xb9a16bd9	-0.00030788666
140	0xba4b007c	-0.00077439076
141	0x3b0e9d7f	0.0021761355
142	0x3d8dd010	0.069244504
143	0xbb9c9531	-0.004778527
144	0x3a84fc2e	0.0010145956
145	0x3c19c991	0.009386436
146	0x3b09f6ff	0.0021051762
147	0x3b71f849	0.003692167
148	0xbb92675b	-0.0044678873
149	0x3aa728a1	0.0012753197
150	0xbbd40756	-0.006470601
151	0x3d97cf27	0.07412558
152	0x398708f1	0.00025755868
153	0xbb1e5ee2	-0.0024165441
154	0xbb4622c9	-0.0030233136
155	0x3d8cab4a	0.06868608
156	0x3b62f291	0.0034629444
157	0x3cc5c6c7	0.024142636
158	0x3a28c151	0.0006437498
159	0x3d8fdb8e	0.070242986
160	0x39543ec7	0.00020241282
161	0x3b2d3338	0.0026428234
162	0x3d960b47	0.0732637
163	0x3c163177	0.009167067
164	0xbb134c7d	-0.002247601
165	0x3a3a3089	0.0007102569
166	0xbad20d49	-0.0016025688
167	0xbb994c2a	-0.004678269
168	0xbb102a03	-0.0021997697
169	0xbaa1c317	-0.0012341466
170	0x3c13109f	0.008976131
171	0xbb1bf044	-0.0023794333
172	0x3d2fc81f	0.04291546
173	0xbacb0427	-0.0015488908
174	0x3d9659ba	0.07341333
175	0x3a9308cf	0.0011217835
176	0x3b9d0dac	0.0047928896
177	0x3aedbdc4	0.001813822
178	0x3d8d6413	0.06903853
179	0x3b3157ee	0.0027060467
180	0xbb4feafc	-0.0031725755
181	0x3a4b087a	0.00077450986
182	0x3b282223	0.0025655113
183	0x3c87b1cd	0.016564274
184	0x3a92ba58	0.0011194451
185	0x3a974000	0.0011539459
186	0xbac40711	-0.0014955719
187	0x3ab62fc9	0.0013899739
188	0xbae39f4d	-0.0017366201
189	0xb8140457	-3.528999e-05
190	0x39d90258	0.00041391212
191	0x3953d154	0.00020200509
192	0xbb4c5389	-0.003117772
193	0x3b4ea3d0	0.0031530745
194	0xbc29122b	-0.010319273
195	0xb888547d	-6.5007225e-05
196	0xbb1daddf	-0.0024059934
197	0x3b844241	0.0040362184
198	0x39ccf7b1	0.00039094457
199	0xbc6bf045	-0.014400546
200	0xba250ed6	-0.0006296461
201	0xbb9f4e1d	-0.0048616068
202	0xba9902a1	-0.0011673757
203	0x3a7ef405	0.0009725693
204	0xbaf11eb1	-0.0018395988
205	0xbc359dba	-0.011084968
206	0xbc2faffb	-0.010723109
207	0x3b8a4025	0.0042190724
208	0x3b001b0e	0.0019547376
209	0xba7781c6	-0.000944164
210	0x3b48e4d8	0.003065398
211	0x3a837667	0.0010029793
212	0x3af8da1b	0.0018985899
213	0xba8c123b	-0.0010686585
214	0x3c39eed9	0.01134845
215	0xbc35b755	-0.011091073
216	0xb98b8cae	-0.0002661696
217	0x3ba3974e	0.004992402
218	0xbb95dfd5	-0.004573802
219	0xbc3067a8	-0.010766901
220	0x3b15f4f1	0.0022881592
221	0xbb680226	-0.0035401671
222	0xba0be283	-0.0005336182
223	0xbc3223e1	-0.010872812
224	0xbbafe61b	-0.005368007
225	0xbacce6a0	-0.0015632696
226	0xbc360649	-0.011109897
227	0xba9d10e5	-0.0011983184
228	0xbb5a17fc	-0.0033278456
229	0xba8902e2	-0.001045313
230	0xbb829ed0	-0.003986217
231	0xbae8b76e	-0.0017754862
232	0xbb5a66dd	-0.0033325471
233	0xba6fd3fd	-0.0009148715
234	0xbb2712c1	-0.0025493356
235	0x3769acfd	1.3928159e-05
236	0xbbc88a86	-0.006120029
237	0x3b9e065e	0.0048225364
238	0xbc23a7b8	-0.009988718
239	0x3af9091a	0.0018999905
240	0xbbcb08f1	-0.0061961343
241	0xbafe8e9d	-0.0019421164
242	0xbc3532e9	-0.011059501
243	0xb9aababb	-0.00032564052
244	0xbb4a7b8e	-0.0030896398
245	0x3b9e5527	0.0048319283
246	0xbb81ccd7	-0.0039611864
247	0xbb30fce3	-0.00270062
248	0xbb449e82	-0.0030001705
249	0x3a45a6a4	0.0007539785
250	0xbb017496	-0.0019753329
251	0x3ac7061e	0.0015184318
252	0xbb301cdf	-0.0026872677
253	0x3bc03345	0.005865487
254	0xbaa278ae	-0.0012395584
255	0x3ae2f5db	0.0017315702

model.6.bias f4 [64]
0	0xbc02ecde	-0.007991044
1	0x3ce84895	0.028354922
2	0x3d2e019a	0.042481996
3	0xbbb20583	-0.005432786
4	0xbbddb15a	-0.0067655267
5	0x3c2d2aea	0.010569314
6	0x3c9098d6	0.017651003
7	0x3d3ca8d6	0.046059452
8	0xbd28a7c7	-0.04117563
9	0x3d43d954	0.047814682
10	0xbd2c5360	-0.0420717
11	0xbb308e65	-0.0026940343
12	0xbd34097d	-0.04395436
13	0x3c5d8f8d	0.013522995
14	0xbabdf8b9	-0.0014493681
15	0x3c974814	0.018466987
16	0xbbc6e7cd	-0.0060701133
17	0x3cf9ebaa	0.030507881
18	0xbd0c15a7	-0.034200337
19	0xbd9817ca	-0.074264124
20	0xbc1fdff3	-0.0097579835
21	0x3c87fb74	0.016599394
22	0x3c900f15	0.017585317
23	0x3d2e5325	0.04255976
24	0xbc34c803	-0.011034015
25	0xbc545d47	-0.012961692
26	0xbcb672b7	-0.022271497
27	0x3c81f175	0.015862206
28	0x3c1506bb	0.009095843
29	0xbb939506	-0.004503849
30	0x3c613885	0.013746385
31	0xbd1d5703	-0.03841306
32	0xbc4e8d99	-0.012607002
33	0x3c45ed97	0.012080572
34	0x3d5022ba	0.050814368
35	0x3d1c1d89	0.038114104
36	0xbb2e3709	-0.0026583096
37	0xbb9d8f2e	-0.004808328
38	0xbd0b2d1b	-0.033978563
39	0x3d921448	0.071327746
40	0xbc4d9210	-0.012547031
41	0xbc758906	-0.014986282
42	0x3d1796fc	0.037009224
43	0xbd26076b	-0.040534418
44	0xbd140cbe	-0.036144964
45	0xbc3f4c72	-0.011675941
46	0xbd4e8be9	-0.050426397
47	0xbc061e26	-0.008185899
48	0xbd4cde5d	-0.05001675
49	0xbd2ac7c2	-0.04169441
50	0xbcc6947d	-0.024240727
51	0xbc4fb1a3	-0.012676629
52	0x3cfd9c71	0.030958386
53	0xbca8e437	-0.020616634
54	0xbc2c8fc1	-0.0105323205
55	0xbc2e7cfd	-0.010649917
56	0x3c3cb186	0.011516934
57	0x3c4b017a	0.012390489
58	0xbcf73d6a	-0.030180652
59	0x3c288e02	0.010287764
60	0xbc0a8e43	-0.008456769
61	0x3cac264f	0.02101436
62	0xbd32c434	-0.043644145
63	0xbcf0b9aa	-0.029385407
