CSSRS/RSIMDCL/checkpoint/pore2background_7_3rsim/latest_net_F4.pth (torch, 44759 bytes, 6 tensors)

model.0.weight f4 [64, 4, 3, 3]
00000000: 881c b0bc b8fb 57bc 55c8 70bd 48ea 68bd
00000010: c16a 06bd c45c 7dbd 5146 eebc bd23 39bc
00000020: 1a6a e4bc 179e 21bd 1f0a febc f2f7 22bd
00000030: e203 05bd 2e83 56bd 5a56 2ebd 8f4f 2a3c
00000040: 9658 d23b f900 c8bc d326 d5bb fe31 f0bb
00000050: b81d 09bd 7d07 d2bc 0438 63bb 047d bb3b
00000060: f002 42bc 695c bf3c 6b84 2ebb 2a7d 6d3a
00000070: c23f 8fbd 609b 2f3c 7c35 02bd 5cf7 4abd
00000080: ad5b f9bc 0fd5 303c aeb4 91bd 6dc1 ba3c
00000090: 2b3f e23c a2aa a7bc 4600 b43c da77 55bd
000000a0: a058 b8bc a4ce 3bbd d20d c63c 6568 debc
000000b0: f772 e13c 1606 06bd a7ac aabd 346d 943c
000000c0: 079f 9cbd a84a 62bc 4703 8dbd 11f6 b13a
000000d0: dbf7 b7bd ab96 ad3a abc2 24bd 7231 ebbb
000000e0: 8668 e7bc 496b 373d 4c6c bf3c 6774 26bc
000000f0: 4af5 ebbb f787 ee3c f035 07bd 5939 503c
00000100: 106f 2ebd 6b5a 94bc 51ad 49bd 6d04 25bd
00000110: 1c95 8fbd 0bab 91bc 0a35 1abd ec2a 92bc
00000120: 2541 79bd 6c77 8dbd cb69 3cbd 7395 ebbd
00000130: 2065 c9bd eca1 76bd ed4d dfbc ed0e 2fbc
00000140: f533 aabc e8ec d43c 6e50 1ebd a086 113d
00000150: 334a b4bd e36f d2bc b86f bcbd d019 913c
00000160: 7def 87bd faf6 15bd 57d4 fbbc ecc1 fabc
00000170: cb6f 19bd e985 61bb 6e60 763d 8aca 613c
00000180: 9396 063c 8802 0b3d bdff e9bc 798e 633b
00000190: 5443 bfbd 7d8b 4f3c c0f0 5cbd 8fd2 abbd
000001a0: b8e3 94bd 33bc 75bd d800 c5bd 9a1b 443c
000001b0: f837 59bc 012e a63a a24f 2bbd cfed 96bd
000001c0: b986 b6bd c5fb 8ebd e012 43bc 978a 863b
000001d0: 42ff 88bc 0d7a 35bd fbac a8bd 694a 8ebc
000001e0: 7902 ddbd 07e4 fbbc 2927 c3bd a40d 37bc
000001f0: 8a9e acbd eeef 56bd 904a 8abc 79c2 0b3d
00000200: c4fe 55bc 9015 743c 931c ad3c 7bda 843c
00000210: ff28 1ebd c5d2 c03c 3a14 65bc 6c42 93bc
00000220: 8add 8bbd 257d 91bc 4ee9 8abd 9eb0 3bbd
00000230: ad63 adbd af87 64bc 78f7 2cbd 2a81 023c
00000240: 368c dcba 55ba c0ba 50db 9ebb 90f6 ceba
00000250: 377b b5ba 45a2 33bb efad 5fbb bb1e 55bb
00000260: 09bc acbb 7172 86bb f71a de38 c216 ba39
00000270: 0615 6cb9 9c6d f339 a31a 413b 030a d83a
00000280: a9fa 8238 0f99 623a 970f b33a c9af 32bb
00000290: 0392 0dbb a484 d739 bac3 21bb 3ef5 c7ba
000002a0: b4c8 d0ba 38dc 863a 2876 a9b9 8b5d a9ba
000002b0: 3ef0 28bb 27d2 8cbb df17 1ebb 81c5 1a3a
000002c0: 8962 1ebb 9c1d b7ba f125 0cbb 5996 2b39
000002d0: 03f0 9ebc d65d 79bc ce48 c0bc c0d3 d6bd
000002e0: 1c24 38bd 4f11 83bd 7c6c 69bd fa22 5fbc
000002f0: e900 87bd cc55 a4bb 3ac2 14bc 16e4 e4bb
00000300: 9d8d 55bd 573f 5cbd 257b bdbd 916e 1a3b
00000310: 4ef9 12bd b36f 813a 51b9 23bd 1206 1dbc
00000320: 488a 3abd 13c2 ac3c 89b5 9b3b f85e 133d
00000330: b76a 2ebd a77e 7b3c 667c 88bb 8efa 11bd
00000340: 2423 4bbd 1d70 d8bc ed92 a4bd 9f0a 94bd
00000350: 0faa 1cbd 5cf7 633c b347 7bbd fae4 9b3c
00000360: 4395 35bd e128 24bc 4647 5abd 11bf 97bd
00000370: 1e9c c1bc 7a80 95bd 27d2 50bd 878a f3bb
00000380: 2fa4 dabc 1406 353c 69d8 d13c 13eb 8a3b
00000390: 0280 64bd b1f3 2ebd 9858 c3bc 0c17 8ebc
000003a0: cfe4 a8bc 38fd ce3b b455 08bd 6acd e13c
000003b0: 5138 943b 2cdf 15bd ed66 b53c b2df b43c
000003c0: 91ea 97bb c055 ca3c 0d6c fcbc 0ff3 1f3c
000003d0: 4c3e 80bd b700 9dbc 42cc 91bc 5dff ecb9
000003e0: ff11 4cbd eed7 9a3c 229b 58bd 1d52 31bc
000003f0: 4798 73bc b249 d23c 7331 bcbb b4e0 c63c
-0.02149798 -0.013182573 -0.0587848 -0.056864053 -0.032816652 -0.061856046 -0.029086264 -0.011300025
-0.027882624 -0.039457407 -0.031010685 -0.03978724 -0.032474406 -0.052371196 -0.04256282 0.010394945
0.0064192517 -0.024414526 -0.0065048723 -0.0073301783 -0.033475608 -0.025638336 -0.003467084 0.00572169
-0.011841521 0.023359494 -0.002662922 0.00090594834 -0.06994583 0.010718197 -0.031789288 -0.049552307
-0.030439222 0.010792985 -0.0711454 0.02279731 0.027618011 -0.020467106 0.021972787 -0.052116252
-0.022503197 -0.045851365 0.024176512 -0.027149389 0.02752064 -0.032720648 -0.08333712 0.018118478
-0.076475196 -0.013811745 -0.06885391 0.0013577362 -0.089828216 0.0013243755 -0.040224712 -0.007177525
-0.028248083 0.04478005 0.02336707 -0.010159588 -0.0072008716 0.029117567 -0.033010423 0.012708985
-0.042586386 -0.01810952 -0.049237553 -0.040287424 -0.07010862 -0.017781755 -0.03764824 -0.017842732
-0.060853142 -0.069075435 -0.04599933 -0.115031146 -0.09833741 -0.060213014 -0.027258838 -0.010684711
-0.020776728 0.025991872 -0.038650922 0.03552878 -0.08803215 -0.025688117 -0.09200996 0.017712504
-0.06637476 -0.03661249 -0.0307409 -0.030610047 -0.03746013 -0.0034412092 0.060150556 0.013781199
0.008214611 0.03393796 -0.028564328 0.0034722371 -0.09339014 0.012667534 -0.053940535 -0.0838977
-0.072699964 -0.059993934 -0.096193016 0.011969471 -0.013257973 0.0012678505 -0.04182399 -0.07369577
-0.08912415 -0.06981615 -0.011906356 0.0041058767 -0.016723279 -0.04430585 -0.082361184 -0.017369466
-0.10791487 -0.03074838 -0.095289536 -0.011172686 -0.084286764 -0.05247491 -0.016881257 0.03412101
-0.013061229 0.014897719 0.02113179 0.01621746 -0.038613316 0.023538003 -0.013981873 -0.017976008
-0.068293646 -0.017759869 -0.067827806 -0.045822732 -0.08466277 -0.013948365 -0.042228192 0.007965365
-0.0016826454 -0.0014703969 -0.0048479214 -0.0015790034 -0.0013845925 -0.0027409953 -0.0034130772 -0.0032519537
-0.005271439 -0.004102998 0.000105908075 0.0003549364 -0.00022514546 0.00046430237 0.002946534 0.0016482476
6.245572e-05 0.00086440233 0.0013661262 -0.002726542 -0.0021601922 0.0004110682 -0.0024683313 -0.0015255583
-0.0015928955 0.0010289019 -0.00032322225 -0.0012921555 -0.002577796 -0.004297513 -0.0024123115 0.0005904064
-0.0024167618 -0.0013970616 -0.002138492 0.0001636384 -0.019401556 -0.015220126 -0.023472216 -0.10489607
-0.04495631 -0.06399786 -0.056988224 -0.013619179 -0.065919705 -0.0050151106 -0.00907951 -0.006985198
-0.052137006 -0.053771343 -0.092520036 0.0023564438 -0.035882287 0.0009875208 -0.039971653 -0.009583967
-0.04554203 0.021088636 0.0047518653 0.03597924 -0.04258224 0.0153500205 -0.00416522 -0.03563934
-0.04959406 -0.026420647 -0.08035836 -0.07228588 -0.038248118 0.013913956 -0.061347675 0.019030083
-0.0443318 -0.010019512 -0.053290628 -0.0740949 -0.023634013 -0.072998956 -0.050981667 -0.007432285
-0.026689617 0.011048812 0.025615888 0.004239449 -0.05578614 -0.04271287 -0.023845956 -0.017344974
-0.020616917 0.006316807 -0.033284858 0.02756377 0.004523315 -0.036589786 0.022143805 0.022079322
-0.004636117 0.024699092 -0.030813241 0.0097625395 -0.06261882 -0.01916538 -0.017797593 -0.00045203688
-0.04982185 0.018901791 -0.05288232 -0.0108228 -0.014867849 0.025669906 -0.0057431995 0.024277069

model.0.bias f4 [64]
00000000: 528d 383f a8db 253f f6e4 0b3f 64ae 6b3f
00000010: 4a40 94bb 23ca 4b3f 86f8 1b3f 288f 0dbc
00000020: 65bf 073f 6adb 6f3f fec3 2dbb 4701 6c3f
00000030: a666 703f 0c88 c6ba c061 003f 328a 083f
00000040: 4298 5a3f 26f4 1f3f 51d8 043f a856 00bb
00000050: a2b9 5c3f 5f2d 33bb 1407 093f f969 6f3f
00000060: 3bc1 82bb e176 093f cc14 033f b667 0a3f
00000070: ef79 203f e041 5f3f d218 e93e fb8d c5ba
00000080: ae10 ccba 1881 673f a2e0 053f 9253 bebb
00000090: 8dba fc3e 1817 43bb 0a75 063f 50e3 cbbb
000000a0: 9953 673f 72d2 483e bd9a 063f 391e 95bb
000000b0: ed08 083f 06f4 623f b6eb 083f b084 47bb
000000c0: 8fb9 36bb db8c c93e f45e 713f 9bd5 683f
000000d0: 82ca a5ba 521f ed3e 7bcb 083f 642f fd3e
000000e0: bfce 6c3f b196 5abb b686 1dbb b5e9 0d3f
000000f0: cbd7 e6ba 4a5a 723f b538 87ba 7147 24bb
0.7209064 0.64788294 0.5464624 0.92062974 -0.0045242654 0.7960531 0.6092609 -0.008640088
0.5302642 0.93694174 -0.0026514526 0.9218945 0.9390663 -0.0015146746 0.50149155 0.5333587
0.85388577 0.62481916 0.5189257 -0.00195829 0.86220753 -0.0027340276 0.53526425 0.93521076
-0.00399032 0.5369702 0.5120361 0.540645 0.62686056 0.8720989 0.4552675 -0.0015072221
-0.0015568936 0.90431356 0.5229589 -0.005808302 0.49361077 -0.0029768404 0.5252234 -0.006222166
0.90361935 0.19611529 0.5257986 -0.004550722 0.5313862 0.886536 0.53484666 -0.0030444078
-0.0027881598 0.39365277 0.9428551 0.90950936 -0.0012648853 0.46312958 0.53435487 0.4945022
0.9250297 -0.003335398 -0.0024036593 0.55434734 -0.0017611919 0.9466902 -0.0010316583 -0.0025066996

model.4.weight f4 [64, 64]
00000000: 9c7e 2b3b 3d1f 94bc 9353 82bc f509 47bc
00000010: ac47 893b e19c b6b9 5d52 163c f151 8ebb
00000020: 8965 483c 4d02 06bc 64a6 b63b 6cfb 59bc
00000030: d904 2ebc 745e 063b ec43 4f3c 9b0e fb3b
00000040: c40e 93bc e32e c43b 87e8 723c 67d3 ce3b
00000050: 2f6c 5739 2364 663a c9f7 393c 8509 39bc
00000060: 8dbd 9d3a 9ba3 773c 51ae 70bc be42 f93b
00000070: f4f1 093c bf6b 61bb 487e 4fbc 1cf9 47bb
00000080: 1fdb a63b 44a2 75bc 3e95 4a3c be1b 86bb
00000090: db2a 9c3c c882 7d3b 1be5 753c c740 7bbb
000000a0: 846d bcbb 357d debb 9501 67bc b9dd 8dbb
000000b0: 8b1e 3a3c 3a6c 5ebb 8e76 4c3c eaee e73a
000000c0: 4f40 cc3b 93c0 2abc 1361 15bc cfb8 d2bb
000000d0: 0617 22bb 08b2 54bc 17b0 283c 6fae 9b3c
000000e0: 97ec 45bc f6ba 093c 5101 7c3b 2021 563c
000000f0: 6cdd b7bb a9c0 2fbc 490d 8fba 9aea 943a
00000100: f511 593b 7674 d8bc 9ea3 d5bc 4452 13bc
00000110: b00f a53b 8cf0 053c 2e92 323c 3167 eabb
00000120: 971f 783c 67f8 2fbc 22f3 043c 6aeb ffbb
00000130: 6c53 afbb bcac af3b a5bf 1e3c c459 7e3c
00000140: 2c76 88bc 5c0d 583c 7180 833c 4ec3 d73b
00000150: 0f6a 45b9 6c3e 483b 8c08 653c 6303 d5bb
00000160: 78a3 d03b 69ef 513c b663 cfbc 7137 763c
00000170: e72a 1c3c 8b8a ed3a 4678 d4bc 0a9f a13b
00000180: 62a3 e83b 173c 56bc 3475 963c 4094 063b
00000190: 4353 9a3c 7e03 c23b 098b 923c f424 97bb
000001a0: f139 023a fded 90bc 398c d3bc 408c 3639
000001b0: 52c3 443c 1a31 113b d33e 923c 2c26 6a3b
000001c0: 025a d23b df89 c0bc 4185 12bc 9e1c 31bb
000001d0: 0b9a 853b 0bf0 cebc afdb 923c 517c a43c
000001e0: da55 01bc 75c8 ea3b fa3a 013c 7193 2c3c
000001f0: 8b1c e33b d076 c0bb 47ae a13b d1e1 c53a
00000200: 15cd d93a 29bc 17bb f12e 8bbb 5655 1db7
00000210: ff9f 7ebb eb5d a5ba 1ee1 aaba df2b 38bb
00000220: 3754 25ba 80c6 463b f7f5 77ba 4f7b da3a
00000230: 0794 563a a46a 863b 831a 753a fbda ddba
00000240: a48a 3dbb cd20 813b d366 85bb f63d e3ba
00000250: 27ea 7a3b 8a7e 753b 858c 47bb e288 653b
00000260: cf7e 1b3b 1bb3 85ba da02 edb9 d6b1 0a39
00000270: 183b d1ba 8cf3 f8bb 61e9 8a39 b39e 1abb
00000280: da70 85bb 5774 1e3b 3b9a d03a c6c7 24bb
00000290: b228 02bb 7cc0 efba 353c 9a3a 9597 01bb
000002a0: 19ec 91ba dec5 84ba 3c67 f4ba 4e9f 1f3b
000002b0: 4b78 913a 0f5c e7ba 47c2 33ba d91b 16bb
000002c0: fd0f 85bb 480f 86bb fb3b e23a 68d9 9e3b
000002d0: 4eaa e339 ac6a 3cbb 6a47 063b 913d a5bb
000002e0: ffff dfba 45e0 203b c565 213b 7382 82ba
000002f0: 6ff0 b03a ef43 b73a 2be4 9e39 1780 013b
00000300: c783 fe3d 98f1 793d 0a58 563d dfb0 c13d
00000310: 473b 313c f7f1 ec3d 79a9 003e 1a47 7a3c
00000320: b0b2 083e bec7 c83d 4f55 b53b 719c c03d
00000330: 6a74 cd3d fb3e d03b 9124 0b3e 216e 043e
00000340: 073f a33d 9fad f93d 7150 0f3e a30d 663b
00000350: 7e48 e23d bebd da3a 4b11 083e 14d4 cc3d
00000360: 1790 013c 6579 093e ebef 4a3d 61e0 063e
00000370: 90c0 fa3d 22cf e43d e89c 353d 510e bf39
00000380: 7148 063c 54cd be3d 19e5 083e 09f3 4f3b
00000390: c96e 0a3e 9605 113c 2509 043e c46b 1e3c
000003a0: 8bce e43d 5f0e ea3c c3a9 4c3d 7711 b23b
000003b0: 6daf 053e e49f dc3d 8adf 083e 5025 ef3b
000003c0: 7bd9 be3b 4136 233d eca8 cc3d e689 e03d
000003d0: 6373 9d3b 93da 373d 8762 0a3e ca30 0f3e
000003e0: f471 c63d be5d 9d3b 3d4a d13b 823d 043e
000003f0: 263a 473b 8d6b cd3d e768 b63b 5710 d23b
0.0026167994 -0.018081302 -0.015908992 -0.01214837 0.004189452 -0.0003483063 0.00917491 -0.0043432643
0.012231239 -0.0081792595 0.0055740345 -0.013304573 -0.010621273 0.0020503076 0.012650471 0.007661653
-0.017951377 0.0059870346 0.014825947 0.006311822 0.000205443 0.0008788725 0.0113505805 -0.011293774
0.001203464 0.01511469 -0.014689998 0.0076068332 0.0084195025 -0.0034396497 -0.012664385 -0.003051347
0.0050920392 -0.0149923 0.012364684 -0.0040926626 0.019063404 0.0038682688 0.015008236 -0.003833817
-0.00575036 -0.006789828 -0.014099498 -0.00432941 0.011359821 -0.003393902 0.0124794375 0.0017695103
0.006233252 -0.01042189 -0.009117383 -0.0064307223 -0.0024732961 -0.012981899 0.010295889 0.019004075
-0.012080333 0.008406391 0.0038452933 0.013069421 -0.0056111123 -0.010727086 -0.0010913993 0.0011361421
0.0033122275 -0.02642272 -0.026078995 -0.008991782 0.0050372705 0.008175027 0.01089911 -0.0071534147
0.01514425 -0.010740376 0.008114608 -0.007810046 -0.005350521 0.0053611677 0.009689246 0.0155243315
-0.016657911 0.013186779 0.016052457 0.0065845614 -0.00018826894 0.0030554784 0.0139790885 -0.006500648
0.0063671432 0.0128134275 -0.0253161 0.015027867 0.009531713 0.0018122954 -0.025936257 0.004932289
0.007099555 -0.01307585 0.018366434 0.0020535141 0.01883853 0.0059208265 0.017888563 -0.0046125595
0.00049677404 -0.017691607 -0.0258237 0.0001740912 0.012009459 0.002215451 0.017852223 0.0035728319
0.006419421 -0.023503242 -0.008942903 -0.0027025114 0.0040772012 -0.025260946 0.017927019 0.02007881
-0.007894004 0.0071650096 0.007887596 0.0105332 0.006930893 -0.0058735386 0.0049341056 0.0015097206
0.0016616905 -0.0023152924 -0.004247539 -9.377798e-06 -0.003885269 -0.0012616491 -0.0013037061 -0.002810232
-0.00063067995 0.0030330718 -0.0009458954 0.0016668829 0.000818551 0.004102068 0.0009349959 -0.0016926223
-0.0028921748 0.0039406777 -0.0040710955 -0.0017337191 0.0038286538 0.0037459456 -0.0030448746 0.0035024215
0.0023726707 -0.0010200472 -0.00045206287 0.00013226955 -0.0015963046 -0.0075973924 0.00026495292 -0.0023593127
-0.004072291 0.002417823 0.0015915105 -0.0025143488 -0.0019860682 -0.0018291618 0.0011767211 -0.0019774188
-0.0011132985 -0.001012977 -0.0018646489 0.0024356428 0.0011098472 -0.0017651337 -0.00068572577 -0.0022904782
-0.004060744 -0.004091177 0.0017260307 0.004847694 0.000434237 -0.0028750105 0.0020489343 -0.0050427397
-0.0017089843 0.0024547738 0.002462731 -0.000995709 0.0013499389 0.0013982038 0.00030306107 0.0019760185
0.12427478 0.061021417 0.052330054 0.094575636 0.0108173555 0.11569589 0.12564649 0.015275741
0.13349414 0.09803723 0.005533851 0.09404839 0.1003197 0.006355164 0.13588168 0.12932636
0.07971006 0.12191319 0.1399553 0.0035103343 0.11048983 0.0016688628 0.13287847 0.10001388
0.007907889 0.13425215 0.04954521 0.13171531 0.1224376 0.1117232 0.04433909 0.00036441025
0.008195982 0.09316507 0.13368644 0.0031730554 0.13518824 0.008851429 0.12894113 0.009669248
0.111722074 0.028571306 0.049966585 0.005434211 0.13055201 0.10772684 0.13366523 0.007298149
0.0058242655 0.039846662 0.09993157 0.10963802 0.004805015 0.044886183 0.13514148 0.13983455
0.096897036 0.0048024347 0.0063870237 0.12914088 0.003039965 0.10030279 0.0055667046 0.0064106393

model.4.bias f4 [64]
00000000: fd50 993c f5cb 853c a28d d2b9 10e9 fd3d
00000010: 0000 0000 a436 57ba 3d94 b9ba 0000 0000
00000020: a38d d2b9 a28d d2b9 f257 cfbb 4c89 e13d
00000030: 0e96 dd3d 0000 0000 a18d d2b9 1103 3d3e
00000040: d503 a7bb 0000 0000 3828 6e3c a18d d2b9
00000050: a26c dcbb 983b 90bb 0000 0000 ed9e e8bb
00000060: a05b 87ba 886e 5a3e 251d 1e39 d7bb 4bba
00000070: 377d ccba 0000 0000 0000 0000 cb2a 1c38
00000080: a28d d2b9 dc93 373e f173 dcbb a18d d2b9
00000090: 0000 0000 f6c2 d4ba 7f15 b439 d16f b7bb
000000a0: 2149 d3b9 df72 71bb bd85 0a3e 85b6 04bb
000000b0: 0a6d c3bb 162f ae3c 94fd d6ba a18d d2b9
000000c0: 2049 d3b9 0314 4d3e 1f49 d3b9 a28d d2b9
000000d0: 0000 0000 3957 1738 70f1 5cba c7ab d4bb
000000e0: 37fa 80bb 0000 0000 318e fdba 0000 0000
000000f0: d3b9 a639 a28d d2b9 ce3b e43d 7632 08bc
0.018715376 0.016332606 -0.00040159846 0.12397969 0.0 -0.0008209741 -0.0014158558 0.0
-0.0004015985 -0.00040159846 -0.0063276226 0.110125154 0.10819636 0.0 -0.00040159843 0.18458201
-0.0050968924 0.0 0.014535956 -0.00040159843 -0.006726817 -0.0044016354 0.0 -0.0070990236
-0.0010326989 0.21331227 0.00015078911 -0.0007771826 -0.0015601282 0.0 0.0 3.7233152e-05
-0.00040159846 0.17927498 -0.0067276885 -0.00040159843 0.0 -0.0016232419 0.0003434829 -0.0055980464
-0.0004029954 -0.003684215 0.1352758 -0.0020250392 -0.005963926 0.021262687 -0.0016402476 -0.00040159843
-0.00040299539 0.20027165 -0.00040299536 -0.00040159846 0.0 3.6082438e-05 -0.0008428311 -0.006490204
-0.003936078 0.0 -0.0019344745 0.0 0.00031800437 -0.00040159846 0.11144219 -0.008312812

model.6.weight f4 [64, 64]
00000000: cb7e 553b e2ed 7f3b ba3a c7ba 01ed 9d3b
00000010: 26fb d63b c1ae 263b 2471 de3a fe26 063b
00000020: 79ca 9fba 4232 ba39 675d 71b9 8927 903b
00000030: 9b97 933b 9c2c d53b 6875 0dbb 6fad a13a
00000040: 6110 183b 62d0 e93a 150e 8f3b f45f c638
00000050: a7fc 4a3b f2a2 7cbb 7817 95bb e4df 45bc
00000060: d6eb b83a 7df8 b83b f5bb fd39 127a ffba
00000070: 9bdc 2d3a 52d2 9a3b 5e45 1b3b 4163 fb3a
00000080: 78eb 833a 33d0 c73b b142 493b dcbf 913a
00000090: a483 8339 110c d13a 0901 553a 6747 8b3b
000000a0: 1949 a73b 56b5 84bb f469 8f3b 5e28 0e3a
000000b0: a100 f4bb 4201 863b acf8 573b 0c52 f6ba
000000c0: 623a ceba 3a29 da3b bf95 9aba cc6f d23a
000000d0: 9e3f c0ba 8894 ff3a ada0 653a 1997 bd3b
000000e0: dac1 513b 41bc 9bba 8363 373b a114 1d3b
000000f0: 73c9 393a 3ebb d33a 7241 e93a 22bd 8f3b
00000100: 4e59 bbbb 4e17 dfbb da21 b1b7 32dd e5bb
00000110: ce9a 5cba d3f0 93bb f2a9 89bb 8b16 483b
00000120: f8df 03b9 494e 443a e375 b538 607f 0ebc
00000130: bcfa f9bb 401f eb39 d56b 6c3b 6b6a dcbb
00000140: 6cde 1dbc 6e6c 343b 4d30 f1bb 9f13 2e3a
00000150: bcaf 2bb9 d5d1 d33b 6756 20bb 12ea 07bc
00000160: 736a 27bb 7df1 e6bb 220d 8eba bb50 97bb
00000170: b6fe bcba e75e 653a 5cc1 9c38 0a78 59bb
00000180: 9f1c a7b9 990f 1fbc 5df1 373b 0f26 2e3b
00000190: f3ff ff3a 7519 11bb 41fa 92ba dbad d23a
000001a0: bfd8 0d3b fc21 ce3b 5a5f f8bb 693a 44bb
000001b0: 95a1 d13b 964b d2bb eccf c2bb a3b1 c8ba
000001c0: 2325 1cbb c004 2cbc c147 58ba 2850 f739
000001d0: 8f40 47bb 1b8f 55bb 77c6 afba 9f09 343b
000001e0: ff15 b1bb 4040 c2ba 8153 7e3b 7694 86bb
000001f0: 97f7 9bba d79f 663b 034e 9fbb 8946 f3bb
00000200: 6166 2fbb 1e1e 5abb be96 87bb 3343 563a
00000210: 4bc4 aaba cbab 07bb 61ca 9cba 3026 5e3a
00000220: 56f5 2a3b bedb 72bb 9940 0dbb 700d faba
00000230: 6be9 91ba 3e6e e93a 1f4e d63a 7436 fdbb
00000240: 7813 b239 16a0 89bb 4303 68bb 61c8 463b
00000250: ca78 1ebb 1f4a d53a 49b2 19b9 1fca 8c3b
00000260: 029c 523b ab22 d1bb 5f88 c4b9 9a69 813b
00000270: 20ab 95b8 99c1 5b3a 72b1 78ba ca68 bbba
00000280: 2ede b139 d09f 87bb 31dc 9538 1d7c 223b
00000290: 2bb1 9d3a bfe4 41ba 9551 bcb8 ad52 5739
000002a0: d9e9 1e3b e309 4d3b adbb 6bba 4354 09bb
000002b0: d31c 3f3b 8f78 4abb ba96 10ba 58ef 01bb
000002c0: ca7c 9eb9 eaad aebb 6545 5eba 749f 2cba
000002d0: a427 4739 e33f cbba 08aa 24ba f8de 17bc
000002e0: 1389 1abb 2f57 a2ba 3e7f 843a 1e24 f03a
000002f0: e751 c7b9 c1a1 5aba 750a 8d39 b2f2 69bb
00000300: 227b 333d 01d8 573d ad48 0e3b a00e 833d
00000310: b2d0 1939 e912 053d 9583 3d3b 09d9 a139
00000320: 502b 853b e7ed b83a a3a1 db39 ac61 7e3d
00000330: f870 7c3d 19c8 893b 7ca1 943b 7238 863d
00000340: b42d 7d3c 056d 14b9 146f 6a3d 7787 7e3a
00000350: 44d8 e139 cd8b 94bb 095c cbb8 22ac b83b
00000360: 1fac 63bb 9d3d 803d 1f92 0b3c dbba e93b
00000370: 9d84 4f3c 4b79 97bb 50e6 783b 3f56 cc3c
00000380: 484c 1ebb 5ca4 7a3d 205f 063a bf64 1c3b
00000390: 328e 9e39 2cd9 d43a 90f3 213c 9649 8b3b
000003a0: 643b 3dbb fe15 01bc 8cbc 7d3d 4446 f43a
000003b0: 6daa 9139 02eb 533d a68d 8fbb a73c 7c3b
000003c0: 2933 4abb 660d 7c3d d618 1c3b 4065 693b
000003d0: 770c be39 01c0 d13c d4bf 323c b03a b73c
000003e0: b3a9 2a3d 5bba 323a 18b0 04bb 82ff acba
000003f0: 48cc 203c 5cf2 63ba d168 7f3d 1a2f 6c3d
0.0032576795 0.0039051701 -0.0015199997 0.004819513 0.006560701 0.0025433751 0.0016970974 0.0020470018
-0.0012191079 0.0003551413 -0.00023018346 0.004399244 0.0045041568 0.006505562 -0.0021584872 0.0012335012
0.0023203122 0.0017838592 0.0043656924 9.4592484e-05 0.0030973346 -0.0038549271 -0.004549917 -0.0120773055
0.001410837 0.0056448565 0.0004839596 -0.0019491336 0.0006632299 0.004724779 0.002369247 0.001917936
0.0010064682 0.0060978173 0.0030709917 0.0011119801 0.00025084347 0.0015949031 0.00081254594 0.004250455
0.0051051495 -0.0040499372 0.0043766443 0.00054228853 -0.007446364 0.0040895054 0.0032954616 -0.0018792762
-0.0015733952 0.0066577466 -0.0011793895 0.0016055047 -0.0014667397 0.0019499222 0.00087595993 0.0057858345
0.0032006414 -0.0011881666 0.0027982898 0.0023968595 0.0007087208 0.0016153825 0.0017795993 0.00438656
-0.005717433 -0.006808198 -2.1115808e-05 -0.007014894 -0.00084154017 -0.0045147925 -0.0042011673 0.0030531015
-0.00012576568 0.0007488472 8.652711e-05 -0.008697361 -0.007628767 0.00044845976 0.0036075015 -0.006726553
-0.009635549 0.002753045 -0.007360494 0.0006640497 -0.00016373297 0.006464223 -0.0024465562 -0.008295553
-0.0025545626 -0.0070478306 -0.0010837654 -0.004617778 -0.0014419171 0.0008749798 7.474676e-05 -0.003318312
-0.00031874047 -0.009708309 0.0028067448 0.0026572978 0.0019531235 -0.0022140418 -0.0011213497 0.0016073541
0.0021644083 0.0062906723 -0.007579726 -0.0029942042 0.006397436 -0.006417702 -0.0059451964 -0.0015311729
-0.0023825846 -0.010499179 -0.0008250438 0.00047171232 -0.003040347 -0.0032586518 -0.0013410588 0.0027471555
-0.0054042335 -0.0014820173 0.0038807096 -0.0041070534 -0.0011899349 0.0035190487 -0.0048615946 -0.00742418
-0.0026763903 -0.0033282111 -0.004137843 0.00081734656 -0.001302847 -0.0020701762 -0.0011962169 0.00084743183
0.0026086173 -0.0037057246 -0.0021553396 -0.0019077491 -0.0011132186 0.0017809344 0.0016350186 -0.0077274386
0.0003396531 -0.004199992 -0.0035402335 0.0030331837 -0.0024180883 0.00162727 -0.00014657633 0.0042965556
0.0032136445 -0.0063823066 -0.00037485638 0.0039493563 -7.136748e-05 0.00083830353 -0.00094868906 -0.0014298197
0.00033925608 -0.004138924 7.1458875e-05 0.0024793216 0.001203095 -0.00073964515 -8.9797344e-05 0.00020534797
0.002424827 0.003128641 -0.00089925044 -0.0020954765 0.0029161468 -0.0030894612 -0.0005515624 -0.0019826498
-0.00030229083 -0.0053307908 -0.00084789685 -0.00065850397 0.00018992886 -0.0015506711 -0.000628144 -0.0092694685
-0.0023580238 -0.0012385602 0.0010108722 0.0018321311 -0.0003801726 -0.0008340143 0.00026901407 -0.0035697636
0.0438186 0.05269623 0.0021710799 0.06399274 0.00014668962 0.032488737 0.002891754 0.00030870017
0.004064001 0.0014108986 0.00041891364 0.062104866 0.061631173 0.0042047617 0.004535852 0.06553735
0.015452791 -0.00014154993 0.05723484 0.0009709517 0.00043076475 -0.004533267 -9.696937e-05 0.005635754
-0.0034740043 0.06261752 0.008518725 0.0071328706 0.012665895 -0.0046226135 0.0037979074 0.02494347
-0.0024154354 0.0611919 0.0005125869 0.002386376 0.00030242052 0.0016239039 0.00988473 0.0042507155
-0.002887451 -0.0078787785 0.06194739 0.0018636663 0.00027783532 0.051737793 -0.0043808995 0.00384883
-0.0030853248 0.061536215 0.0023818514 0.0035613328 0.0003624891 0.02560425 0.010909993 0.022366852
0.041665744 0.000681793 -0.0020246562 -0.0013198706 0.009814329 -0.0008695477 0.06235582 0.057662107

model.6.bias f4 [64]
00000000: cbf7 8e3b c2e5 acbb 3ada 39bb 1414 133d
00000010: 3855 e1ba c278 1f3b 2e18 f03c 83cc a23a
00000020: 1d16 d5bc b518 fe3c d05b 043d cbf8 3c3b
00000030: 3218 313c 596d 22bb c656 16bd 4641 d8bc
00000040: f8ce 2739 d2b4 023c 0601 793b 7b5a dfbc
00000050: 8523 183d 0a59 1f3d 8595 fe3c 7b90 d93a
00000060: cab9 63bd 2aaa ccbc b952 7f3b 337b 303b
00000070: 8c5e 2cbc 724f 333d 3f41 dbb9 12b1 943b
00000080: 7cb9 c539 2d43 baba 30d6 063d e254 edbc
00000090: e3b6 90bb 2684 f03a 7c7e 00bd a411 e53c
000000a0: 210c 4bba eca8 843a 0df4 003b c3fe cd38
000000b0: 1cd5 0ebd cea6 9ebb 14bf 1c3d 2c1f 1c3d
000000c0: 14be ab3d 6673 fdbc 3f65 c23b 12b2 d539
000000d0: ba6e a53b a423 473d 6674 b2ba 9dc5 14bb
000000e0: 521e 1dbb 4303 feba af61 c7bc 78d5 c03b
000000f0: 1368 983a 9412 233d fb0a 4abd d286 dc3c
0.0043630353 -0.0052764127 -0.0028358833 0.03590782 -0.0017191535 0.0024333452 0.029308405 0.0012420568
-0.026011521 0.03101764 0.03231412 0.0028834816 0.010808991 -0.0024784415 -0.036703847 -0.026398312
0.00016003463 0.007977681 0.0037994995 -0.027264824 0.03714325 0.038903274 0.031077156 0.0016598845
-0.055597104 -0.024983484 0.0038959219 0.0026928901 -0.010520589 0.043776937 -0.00041819547 0.00453771
0.00037712965 -0.0014210694 0.03291911 -0.02897114 -0.004416333 0.001834993 -0.031370625 0.027962513
-0.0007745643 0.0010121143 0.0019676716 9.822615e-05 -0.034871206 -0.004841662 0.038268164 0.038115665
0.08385864 -0.030938815 0.0059324796 0.000407592 0.0050486 0.048617974 -0.0013615012 -0.0022700795
-0.002397437 -0.0019379634 -0.024338571 0.0058848225 0.0011627696 0.03981264 -0.049326878 0.026919756
