CSSRS/RSIMDCL/checkpoint/pore2background_7_3rsim/latest_net_F6.pth (torch, 44759 bytes, 6 tensors)

model.0.weight f4 [64, 4, 3, 3]
00000000: 4be1 9fbc 1c3c 9dba b408 b0bb b531 23bd
00000010: 63d2 cd3b 822b cebc 47fe 89bb 58ee ee3b
00000020: 8533 03bc 8880 4abe 8ca1 023d a182 59be
00000030: 0f85 53be ef3f 9e3b 4190 50be 1bc7 47be
00000040: 34ca c33c e9b8 49be f21d 893b 63a2 b2bc
00000050: 49a0 0d3b a5b3 003c 3515 2c3c fe4d cf3b
00000060: bb46 5ebc 3422 1ebd 0598 e0bb 8b41 793b
00000070: 3aec 013b 5d45 fb3b 3396 673c 0fab 2c3c
00000080: eee4 773a 9a46 8d3c de89 5e3c 834d 7aba
00000090: 8f54 38bd 8fa8 89b9 5f67 fabc e512 94bd
000000a0: 0555 acbb 0cc2 7fbd eb89 38bd e0a9 253a
000000b0: 2a38 13bd b7cf 58be ba2d b03c a4f0 62be
000000c0: f734 4ebe ff28 f33a 86a3 41be 329d 58be
000000d0: 96e8 303d c1eb 5ebe afc2 2dbb a0a7 a6bc
000000e0: 0578 853a 7b1a 80bc 5314 673b 5c09 cf3b
000000f0: 46d7 aab9 ee37 13bd b384 a63c d3af 2b3c
00000100: 4fde 7bbb b6c8 a23c 27b0 2a3c 3da5 a6bb
00000110: 7b98 8c3b 977d 923c 4d67 bd38 058d af3c
00000120: f46a 2fbd 62be 4bbc 7466 56bd 3cb8 93bd
00000130: c79c 33bc da16 a5bd c0b8 41bd 7a9f 5cbc
00000140: 748e 56bd 73ae 4fbe 78b0 d33c 0fff 53be
00000150: 3fb1 43be 1c44 803b 9d76 44be 066d 4ebe
00000160: 7b63 f93c e180 51be 2234 bc3a aad5 e1bc
00000170: a1b8 343c c2f8 0fbc 14dc 0b3c 714d 503b
00000180: 84b0 7fba 4912 d4bc f48e 1c3c cd11 963b
00000190: 4d5c 353b b4e3 393c 231c c5ba 5532 4ab9
000001a0: 3149 c238 bff4 c23b 4263 3f38 151e 3d3c
000001b0: 7f10 40bd 4e11 c3bb 1d3d 58bd c7c9 9bbd
000001c0: 4a25 053b fd1d 9bbd d97a 39bd 1967 5f3a
000001d0: c45e 53bd e93b 60be 6ee8 1f3c b8ef 4fbe
000001e0: 26ab 48be 39ac 583c ae6e 4bbe 442c 53be
000001f0: d963 a83c 9af4 5bbe 863f 9438 8daa acbc
00000200: 6d7b e03b bdb9 923b f56d 913b 3388 813c
00000210: 06a7 98bb 5e12 a4bc 64e0 963b 7e68 0e3c
00000220: ebce 6cbb 8ba0 8d3c 34e5 443c 39ef ebbb
00000230: 0ea9 003c d187 573c 2cb7 6dbb 12f8 4c3c
00000240: d9b8 32bd 7633 06ba dec4 54bd 933f 92bd
00000250: dab9 80bc fe91 a2bd 1aef 41bd 57a0 aebb
00000260: da6b 6dbd 3fc7 50be 4b11 e23c 72d6 53be
00000270: c1a0 46be b438 e73a 08be 4dbe 593b 4ebe
00000280: 2b1a d03c f3a1 55be a13d 88bb 4ad1 00bd
00000290: 39bd e93b 4ae0 f9bb 3f79 3e3c f99a 4bbb
000002a0: b88a 54bc fa71 0bbd 64f0 81bb 0b09 d73b
000002b0: 39d1 7e3b 46eb 6c3c a21c 9bbb 7d32 f0bb
000002c0: d0d9 0bbc 4a94 0b3c 93ae 233c d7ad 933c
000002d0: 34b5 45bd 036d 2bbc c07f 47bd 8761 a2bd
000002e0: ce1b 10bc d066 a4bd e9c3 58bd 61a2 09bc
000002f0: d65b 72bd 9250 54be 5a4a d13c 0897 58be
00000300: 5d6a 53be 3bd2 a53b 9468 56be d42c 54be
00000310: acb1 f53c 7310 58be c7fa 31bc 676f 11bd
00000320: 8de9 20bb 083d 41ba 6d5b 8d3b 5f76 483c
00000330: 0948 5fbc c1b9 b0bc 2621 ad3a 83d7 513b
00000340: 72d9 303b 84c4 6e3b 421e 403c 566c 25bc
00000350: f99a 073c 70a4 c43b baa4 f63a 0380 5b3c
00000360: b16f 4abd f3dc e739 a9f6 45bd 5718 94bd
00000370: d3c8 84bc 4a96 a9bd ead4 3bbd de2f 4dbc
00000380: def8 66bd 636c 5dbe 8900 033d 2420 63be
00000390: 8dba 58be b7ce 643c 4cc2 5dbe bc21 6abe
000003a0: a0b9 f73c d230 68be 24fd ab3b da2c d2bc
000003b0: ecf7 5f3c 124b 89bb 6b19 323a ef49 363c
000003c0: 7925 18bb f318 11bd f7b4 2d3b 61e1 9f3b
000003d0: bb30 213c 800a 7b3c 5b3d 8e3c e98c c93a
000003e0: 8162 03bb c6f3 0e3c e379 523c e71a 933c
000003f0: 1d7f 6f3c 6cb9 743c 1139 6cba 3c6d 85bb
-0.019516608 -0.0011996063 -0.0053721312 -0.039842326 0.0062811836 -0.02516723 -0.0042112204 0.0072915964
-0.008007889 -0.19775593 0.031892344 -0.21241237 -0.20656227 0.004829399 -0.20367528 -0.19509546
0.023900129 -0.19699444 0.004184478 -0.021805948 0.002161043 0.007855331 0.010503103 0.006326436
-0.013566668 -0.038606837 -0.0068540596 0.0038033451 0.001982464 0.007668181 0.014134931 0.01053883
0.00094564154 0.01724558 0.013582675 -0.00095482933 -0.045002516 -0.00026256262 -0.03056687 -0.07230166
-0.0052591586 -0.062440917 -0.045053404 0.0006319564 -0.035942234 -0.21172987 0.02150618 -0.2216211
-0.20137392 0.0018551646 -0.18910035 -0.21153715 0.04319056 -0.2176962 -0.0026513746 -0.020343602
0.0010182863 -0.015637627 0.0035259917 0.0063182544 -0.00032585318 -0.03594201 0.020326948 0.0104789315
-0.0038432067 0.019871097 0.010417975 -0.005085616 0.004290638 0.017882152 9.0314636e-05 0.021429548
-0.042826608 -0.0124355275 -0.0523438 -0.07212874 -0.010962672 -0.08060999 -0.047295332 -0.013465757
-0.052381948 -0.20281391 0.025840983 -0.20702766 -0.19110583 0.0039143693 -0.19185872 -0.20158777
0.030442944 -0.2045932 0.0014358799 -0.027567703 0.011030347 -0.008787336 0.008536357 0.003178444
-0.0009753781 -0.025887625 0.009555567 0.0045797587 0.0027673424 0.011345793 -0.0015038293 -0.00019282971
9.264274e-05 0.005949586 4.563039e-05 0.011542817 -0.046890732 -0.0059529906 -0.052792657 -0.07606845
0.0020316415 -0.07574079 -0.045283172 0.00085221377 -0.051604047 -0.21897854 0.009760005 -0.20306289
-0.19596538 0.013224655 -0.1986644 -0.20622355 0.020555424 -0.21480027 7.069022e-05 -0.021077419
0.006850651 0.004477708 0.0044381567 0.015812015 -0.0046585826 -0.02002829 0.004604386 0.008691905
-0.0036134075 0.017288467 0.012017537 -0.0072001484 0.007852806 0.01315494 -0.003627251 0.012510316
-0.043633316 -0.00051193626 -0.05194556 -0.07141032 -0.01571362 -0.07938002 -0.047347166 -0.0053291726
-0.057964183 -0.20388506 0.027596137 -0.20687273 -0.1939726 0.00176408 -0.20092022 -0.20139827
0.025403103 -0.2086256 -0.0041577374 -0.031449594 0.007133153 -0.0076256143 0.011625587 -0.0031067713
-0.012972526 -0.034044243 -0.0039654244 0.0065623573 0.003888203 0.01446039 -0.004733638 -0.0073302374
-0.008535817 0.008519242 0.009990352 0.01802723 -0.048268512 -0.010463002 -0.048705816 -0.07928758
-0.008795692 -0.080274224 -0.05292121 -0.008400531 -0.059169613 -0.2073386 0.025548149 -0.21151364
-0.20646043 0.005060462 -0.20938331 -0.20720226 0.029991947 -0.21100025 -0.010863013 -0.035506632
-0.002455327 -0.000737146 0.0043138773 0.012235253 -0.013628014 -0.02157295 0.0013208732 0.0032019324
0.0026985076 0.003643305 0.011725964 -0.01009663 0.008276694 0.006001048 0.0018817403 0.01339722
-0.049422923 0.00044224373 -0.048330937 -0.07231205 -0.016209042 -0.082806185 -0.045857348 -0.012523619
-0.056389682 -0.21623378 0.031982932 -0.2218023 -0.21164913 0.0139653 -0.2165615 -0.22864431
0.03023988 -0.22674873 0.0052486826 -0.025656153 0.013669949 -0.0041898573 0.00067939487 0.011126026
-0.0023215695 -0.035424184 0.0026505569 0.004879162 0.009838278 0.015322328 0.017363241 0.0015377078
-0.0020047727 0.008725112 0.012846443 0.017957164 0.0146177085 0.014936786 -0.0009011189 -0.0040718596

model.0.bias f4 [64]
00000000: 6bf8 c03f 9e8d bd3f c1c7 aa3f 2578 b03f
00000010: 3f75 ab3f 495a b83f 35ef c93f 1783 b93f
00000020: 3e99 b53f 8913 b23f 9467 c63f a1b5 b83f
00000030: d56d bd3f 2b06 943f ddd5 c03f 5d53 b13f
00000040: 550f c03f 61f6 bd3f 4965 b73f 98e1 c93f
00000050: 8cdc ae3f 8aa5 bf3f 65bb be3f ca36 c63f
00000060: 9c6e c93f 8fcf b13f 2322 ae3f e671 b93f
00000070: e361 bc3f f1cf ad3f 1d0f a53f b92b bc3f
00000080: 72fc b83f 22db b23f bfcd b53f b9f0 a73f
00000090: 445a b03f 425c bd3f c7b7 bb3f 0134 b13f
000000a0: bb36 c13f ad8d bd3f 0196 c93f a96d a93f
000000b0: 1918 b93f 3ba9 a33f 7684 c93f 09c2 b93f
000000c0: d7ee c23f 14fe ad3f 9a10 a93f eb68 bd3f
000000d0: b513 b03f eb11 bd3f e778 9f3f 2ad7 b33f
000000e0: 109f c73f 7523 c13f 55ba b03f c777 b43f
000000f0: 3c84 a63f 51f2 bc3f fa7c b03f 5558 ac3f
1.5075811 1.4808843 1.334221 1.3786665 1.3395156 1.4402553 1.5776125 1.449313
1.4187391 1.3912212 1.550036 1.4430429 1.4799143 1.1564382 1.5065266 1.3853565
1.5004679 1.4840814 1.4327785 1.5771971 1.3661056 1.4972394 1.4900938 1.548547
1.573688 1.3891467 1.3604168 1.4487884 1.4717373 1.3579084 1.2895237 1.4700843
1.445204 1.3973124 1.4203414 1.3120338 1.3777547 1.479378 1.4665459 1.3843995
1.5094827 1.4808861 1.5748903 1.3236591 1.4460479 1.278602 1.5743549 1.451234
1.5229138 1.3593163 1.3208191 1.4797643 1.3756014 1.4771093 1.2458771 1.4050038
1.5595417 1.5088946 1.3806864 1.4099053 1.3009105 1.4761449 1.378814 1.3464457

model.4.weight f4 [64, 64]
00000000: 5b0f 893b 3990 513a 2254 53bb a38e bc3a
00000010: 47d3 443a 2767 b5ba 45eb c23a 645e 9dbb
00000020: d8d0 9a3b 00b0 dcb9 b243 dbba 822e 26ba
00000030: 50be afb9 5355 ffba 76b5 18bb 9139 0eba
00000040: 21f3 b93b 574f 6dbb 3598 20bb 960e 30ba
00000050: 5850 24bb 3cac 373b 006f 9f3a c41d 9039
00000060: a1db 523a 0447 163b d9b0 faba c0ca 7fb9
00000070: 971d 1b3a 68a9 23b9 99d3 25bb 3b89 d93a
00000080: a6f0 8bba e36b 6fb9 60a8 dfba 89c6 8eba
00000090: 3942 a0ba 1d95 8d3b a25e 4139 53ef 99ba
000000a0: 4f28 2a3a 7253 263b a54c 043b e2ec 06bb
000000b0: e057 f439 3b86 33b8 b6ed d1b9 de36 0b3a
000000c0: 5691 30bb 1aba 103b 3bd2 6c39 5d9e fe3a
000000d0: 3a75 64ba 3c90 4aba 6c5d 2abb ed4b db3a
000000e0: 5240 643b 45f8 46bb a4ea 10bb 8db3 08bb
000000f0: f0a1 1bbb de14 10ba f0fc f839 45cd 053b
00000100: 0515 b437 c870 ccbb d128 b2bb bb4c 723a
00000110: 0ce3 4ebb eaf1 f5ba 23d5 bab9 6c7c 24bb
00000120: 926f f53a c210 88b8 d991 30ba d3bc 4dbb
00000130: 0a67 083b ea50 823b 8bea a3b9 1c3b e8ba
00000140: b93a efb9 cd3a 3cbb 33a9 81bb 7d6a 5eba
00000150: b2fc 583a f1b1 d0ba 6537 9aba 2531 353b
00000160: a365 a33b 1430 303b 6a70 59bb 3819 eb3a
00000170: 6081 b53b f964 eb3a 8fd8 2839 1f63 353b
00000180: 9703 b9b9 1198 173b 06fe e4ba 1fb8 b039
00000190: e691 feba 212e ebb7 657b 7c3b be5a 4e3b
000001a0: c666 99bb 8a70 8338 efb9 e4bb d580 80b9
000001b0: 73db e73a 0d14 19bb 92fb 073a d532 3eb6
000001c0: 78f8 173b 22e6 c1ba 17e4 05bb 22b3 453a
000001d0: d220 c23b 057e 423a fd05 673a e37c 513b
000001e0: 6a02 9c3a e4e5 8f3b f150 fb3a 9e1f 6b39
000001f0: f1df 64bb 3500 a1b9 1f67 21ba 18ab 3ebb
00000200: f912 5dbb f7ab 1938 10e6 093b 0f93 933b
00000210: 8e36 b5bb 57c3 acba 7b4c b4ba 729b 0abb
00000220: 79ef 28ba 4f86 d3b9 0b52 75bb 094c 2739
00000230: 0482 d3ba 141d a7bb 1e7e b73a 244a 373b
00000240: db76 133b d04f 18bb e41f 42bb 6156 7c3a
00000250: 179d 263a 5ca5 913b fb8f 1e3b a0e9 89ba
00000260: 34f6 473a 49b1 e83a bf12 86bb aa5d 63bb
00000270: 540e 403b 737f 543b ea1f 853b a7e4 ec38
00000280: 649e 0a3b 5750 d0ba f7c4 91ba de42 5dba
00000290: a9b5 ecba bd64 173b 323b 3cb8 00c9 373a
000002a0: f040 59ba 3e9d 39bb 7b3c 3a3b de3f 10bb
000002b0: deea 35bb 54a1 923a 144a 713b f1b3 1e3b
000002c0: 41bf 67b9 2c7d e23a 2ac6 44bb f706 16bb
000002d0: b777 77bb 34cb 723a fe1a 38ba cb53 09bb
000002e0: 97e2 8439 39a0 6db9 77af 303a a6ce 97bb
000002f0: 1f89 8e3a a5c6 daba 96ef 9cba 622e b0ba
00000300: f5be 75bb 5038 ffba 828c 0dbc ebfd 96bb
00000310: 2ff3 0abc 9ebf e0b9 6de0 5dbb 83a7 d138
00000320: ee85 09bc a0b0 1abb 6117 babb f993 b0bb
00000330: dbe8 1d3a f42f ebba 975b 62bb bca1 a0bb
00000340: 2738 4dbb bb78 04ba 59eb 4fba e908 ddba
00000350: f599 aabb a995 8fbb 85d8 49bb fa64 78bb
00000360: a064 4db9 6608 93bb 6ecc 7439 a547 aabb
00000370: 5289 c9ba c766 8dbb db2f 09bb 2b48 cfbb
00000380: 3d86 ddb9 45f4 08bc 00d4 f3bb baac c3bb
00000390: 8a79 cabb a83c 99bb 7d7e 11bb 41ef 04bc
000003a0: 6a5e 9dbb fa2f a5bb aa9c 4bba 375f 2ebb
000003b0: 0d9e 63bb 08b9 dbba 0a4f e43a b5da 2cbb
000003c0: 5a06 9abb c775 91bb 15b9 a53a a49e 64bb
000003d0: 1605 bf39 45dd acbb 0143 8e3a ef59 64bb
000003e0: 0aa4 11bb 05da e2bb ae17 02bc 77df 02bc
000003f0: 52e1 f7bb b8e1 9aba 04e8 e0bb 98c2 9fbb
0.0041827387 0.0007994208 -0.0032246192 0.0014385771 0.00075082894 -0.0013839946 0.0014871141 -0.004802512
0.004724603 -0.000420928 -0.0016728549 -0.00063393277 -0.00033520395 -0.0019480385 -0.0023301519 -0.0005425448
0.005674735 -0.003621062 -0.0024504785 -0.00067160407 -0.0025072303 0.0028026244 0.0012163818 0.00027487997
0.00080435915 0.0022930512 -0.0019126191 -0.00024394225 0.000591719 -0.00015608 -0.0025303124 0.0016596684
-0.0010676577 -0.00022833007 -0.001706373 -0.0010892908 -0.0012226767 0.004320754 0.00018441168 -0.0011744298
0.0006490992 0.0025379327 0.0020187285 -0.002058797 0.0004660478 -4.2801938e-05 -0.00040040695 0.0005310605
-0.0026942096 0.0022083581 0.00022585031 0.0019425858 -0.0008714978 -0.0007727181 -0.0025995625 0.0016731002
0.0034828377 -0.0030360383 -0.0022112513 -0.0020858974 -0.0023747645 -0.00054962735 0.000474907 0.002041654
2.146746e-05 -0.0062390305 -0.0054369946 0.0009243001 -0.0031568436 -0.0018764113 -0.00035635484 -0.0025098575
0.0018725267 -6.488107e-05 -0.00067356 -0.0031393066 0.002081337 0.003976931 -0.0003126453 -0.0017717811
-0.00045629384 -0.0028721571 -0.0039569377 -0.0008484496 0.00082774006 -0.0015922171 -0.0011765776 0.00276477
0.0049864813 0.0026884126 -0.0033178576 0.0017936593 0.0055391043 0.0017959169 0.00016102403 0.002767749
-0.00035288624 0.002313141 -0.0017470724 0.00033706517 -0.0019422143 -2.8035663e-05 0.0038525697 0.0031487192
-0.004681441 6.267529e-05 -0.006980173 -0.0002451005 0.0017689302 -0.0023357898 0.0005187328 -2.8341794e-06
0.002318887 -0.0014793316 -0.0020430142 0.00075416465 0.0059243226 0.0007419291 0.0008812843 0.0031965307
0.0011902575 0.004391419 0.0019173903 0.00022423125 -0.0034923519 -0.00030708467 -0.0006157029 -0.002909368
-0.0033733232 3.6638197e-05 0.002104167 0.0045036147 -0.005530185 -0.0013180774 -0.0013755703 -0.0021149782
-0.00064443756 -0.00040345124 -0.0037432935 0.00015954686 -0.001613677 -0.005099902 0.0013999378 0.0027967775
0.0022501263 -0.0023240931 -0.002962106 0.00096259086 0.00063558057 0.004444761 0.0024194706 -0.0010521896
0.00076279347 0.001775303 -0.00409159 -0.003469328 0.0029305415 0.0032424598 0.0040626423 0.00011295947
0.0021151537 -0.0015893084 -0.0011121322 -0.0008440445 -0.001805951 0.0023100816 -4.4877823e-05 0.00070108473
-0.00082875695 -0.0028322483 0.0028417397 -0.0022010724 -0.00277584 0.0011186996 0.0036817836 0.002421614
-0.00022101124 0.0017279736 -0.0030025342 -0.0022892335 -0.0037760565 0.0009261847 -0.0007023065 -0.0020954486
0.00025345825 -0.00022661769 0.00067400135 -0.0046327887 0.0010874606 -0.0016691281 -0.0011973258 -0.0013441558
-0.0037497852 -0.0019471738 -0.008639457 -0.004607906 -0.008480831 -0.00042867375 -0.0033855692 9.997098e-05
-0.008393748 -0.0023603812 -0.0056790565 -0.0053887335 0.0006023773 -0.0017943368 -0.0034539455 -0.0049020927
-0.0031313987 -0.00050533906 -0.0007931493 -0.0016863617 -0.0052063414 -0.0043818546 -0.0030799222 -0.0037901984
-0.00019587809 -0.004487085 0.0002334581 -0.005196529 -0.0015376008 -0.0043152305 -0.0020933065 -0.0063257418
-0.0004225242 -0.00835902 -0.007441044 -0.0059715183 -0.0061790394 -0.0046764202 -0.0022200637 -0.008113683
-0.004802515 -0.0050411196 -0.000776718 -0.0026607045 -0.0034731657 -0.0016763518 0.0017418575 -0.0026375477
-0.004700464 -0.004439089 0.001264366 -0.0034884596 0.00036434148 -0.005275401 0.0010853709 -0.0034843644
-0.002222302 -0.0069229626 -0.007940216 -0.0079878485 -0.007564702 -0.0011816537 -0.006863596 -0.0048754923

model.4.bias f4 [64]
00000000: a28d d2b9 4874 af38 0000 0000 7f8c e0b9
00000010: 05fe f1b9 a28d d2b9 a28d d2b9 3f98 dab9
00000020: a38d d2b9 a28d d2b9 4717 9839 d7e5 8139
00000030: c57d 093e 5e1e 8fbb 0000 0000 c836 2a3d
00000040: a323 c3bb 5d21 023e 0000 0000 73e1 dcbb
00000050: a28d d2b9 0000 0000 0f1d 4939 c4f3 023e
00000060: a28d d2b9 d3e4 c93d 0000 0000 a18d d2b9
00000070: 8510 0d3e 060a 9a39 2149 d3b9 88ef b7b7
00000080: 0000 0000 a28d d2b9 a359 c539 9d8c 0ebc
00000090: 2a9d e73d 9a50 ac3a 0000 0000 0000 0000
000000a0: 92cd 4a39 0000 0000 a18d d2b9 f76f ce3c
000000b0: 3b8f c03d a18d d2b9 0000 0000 0000 0000
000000c0: ce94 ce3d 0000 0000 9a57 69ba 0000 0000
000000d0: bc57 e43d a38d d2b9 51da aaba 7bf7 6abb
000000e0: a28d d2b9 e38a 58bb 67a6 08bb 2249 d3b9
000000f0: 93ee 1bba 7b74 c93c a28d d2b9 72c9 e0b9
-0.00040159846 8.366309e-05 0.0 -0.00042829287 -0.0004615636 -0.00040159846 -0.00040159846 -0.00041693632
-0.0004015985 -0.00040159846 0.00029009042 0.0002477604 0.13426884 -0.0043676337 0.0 0.04155615
-0.005955176 0.1270804 0.0 -0.006740743 -0.00040159846 0.0 0.00019179679 0.12788302
-0.00040159846 0.09858098 0.0 -0.00040159843 0.13775833 0.00029380637 -0.0004029954 -2.192684e-05
0.0 -0.00040159846 0.00037641553 -0.008700517 0.113092735 0.001314658 0.0 0.0
0.00019340802 0.0 -0.00040159843 0.025199873 0.09402319 -0.00040159843 0.0 0.0
0.10086976 0.0 -0.0008901298 0.0 0.111495465 -0.0004015985 -0.0013035034 -0.0035853076
-0.00040159846 -0.0033041767 -0.0020851137 -0.00040299544 -0.0005948331 0.024591675 -0.00040159846 -0.00042874698

model.6.weight f4 [64, 64]
00000000: 6b2c f639 df94 773a 983e 9a3b 178e 1739
00000010: ba5b 42ba 6bbe a8bb 9ce4 9737 2ad3 ff3a
00000020: fcfe ae3b 41a4 8cb8 84d3 fc3a d230 873a
00000030: b7d4 2e3b b05d 8f3b f286 153a 87ba 8a3b
00000040: 2807 8137 0d33 b13b 7e1f 17ba f1a6 8f3b
00000050: 73ae 243a fd10 373b 6e55 053b f191 ae3b
00000060: 044d 3bbb 10c4 9b3b 028f b3bb 344b 7d39
00000070: 3b95 9c3b 38b3 ca3a 8ec5 14bb bc57 803b
00000080: b238 c8ba 6251 98ba 229a c23a 23b0 83ba
00000090: c8ea c83b 77cc 8b3b af13 03bb 2680 923b
000000a0: 96de 813a 4477 453a 260e 903a 3d5e b83b
000000b0: ad2a 3e3b 9348 033a 14d2 ce39 2bdc d7bb
000000c0: 9e4f 943b 9231 27ba 245d dcba 00e0 d63a
000000d0: 5ec6 8d3b 297b beba 1302 2c3b c8ce 7fbb
000000e0: 13d5 0f38 122d 92bb a546 2abb 5a55 1fbb
000000f0: 3acd 04bb 94f4 b13b d3c4 90bb 7187 823a
00000100: 15a4 36b6 fb7a f3ba 6994 aa3a ed68 8cbb
00000110: 4e5b d3bb 0c72 6abb 42a9 1039 7c22 cd3a
00000120: b987 8bba c3b1 a1ba 1292 4ebb c6a8 dcba
00000130: a936 0dbc 2d95 ebbb 5d43 f43a a55e f4bb
00000140: 9867 ac3a 1738 edbb 946b 8a3a 3fc2 f2bb
00000150: 96e2 933b 0553 dc39 4a4f 64bb a4ad f0bb
00000160: e9d1 1a3b 3a88 f0bb d22d 9739 4bdf 7fbb
00000170: c3cd eebb c381 33bb bd37 323b 1302 d239
00000180: e09b 15bb 4fbc dbb9 6498 29bb 6a86 7eba
00000190: a854 16bc 7f88 ecbb f30c a63a 0955 cb3a
000001a0: 252e e7ba 124f e63a 7c51 253b a63b eebb
000001b0: 59da f5bb 71ac 83ba 446b 91bb fe57 54bb
000001c0: 8cf1 07bc a7a7 073a 9523 b63b c4b9 9a39
000001d0: 41f2 f3bb 423e a33a 273d fb3b f30d 98bb
000001e0: 5cf6 0f3b 0a1a 8f3b fb15 a539 6800 cf39
000001f0: 68c4 083a 58f2 05bc 6302 d83a b8c1 733a
00000200: 94c2 593b f810 18ba 7019 05ba fee2 d3ba
00000210: cead f6ba e22c 39bb 3007 01bb dbc7 423a
00000220: 426a 023a 4e4f 5eba 7353 b0ba 1db9 59ba
00000230: 2793 70bb 30fa 64bb 9b4f 7cba c878 35bb
00000240: 3dce 1f3b c0f2 a8bb 8a8e 7eba 6251 69bb
00000250: 3733 db3a 1e71 bb39 d82e d9ba acca 6ebb
00000260: 5096 813b 300f 3cbb bd7c e3ba 9daa 82ba
00000270: 087c 86bb 4fe5 98ba b0f7 c33a 5ef0 d93a
00000280: 6f60 db3a 4939 cf3a 813d 87ba 7eae 2eba
00000290: 2234 e9ba 3bea 62bb f856 04ba f917 753b
000002a0: 6373 42ba 6009 8aba d1d4 8c3b cfdd 9dbb
000002b0: 0120 96bb 6b6a cdba 5e7a 9bba 5f59 0b3b
000002c0: af7b 80bb deae b8bb 4e27 1339 4e34 63ba
000002d0: aa3e 74bb 5499 b8ba bddc c8ba bc7f 503b
000002e0: dfef 393a c773 c0bb 09a3 a0bb 0895 8639
000002f0: e248 923a c098 73bb 3cbb a7ba 710a ad3a
00000300: 058f 3ebb 0775 583c fbac 683b a743 cd3b
00000310: aa2c 983b 095e db39 1172 f2ba 0cc5 873b
00000320: 8495 bfba f767 ddba 884c bd3c 2e7e 683c
00000330: 9394 773d ad45 663d 5654 a339 981c 753d
00000340: 1da2 ca3b 959a 793d 4194 24bb a9cf 6b3d
00000350: 9275 8e3b aa08 32bb d81e e03c 342b 763d
00000360: 0640 6f3b d770 783d 7d4e 8b3b 6955 803b
00000370: 0a34 7b3d 046f b23c e3eb c2ba 860b 4d3b
00000380: 891c 1b3b 3222 023b 5332 a53c 6632 393c
00000390: 8478 753d c88e 653d 3957 9c3b 6d25 97b9
000003a0: de27 603c e422 1bba 090b b7ba 74b1 703d
000003b0: a590 793d 911b b43a e40b 0539 20c0 983b
000003c0: 4de1 763d cd8a af3b a430 c83a a956 37ba
000003d0: 306d 783d d3c1 0cbb 7283 8fbb 724b c03b
000003e0: 2a81 76bb e7c7 60bb bf4e 6b3b 98fd 273a
000003f0: 1734 b53a 4f94 723d 0861 573a f2a8 14bb
0.0004695387 0.0009444486 0.004707169 0.00014453415 -0.0007414181 -0.0051496527 1.8107057e-05 0.0019517888
0.005340455 -6.706315e-05 0.0019289111 0.0010314232 0.002667708 0.004375182 0.00057040073 0.0042336616
1.538133e-05 0.005407697 -0.00057648856 0.0043839146 0.00062820985 0.002793371 0.002034511 0.005327456
-0.002857984 0.004753597 -0.0054796943 0.00024155976 0.004778532 0.0015464788 -0.002270076 0.0039167088
-0.0015275686 -0.0011620934 0.001484696 -0.0010047 0.0061315037 0.0042663175 -0.0020000746 0.004470843
0.0009908255 0.00075327256 0.0010990545 0.0056264685 0.0029017136 0.0005008068 0.00039447902 -0.0065875254
0.0045260927 -0.0006377931 -0.0016812426 0.0016393661 0.0043266257 -0.0014532554 0.0026246354 -0.0039033163
3.4292298e-05 -0.004460939 -0.0025982049 -0.0024312348 -0.0020263926 0.0054307673 -0.0044179945 0.0009958578
-2.7215622e-06 -0.001857608 0.00130142 -0.004284969 -0.0064500934 -0.0035773544 0.00013795964 0.0015650536
-0.0010645307 -0.0012336302 -0.003152017 -0.0016834966 -0.008618989 -0.007189414 0.0018635798 -0.0074575716
0.0013153432 -0.0072393524 0.0010560625 -0.00740841 0.004513095 0.00042023524 -0.00348373 -0.0073449183
0.0023623651 -0.007340458 0.00028835103 -0.0039043005 -0.0072877123 -0.0027390576 0.0027193867 0.00040055867
-0.0022828504 -0.00041911236 -0.0025878185 -0.00097093603 -0.009175457 -0.00721842 0.0012668654 0.0015513013
-0.0017637654 0.0017571172 0.002522557 -0.0072702942 -0.0075028357 -0.0010045898 -0.004437836 -0.003240108
-0.008297335 0.00051748235 0.005558441 0.00029511575 -0.0074446504 0.0012454467 0.007667202 -0.0046403348
0.002196691 0.004367118 0.0003148763 0.0003948242 0.0005217255 -0.008175455 0.0016480203 0.00092985807
0.003322755 -0.00058008684 -0.0005077338 -0.0016165671 -0.0018820108 -0.0028255512 -0.0019688122 0.00074302935
0.000497494 -0.0008480445 -0.0013452604 -0.0008305477 -0.0036708803 -0.0034939162 -0.0009624899 -0.00276904
0.0024384402 -0.005155891 -0.0009710571 -0.0035601486 0.0016723637 0.00035751698 -0.0016569747 -0.003643672
0.003954686 -0.0028695576 -0.00173559 -0.000996906 -0.004104141 -0.0011665019 0.0014951136 0.0016627421
0.0016737113 0.0015809919 -0.0010318012 -0.00066635746 -0.0017792026 -0.0034624476 -0.000504836 0.0037398322
-0.00074177067 -0.0010531358 0.0042978306 -0.0048177014 -0.004581452 -0.0015671974 -0.001186203 0.0021262986
-0.0039209942 -0.00563608 0.00014033655 -0.0008667157 -0.0037268796 -0.0014083781 -0.0015324574 0.0031814417
0.00070929335 -0.0058731767 -0.004902248 0.0002566951 0.0011160637 -0.0037169904 -0.0012796889 0.0013201964
-0.0029076946 0.013211495 0.0035503495 0.0062641683 0.0046439962 0.00041840997 -0.0018497129 0.004143363
-0.0014616703 -0.0016891946 0.023107782 0.01419024 0.060444426 0.05621879 0.00031152618 0.059841722
0.006183876 0.060938437 -0.002511278 0.057571087 0.0043475116 -0.0027165809 0.027358457 0.060099795
0.0036506667 0.060654487 0.0042513 0.0039164317 0.061328925 0.021781452 -0.0014871325 0.0031287386
0.0023668131 0.0019856808 0.020165598 0.01130352 0.059929386 0.05604437 0.00477114 -0.0002882885
0.01368138 -0.000591798 -0.0013965081 0.058762982 0.06092896 0.0013741126 0.00012688298 0.004661575
0.060273457 0.0053571225 0.0015273285 -0.00069938094 0.060651004 -0.0021477833 -0.004379683 0.005868369
-0.003761361 -0.0034298839 0.003590509 0.0006408333 0.0013824728 0.05922347 0.0008216058 -0.0022683707

model.6.bias f4 [64]
00000000: aee5 503b b8f0 98bb 33b6 27bb e190 0d3d
00000010: 7fd0 0bbb 5ff8 e03a 9d91 113d 3854 493a
00000020: b5cc cebc cb87 0c3d 92cd 003d eee3 8a3b
00000030: fa37 3c3c 3fc1 2ebb c575 f0bc 8a14 f3bc
00000040: 25cd fb38 bb47 9a3b c171 193b c7d9 c2bc
00000050: e741 1f3d 7ba5 113d 7d10 fe3c 5a3b a73a
00000060: 39c7 16bd 819c d2bc e85a 543b e50a 243b
00000070: 7514 c0bb 8aeb 2e3d a267 c1ba cf32 723b
00000080: 4bc1 0fb8 2136 60ba e099 093d d1fd e4bc
00000090: 81a4 45bb 8c43 ca3a 53f5 e1bc fec7 e23c
000000a0: f213 99ba 6c4d 393a 06cf 3b3b 30ce eaba
000000b0: a5bb 18bd 064f a3bb c98f ee3c 3923 133d
000000c0: 708e 823d 9e3d fbbc ba18 fb3b 9ce4 6fba
000000d0: 254b 103c a335 443d 33fa 5ebb 96b1 41bb
000000e0: 692a 28ba 3898 abba b2c0 c7bc 9f2c 603b
000000f0: ed36 8c3a 5a7f 1c3d 9b9a 17bd cd11 e33c
0.003187518 -0.004667368 -0.0025590777 0.034561995 -0.002133399 0.0017163864 0.03553926 0.0007680091
-0.025244096 0.03430919 0.031446047 0.004238597 0.011487955 -0.0026665477 -0.029353032 -0.02967288
0.00012006824 0.004708258 0.002341375 -0.023785485 0.03888121 0.035558205 0.031013722 0.0012758777
-0.036811087 -0.025709393 0.0032402817 0.0025030908 -0.0058618137 0.042705096 -0.0014755616 0.0036956554
-3.4273875e-05 -0.0008552988 0.033594012 -0.02795306 -0.0030157866 0.0015431507 -0.0275828 0.027683254
-0.0011678918 0.00070687267 0.002865733 -0.0017914232 -0.037288327 -0.0049837856 0.029121296 0.035922263
0.06374824 -0.03066903 0.0076628597 -0.0009151192 0.008806978 0.047902714 -0.0034023642 -0.0029555312
-0.0006415011 -0.0013091629 -0.024383876 0.0034206284 0.0010697522 0.03820739 -0.037012678 0.027718449
