CSSRS/RSIMDCL/checkpoint/pore2background_7_3rsim/latest_net_F3.pth (torch, 44759 bytes, 6 tensors)

model.0.weight f4 [64, 4, 3, 3]
00000000: 07de b6bd 01b2 10bd b07b c6bd 58fa a0bd
00000010: 1174 43bd bb86 babd 017e b2bd 918e f9bc
00000020: 88cb cdbd 138f 30be a5cd 183b c191 39be
00000030: c990 5dbe 7fca 893a 73b0 60be 4253 37be
00000040: f5f1 5f3c da45 3abe a2ca a33c c494 b3bb
00000050: b36a 493d 1280 15ba 1d79 80bc bb76 8b3c
00000060: 11be 9f3c b0fd f4bb f3aa 0c3d f692 08bd
00000070: 9b95 2cbd 9965 19bd 49eb 49bd 6e7f 49bd
00000080: 37cd 66bd 3c1e 0abd bc47 2fbd aed2 15bd
00000090: 1e11 b5bd dede f3bc 311a bbbd 89f0 a2bd
000000a0: d66e 67bd 0b57 abbd 65aa b9bd 1090 cdbc
000000b0: 1c6e b2bd bd6b 28be 223e 85bb 5de0 33be
000000c0: 622c 51be ca3e 00bc 4d06 5cbe 9c4d 2abe
000000d0: 4979 403a 21b1 3ebe 1f12 d93c c57e 263c
000000e0: 7c53 183d da36 f93b d136 1a3b 8757 863c
000000f0: 334f df3c fc68 e63b 8534 143d e03e 11bd
00000100: 2549 56bd ef6b 16bd f831 70bd 83e4 20bd
00000110: 9d9d 62bd d364 90bc 845e 29bd 3303 07bd
00000120: d365 d3bd 9686 09bd 5558 c8bd e626 b5bd
00000130: 7f75 32bd a46d a9bd acb8 adbd cb71 0cbd
00000140: 0a57 cfbd d9bd 36be 8ec8 c93b d022 36be
00000150: e49a 60be 7123 903b 1ba7 6abe e066 3cbe
00000160: b406 bf38 bcc4 41be fa58 023d e998 29bb
00000170: 0611 143d c405 4837 d2cd 523b 6f69 6e3c
00000180: 1bba 813c e389 1c3a c713 953c 7f96 26bd
00000190: edc1 1fbd 6b34 debc 3624 33bd e7c8 b8bc
000001a0: cc42 57bd 650f dcbc 2e23 26bd b580 10bd
000001b0: c15a 48bd e61c 163b 6547 60bd dfff 75bd
000001c0: fac7 9fbb 14a4 83bd 10e4 84bd 0580 953b
000001d0: c6e9 52bd fac6 57be 8c15 0bbb adaa 49be
000001e0: 77c7 48be 09c6 11bb afa7 4dbe 69a5 58be
000001f0: aa36 533c 4029 5dbe 60a4 823c 280d b93b
00000200: 1865 9d3c 7b72 cbba d960 543b 884e 083b
00000210: ee54 453c 2902 21bc 6341 003d 21ec 0fbd
00000220: abcf fdbc af16 22bd b7c7 30bd 4669 c1bc
00000230: b4c1 1dbd 7548 23bd 76bc 05bd dba2 48bd
00000240: 4def c9bd b113 3bbd dc0b ddbd e3a5 b6bd
00000250: 9631 4bbd aa19 cabd e316 c9bd 7781 35bd
00000260: 1ac6 d9bd 8c81 34be bc53 973b aa6c 39be
00000270: 782e 6abe 07a4 c83b ef45 72be f809 36be
00000280: a840 fc3b 8af3 3fbe 1de1 393d a8d5 8b3b
00000290: 99ed 1c3c 676d e23c 659a acbc cfe1 f83c
000002a0: 37d5 293d 7b04 f13a d3e7 ae3c 9e42 e1bc
000002b0: 7922 00bd cfd1 0dbd 08b4 4bbd ad9f 16bd
000002c0: c3e6 51bd 8017 1fbd 2d1b fabc 0924 1ebd
000002d0: 4af1 92bd 305d 8cbc d533 acbd 1b64 a7bd
000002e0: b62b 0dbd 4549 b0bd 247e 90bd 1190 bfbc
000002f0: 710a 9cbd 8458 45be 3aba 993b c16b 54be
00000300: e4bc 5dbe 9bc2 03bc fa29 67be fae1 4dbe
00000310: 4b96 213c 99d1 53be 971e 9c3c 5baa 273a
00000320: 0e3c 0e3d c848 cb3a 3cb9 dc3a 5b0c bd3c
00000330: 09ff e03c f419 913b d0af 093d 5f06 1ebd
00000340: 31d2 d9bc 751d 31bd c915 3dbd 36d1 1abd
00000350: 8db9 45bd 9b90 3bbd d351 fabc 3e14 38bd
00000360: 4d67 c7bd 5387 43bd 931a d5bd 8cb2 bdbd
00000370: 8bf4 69bd 739d c8bd 27f0 c5bd 2b71 3fbd
00000380: f78e d4bd 34d6 3bbe 0175 29ba fcd5 41be
00000390: 8486 63be 5c9b 073b efa5 68be 368b 3ebe
000003a0: b936 bd3b 9cd5 46be 7d0a c93c ddb6 ce3b
000003b0: 3d82 f83c 0b61 183c 3498 9bbb 5821 7a3c
000003c0: 7483 ad3c 3155 bf3a 6e9f e63c 54aa e6bc
000003d0: 0327 23bd e3c0 f6bc 8d92 1bbd 4a65 ffbc
000003e0: 2bee 2dbd aa3c e3bc 503b 20bd 9798 f3bc
000003f0: c9fe 10bd d093 5ebc 9912 12bd 4537 1fbd
-0.08929067 -0.035326008 -0.0969156 -0.07860249 -0.04771811 -0.09107729 -0.087154396 -0.030463489
-0.10048586 -0.17242078 0.0023315933 -0.18122007 -0.21637262 0.0010512619 -0.2194231 -0.17902854
0.013668527 -0.18190709 0.019994084 -0.0054803807 0.049174022 -0.0005702983 -0.015682751 0.017024389
0.01949981 -0.007476531 0.034342717 -0.033343278 -0.042134862 -0.037450407 -0.04929665 -0.049193792
-0.056348052 -0.03372024 -0.04279302 -0.036577873 -0.088411555 -0.029769357 -0.09135855 -0.07956035
-0.056502186 -0.083662115 -0.09065703 -0.025093108 -0.08712408 -0.16447349 -0.0040662447 -0.17566057
-0.20427087 -0.00782747 -0.21486779 -0.16631168 0.00073422916 -0.18622257 0.026497899 0.01016206
0.037188992 0.007605416 0.0023531208 0.016399158 0.027259445 0.007031558 0.0361829 -0.035460353
-0.05231585 -0.036724027 -0.058641404 -0.039280426 -0.055326093 -0.017626202 -0.041349903 -0.032962035
-0.10322156 -0.033575617 -0.09782473 -0.0884531 -0.043569084 -0.082728654 -0.08482489 -0.03428821
-0.10124023 -0.17845859 0.006157941 -0.17786717 -0.21934086 0.004398756 -0.22915308 -0.18398619
9.108838e-05 -0.18922704 0.031823136 -0.0025878495 0.036149047 1.1922271e-05 0.0032166135 0.0145515045
0.015835812 0.00059714745 0.018197907 -0.040670868 -0.0390033 -0.027124604 -0.043735705 -0.022556735
-0.052553937 -0.02686281 -0.040560894 -0.035278995 -0.048914675 0.0022905408 -0.054755587 -0.06005847
-0.004876134 -0.0642778 -0.06488812 0.0045623803 -0.051492475 -0.21071997 -0.002122256 -0.19694014
-0.1960734 -0.0022243282 -0.20083497 -0.21156849 0.012891451 -0.21597767 0.01594752 0.0056473203
0.019213244 -0.0015521789 0.0032406359 0.0020798761 0.012044175 -0.009827175 0.031312358 -0.0351373
-0.030982813 -0.039572414 -0.043159213 -0.023609769 -0.038514808 -0.039864022 -0.032650433 -0.048983436
-0.09860096 -0.045673076 -0.107932776 -0.08918359 -0.049607836 -0.09868176 -0.098188184 -0.04431292
-0.10633488 -0.17627543 0.004618136 -0.18107858 -0.22869289 0.006123069 -0.2365949 -0.1777724
0.0076981373 -0.18745247 0.0453807 0.004267413 0.009578132 0.027640058 -0.021069715 0.030381111
0.041463103 0.0018388176 0.021350777 -0.027497586 -0.031282876 -0.034623917 -0.049732238 -0.036773372
-0.051245462 -0.03884077 -0.030530537 -0.038608585 -0.071749285 -0.017134279 -0.08408324 -0.081733905
-0.034465514 -0.08607725 -0.070553094 -0.023384126 -0.07619179 -0.19272047 0.0046913894 -0.2074423
-0.21654087 -0.008042003 -0.22574607 -0.20105734 0.009862493 -0.20685424 0.019057555 0.00063959294
0.03472524 0.0015509361 0.0016839872 0.02307718 0.02746536 0.0044281427 0.033614933 -0.038580295
-0.026589485 -0.043240983 -0.046163354 -0.037797175 -0.04827266 -0.045792203 -0.030556595 -0.04494118
-0.097365 -0.047736477 -0.10405459 -0.09262571 -0.05711798 -0.09795656 -0.09664946 -0.046738785
-0.10378831 -0.18343431 -0.00064642733 -0.18929285 -0.22219282 0.0020691967 -0.22719549 -0.18607792
0.0057743457 -0.19417423 0.024541134 0.00630842 0.03033554 0.009300481 -0.0047483686 0.015266739
0.021180846 0.0014597533 0.028152194 -0.02815739 -0.039832126 -0.030121272 -0.03798156 -0.031176228
-0.042463463 -0.027738888 -0.039119065 -0.029735846 -0.035399232 -0.013585046 -0.035662267 -0.03887107

model.0.bias f4 [64]
00000000: f901 873f 5834 863f 94b9 893f 2026 833f
00000010: 9df0 863f ffaf 8f3f c19a 883f d3b8 873f
00000020: 515c 8d3f f83f 883f ad0d 8c3f ac77 8a3f
00000030: 805c 813f d207 893f 429c 853f 95e7 903f
00000040: 6089 8c3f c2f5 8f3f e370 893f d477 8a3f
00000050: 75ad 843f c077 6b3f d5be 873f 096f 8a3f
00000060: b4fa 873f 5000 893f 70a7 8a3f bbb0 8f3f
00000070: 957a 203f b6fe 893f b42c 8b3f 09a0 8c3f
00000080: dc8c 8b3f 583d 893f 817a 873f fcec 863f
00000090: daf9 8a3f a7e6 903f 68a8 873f e822 8c3f
000000a0: afab 873f c838 8c3f bcf3 853f a315 883f
000000b0: c391 8a3f 868c 8a3f 9c65 8e3f 57e3 833f
000000c0: 08a3 8e3f 2b2a 8c3f 9171 893f fb04 883f
000000d0: 7702 393f 8da7 903f e1c2 863f 52e8 853f
000000e0: a298 843f 9720 863f bfb8 893f d55e 863f
000000f0: 3843 883f 46ff 833f 0623 893f e35d 8d3f
1.0547477 1.0484724 1.0759759 1.024601 1.0542179 1.1225585 1.0672227 1.0603279
1.1043798 1.0644522 1.0941674 1.0817771 1.0106354 1.0705512 1.0438311 1.1320673
1.0979424 1.1246874 1.0737575 1.0817819 1.0365435 0.919796 1.0605112 1.0815135
1.0623384 1.070322 1.0832348 1.1225809 0.62687045 1.0780857 1.0873017 1.0986339
1.0902362 1.0721846 1.058426 1.0541072 1.0857499 1.132039 1.0598269 1.0948153
1.0599269 1.0954828 1.0465007 1.0631603 1.0825733 1.0824134 1.1124759 1.0303754
1.1143503 1.0950369 1.0737783 1.062652 0.72269386 1.1301132 1.0528222 1.0461524
1.035908 1.0478696 1.0759505 1.049769 1.0645514 1.0312278 1.0713813 1.1044277

model.4.weight f4 [64, 64]
00000000: 6104 e8ba 9207 4ab9 b933 50bb 9938 a4ba
00000010: 92de 0d3b 6c20 03bb d59c 4a3a da08 cbba
00000020: f4f9 9c3a ef66 113b 433c 633a bd43 c5ba
00000030: a3f2 d7ba 59b3 793b cb96 e2ba 88a6 f2bb
00000040: b1d1 80bb f947 283b c106 9e38 c14d 63bb
00000050: a48b 87b9 170e b33b a375 0abb 67b7 aeba
00000060: a984 48ba 2e68 54bb 56b7 e03a d80e 2abb
00000070: 776d 8ebb 60dc 0ebb 0b09 90bb 7582 c7ba
00000080: a04f cb3a 29fb 82bb e688 8d37 a63c dc37
00000090: e282 44bb 2340 b239 3ed7 2cb9 3467 59ba
000000a0: 99b5 abbb 01d0 7f3a bf4d f2ba eb72 74ba
000000b0: e172 87ba 9c06 82ba ed69 f8ba 4312 abb9
000000c0: 60d0 19bb d73b 88bb 6750 23bb 6522 40bb
000000d0: 4e52 a5bb 4425 08bb 52d0 ea39 ab60 913a
000000e0: b0f6 98ba eea9 f7ba 2d6c 7a3a c6ea 62bb
000000f0: ba0c c4bb f316 8dbb 53d3 e6ba 5fa2 0fba
00000100: aad7 a6b8 731c 9cba 667a 03bb 8adf 833a
00000110: 8344 c1bb fb08 6e3b 8983 36ba 7ec9 90ba
00000120: 6c8d 06ba 1106 0f39 557c 923a 343c 763b
00000130: 8a83 5c3b d0fe 973a 7b4f f5bb 821d d138
00000140: 2ed9 12ba 6e27 a6ba de17 90bb a129 64bb
00000150: e473 10ba f06b 7a39 d469 33b9 a40e bebb
00000160: 8155 4cbb 6bd8 433b 40b4 1b3a 4503 d73a
00000170: d878 9d3b e2f2 f0ba 28e8 053b 321b ca3b
00000180: e052 1abb f1e7 8eba 61ad 3abb 7d4b bb3a
00000190: ea49 b1b9 4b29 39bb 94c7 1e3a e06b 45bb
000001a0: b737 e4b9 7c66 f2ba d986 82bb fc51 e93a
000001b0: 65b1 b33a 13d1 493b c25b 86ba 6cb2 a9ba
000001c0: 5549 b2ba 00bc d238 24cd 123b 49d0 653b
000001d0: b7ad 46bb aec4 c9ba d4bc 343b 5a95 84bb
000001e0: 3d82 bcba e048 c9ba a7b9 bab6 b995 39bb
000001f0: eec0 a1bb 53a2 fb3a 4129 2c3b 2225 e7ba
00000200: 818b 483e ff7a 463e eded 433e 2a49 213e
00000210: 4c2f 413e 5669 333e 8e88 403e 4fad 2a3e
00000220: cbc7 3c3e f983 3d3e 0b6b 423e 4e0c 373e
00000230: cfa1 223e 94f6 453e 0888 3a3e 4f36 363e
00000240: 75bd 433e 5b10 393e a6d9 383e ac77 4a3e
00000250: b643 483e 241f 133e 0c34 483e 19a3 403e
00000260: 8d64 4a3e 313b 2f3e d4f2 403e e80a 3e3e
00000270: f4cf d83d f96a 443e fcdb 393e 48ef 3a3e
00000280: 50d5 413e 22d5 403e fc91 3e3e cefe 463e
00000290: cd2b 423e 1508 393e 756c 443e c403 3a3e
000002a0: 3510 3e3e 4b06 383e f139 453e 1b13 453e
000002b0: 93f8 433e 75f0 443e c459 413e c447 223e
000002c0: a5b5 333e f7fa 353e 49cc 423e a421 433e
000002d0: b5df ec3d 5ffe 343e 5d88 273e 4db4 473e
000002e0: 38fd 473e 24e5 443e 2cc8 453e 0fb8 493e
000002f0: 7672 463e ad0e 243e 95fc 413e 6008 3d3e
00000300: e861 d6bb d7e3 2cbc ee7b afbb 341f 3bbb
00000310: fc3a 18bc 1a0f 073a 075a cbbb d70b 4dbb
00000320: ee59 d5bb e2f6 45bb 3409 10bc 8e0a e0bb
00000330: 71d5 a8bb 907a 9ebb 3d22 72bb 5511 d3bb
00000340: 3841 83bb f6a5 c8bb 3798 15bc 0b09 a2bb
00000350: 20b5 59bc 0308 0abc 4310 0bbc 83a5 d5bb
00000360: 290f cdbb fe51 f0bb bc3c 8bbb d049 dcba
00000370: d428 e4bb a108 b9bb 6185 e5bb 7ec9 e3b9
00000380: 2e64 07bc 3dc2 00bc e989 a9bb e0f5 60bb
00000390: aef4 89bb de88 0dbc 1747 b8bb 6778 43bc
000003a0: c7f4 ccbb e56d b2bb e740 7abb 26ca 04bc
000003b0: c0cc d0bb 9412 e9bb 5ffe 0abc 7b58 70bb
000003c0: 6445 3bbb 7e81 c5bb 5ea9 b2bb c211 19bc
000003d0: 8b14 73bb ce75 97bb 1df3 f7bb 3411 ccbb
000003e0: 52ba 06bc 19b3 17bc 3f9e bdbb 82d1 a0bb
000003f0: f7d4 f3bb 6433 c8bb 53c7 2bbc d4ba 1bbc
-0.00177015 -0.00019267041 -0.003176911 -0.0012529074 0.0021647555 -0.0020008339 0.0007729058 -0.0015490309
0.0011976347 0.0022186597 0.00086683425 -0.0015050095 -0.001647551 0.0038101284 -0.0017287371 -0.007405106
-0.003931247 0.0025677665 7.535285e-05 -0.0034683796 -0.00025853247 0.005464326 -0.0021127246 -0.0013329805
-0.00076491624 -0.0032410729 0.0017144482 -0.002594879 -0.0043465453 -0.0021798834 -0.0043956093 -0.0015221374
0.0015511401 -0.003997226 1.6872258e-05 2.6254285e-05 -0.0029985239 0.0003399859 -0.00016483382 -0.00082932715
-0.005240154 0.0009758473 -0.0018486305 -0.00093249854 -0.0010333919 -0.0009920183 -0.0018952467 -0.00032629268
-0.0023470148 -0.004157524 -0.002491975 -0.0029317376 -0.005045212 -0.0020774165 0.0004478717 0.0011091431
-0.0011670198 -0.0018895247 0.00095528626 -0.00346248 -0.0059829624 -0.0043057143 -0.0017610587 -0.0005479212
-7.9556674e-05 -0.0011910334 -0.0020061969 0.0010061127 -0.00589806 0.003632127 -0.0006962349 -0.0011046377
-0.0005132768 0.00013639803 0.001117597 0.0037572505 0.003364774 0.0011596326 -0.0074862815 9.971393e-05
-0.00056018203 -0.0012676546 -0.0043973764 -0.0034814852 -0.0005510433 0.00023882068 -0.00017110194 -0.005800085
-0.0031178894 0.0029883634 0.000593964 0.0016404173 0.0048056655 -0.0018382932 0.0020432565 0.0061677927
-0.0023547933 -0.0010902864 -0.002848469 0.0014289465 -0.0003381514 -0.0028253372 0.0006056961 -0.0030124113
-0.0004352906 -0.0018493677 -0.0039833602 0.0017800923 0.0013709484 0.0030794784 -0.0010250735 -0.0012946851
-0.0013602177 0.00010048598 0.0022400105 0.0035066775 -0.0030315944 -0.0015393698 0.002757837 -0.0040461244
-0.0014382076 -0.0015356801 -5.5648447e-06 -0.0028318001 -0.004936329 0.0019198157 0.0026269706 -0.0017634968
0.19584467 0.19382857 0.1913373 0.15750566 0.18865699 0.17520651 0.18802091 0.16667674
0.1843559 0.18507375 0.18986146 0.17875788 0.15882038 0.19332343 0.18215954 0.17794155
0.19115241 0.18072645 0.18051776 0.19772214 0.1955708 0.14367348 0.19551104 0.18812217
0.1976492 0.17112423 0.18842632 0.18558848 0.10586539 0.19181432 0.18150324 0.18255341
0.18929029 0.18831304 0.18610376 0.19433138 0.18962021 0.1806949 0.19181998 0.18165499
0.1856087 0.1797115 0.19260384 0.1924557 0.19137792 0.19232352 0.18881899 0.15847689
0.1754976 0.17771517 0.19023241 0.19055802 0.11566106 0.1767516 0.16360612 0.19502373
0.19530189 0.19228035 0.19314641 0.19699119 0.19379601 0.16021223 0.18944009 0.18460226
-0.006542433 -0.010552368 -0.0053553497 -0.0028552534 -0.009291407 0.00051520916 -0.0062058005 -0.0031287575
-0.0065109646 -0.0030206968 -0.008791257 -0.0068371957 -0.0051523973 -0.004836388 -0.0036946677 -0.006441275
-0.0040055774 -0.0061232997 -0.009130529 -0.0049449257 -0.0132878125 -0.008424762 -0.008487764 -0.0065199747
-0.0062579107 -0.007333993 -0.0042491835 -0.0016806666 -0.006962875 -0.0056467806 -0.0070044254 -0.00043446937
-0.008263631 -0.00785881 -0.005173911 -0.003432624 -0.0042100763 -0.008638589 -0.005623709 -0.011930562
-0.0062547657 -0.0054452294 -0.0038185657 -0.008104837 -0.0063720644 -0.0071128104 -0.008483498 -0.0036673832
-0.0028575296 -0.0060273996 -0.005452319 -0.009342613 -0.0037091102 -0.0046221977 -0.007566823 -0.0062276367
-0.008223133 -0.009259009 -0.0057866867 -0.004907788 -0.007441159 -0.006109642 -0.010484534 -0.0095049925

model.4.bias f4 [64]
00000000: a106 4cba a28d d2b9 5ee6 2a3e f5e1 dbbb
00000010: 12f0 01ba a28d d2b9 0000 0000 a18d d2b9
00000020: 055e 0ebb 0000 0000 0000 0000 a28d d2b9
00000030: 07c4 c839 ff7d 183e f3e7 cbb9 c532 30bb
00000040: 64ab b43c 0d24 32bb 429e 05bb a28d d2b9
00000050: 2c81 7cbb 0fb5 f5ba 0000 0000 3ec6 38ba
00000060: 6856 99b8 840f fb3d a28d d2b9 a28d d2b9
00000070: 2249 d3b9 b01f e1b9 19e0 4a3d 60f9 3d3e
00000080: 0000 0000 3d58 b739 a18d d2b9 0000 0000
00000090: 71c9 e0b9 3972 f538 7184 db39 ed20 a339
000000a0: 71c9 e0b9 81dc 9739 0000 0000 65ea 373e
000000b0: abd3 16ba fe8e a3bb 2149 d3b9 0000 0000
000000c0: 9e20 a239 a59e ddb9 91bb 3939 61ff 6938
000000d0: a28d d2b9 4bb0 c93d 0000 0000 0000 0000
000000e0: 0000 0000 2149 d3b9 ead8 9fbb cd68 5bba
000000f0: 0991 8039 0000 0000 2249 d3b9 a28d d2b9
-0.000778297 -0.00040159846 0.1668944 -0.006710286 -0.0004956733 -0.00040159846 0.0 -0.00040159843
-0.002172352 0.0 0.0 -0.00040159846 0.00038293024 0.14891814 -0.00038891993 -0.002688573
0.022054382 -0.0027182132 -0.0020388518 -0.00040159846 -0.003852914 -0.0018745976 0.0 -0.00070485834
-7.311703e-05 0.12258819 -0.00040159846 -0.00040159846 -0.00040299544 -0.00042938953 0.049530122 0.1855216
0.0 0.00034970223 -0.00040159843 0.0 -0.00042874695 0.00011703786 0.00041869612 0.00031114314
-0.00042874695 0.00028965253 0.0 0.17960508 -0.0005753587 -0.004991411 -0.0004029954 0.0
0.0003092335 -0.00042270604 0.00017712849 5.578937e-05 -0.00040159846 0.09848078 0.0 0.0
0.0 -0.0004029954 -0.004878153 -0.00083698035 0.00024522122 0.0 -0.00040299544 -0.00040159846

model.6.weight f4 [64, 64]
00000000: 89da bebb 8435 2dbb 8177 b73b 6e31 ebbb
00000010: 54f4 493b 42bd 1d3a 12e6 19ba 2f20 92b9
00000020: 828d a138 17bb 213a 81bc d0ba aed7 1ebb
00000030: f8ca 2c3a 18cc b43a 682f 5dba 12f9 a4bb
00000040: 5f8e 6d3b c059 9cb9 4e02 703a d711 2ebb
00000050: bc27 f8b9 6ae0 45bb b577 3a3a 0c4f 1d3a
00000060: a7be 563a f766 823b d4cc 323b ddf0 95bb
00000070: f402 ed3a 5ba6 453b f90c 9e3b ab19 743b
00000080: 863c a9ba d734 8b3a 29b6 35ba b90c b33a
00000090: 6fcd 403a 8235 dc3b 87e5 4e3a a30b 313a
000000a0: 55c2 b73b 9e3a a33a 4edb a6ba c435 023c
000000b0: b84e 30ba 4da7 65bb d2c9 8ebb c292 44ba
000000c0: c883 093a 682b b83a 5e3b 0ebb 4ffd 133b
000000d0: fb12 d4ba 5d83 ac3b c052 e5b9 6c75 5fbb
000000e0: 5e98 6eba 4d1f a83a e16b 6dba 08b3 143b
000000f0: ed7a 203a d80e d7b9 4c4a c6ba 0176 a1bb
00000100: 1491 183b ddac 90ba bcea 07bc 9b05 963b
00000110: 89d9 9cba 0be9 5eba 774b 163b d553 d13a
00000120: 1d9c 8dba 9422 d93a 041d 5d3b 0feb faba
00000130: 9f7e a1ba 0704 fabb 0937 aa39 6170 b4ba
00000140: 9b74 02bc 04ff c239 f7c1 c9bb 7a6e 5b3b
00000150: 5ce5 823b 4f67 c13b 1a8d 143c d22f 0a3b
00000160: 7f47 023c 25f4 d2bb a3b6 d53b 0d05 3dbb
00000170: 2222 33bb 4b07 6c3b c61d 01bc 2dcf 11bc
00000180: 7fd5 83bb 417f f6ba 217f 20bb 6a28 2a39
00000190: 51a7 2abb ed4e 0d3b 62b0 b4ba 87a6 a4ba
000001a0: 8610 82bb 3140 09bb 819b 493a 5493 05bc
000001b0: 7092 94bb 27c0 8c3b d540 be3b aef7 5bbb
000001c0: 9a9a 86ba 9a7d a5b9 d58f 983a 273f 6fbb
000001d0: a238 b4ba 7643 f5bb 7e2b fc3a f168 1abb
000001e0: 94fb 7f3b 01f4 0c3a 1416 06bb 2afa 71bb
000001f0: 299b afba b3ca edba 6079 e5ba fecf 3039
00000200: 91a6 bfba 4388 843b 6f73 a0bb d54c e1ba
00000210: c367 d03a 483b 4dbb 5420 233b 4245 c33a
00000220: 2bb9 b33a 77f8 20ba 8e2b dfba 03a0 ab3a
00000230: f8d9 c1b9 d9c5 7dbb b7a0 1aba 7475 d83a
00000240: dc88 60bb dba3 9cba 228e 6cba 81a3 b13a
00000250: abb8 e8bb 934a ce3b 37f4 963b 7f9d 383b
00000260: 2010 40ba d169 f0ba 4388 9abb 73f6 2b3b
00000270: 5b29 afbb b0d8 b03a 1fa8 19bb 37f7 89bb
00000280: 1ddd 95bb ec07 4fba e199 40bb 78a4 e43a
00000290: c97b d9ba a71c 72bb 7ccd fcb9 cf94 9cb9
000002a0: 8eea 263b 8641 26ba afd3 523b f603 8abb
000002b0: b1ad b4bb 4f3a ff3a 21d3 87ba b072 b53a
000002c0: a2cb d9b9 4775 5c39 f7ff 8ab9 01d2 e0ba
000002d0: 8616 7139 4418 7abb c1a1 50bb 7d80 8b38
000002e0: ca24 193c e5ca 533b 0742 14bb bd3b f9ba
000002f0: 55d9 80b9 145a 733b 462f 3bb9 aa4b 05bb
00000300: 13d5 123a 9272 193b abf3 7e3d 9434 aaba
00000310: 692a b13a 8745 523b e9af 3cba 15a9 7abb
00000320: 58d9 e23b c16b 7dbb bd1f 7439 054f 79bb
00000330: ec13 2f3c 502e 763d db5f 11bb edf6 063b
00000340: dbbc 723d 4d5b 2e3a efef 38bb f7b3 abba
00000350: 16c7 20ba 8fe9 893b 50c7 be3a 2c3a 873a
00000360: 6fae 533c 6431 793d 80be 2c3b 23a9 a53a
00000370: 723e b03a 923f 21bb 7ad9 783d ddb9 793d
00000380: e55a d2ba 0288 713c f484 c73a b3a8 c635
00000390: ed82 aa3b 50fb a53c de97 3e3c 5a18 233c
000003a0: d53c f4b9 39dd 803c ff1d 913b 3dae 833d
000003b0: 69d1 3bb9 2773 c43b 3bca 7d3b c416 0bbb
000003c0: d1a7 173c 8cf6 7f3a bfc7 1b3c 17a5 e13c
000003d0: 908e 273b 91b3 773d 6769 e83a 624d 993b
000003e0: 4ae7 b63a 142f 30bb 4ea9 7fbb 2d4f 023d
000003f0: 66fb 283c cc99 62bb e049 acbb 889c 1ab9
-0.0058243913 -0.0026429603 0.005598963 -0.0071775233 0.0030815797 0.00060172763 -0.000587077 -0.0002787127
7.703436e-05 0.0006169541 -0.0015925319 -0.0024237442 0.0006591524 0.0013793735 -0.0008437545 -0.0050345743
0.003624819 -0.00029821508 0.0009155617 -0.0026560926 -0.0004733185 -0.0030193576 0.00071131747 0.00060008536
0.00081918616 0.0039795595 0.0027282732 -0.0045758323 0.0018082545 0.003015897 0.004823324 0.0037246745
-0.0012911714 0.0010620606 -0.0006931746 0.0013660408 0.0007354831 0.006720246 0.00078924786 0.0006753748
0.005607883 0.0012453382 -0.0012730153 0.007947389 -0.0006725597 -0.0035042346 -0.004357555 -0.0007498675
0.0005245772 0.0014051022 -0.0021702866 0.0022581404 -0.0016179973 0.005264683 -0.00043739937 -0.0034097089
-0.0009101684 0.0012826711 -0.0009056908 0.0022689719 0.0006121833 -0.00041019055 -0.0015128343 -0.0049273972
0.0023279833 -0.0011037845 -0.008295711 0.004578305 -0.0011966686 -0.0008503354 0.0022933164 0.0015970418
-0.0010803972 0.0016566091 0.0033739218 -0.0019143539 -0.0012321061 -0.0076298746 0.0003246593 -0.0013766402
-0.007962371 0.00037192565 -0.0061571556 0.0033482597 0.003994627 0.005902208 0.009066844 0.0021085632
0.007951616 -0.0064377957 0.006522016 -0.0028842122 -0.0027333577 0.003601509 -0.007880634 -0.008899492
-0.0040232535 -0.0018806235 -0.0024489837 0.00016227519 -0.002603967 0.0021561936 -0.0013785476 -0.0012561836
-0.003969255 -0.0020942802 0.00076907134 -0.008152802 -0.0045340583 0.0042953673 0.0058060684 -0.0033564377
-0.0010269464 -0.00031564833 0.0011639545 -0.0036506148 -0.0013749788 -0.0074848486 0.0019239036 -0.0023561085
0.0039059864 0.00053769356 -0.0020459937 -0.003692279 -0.0013397682 -0.0018142074 -0.0017507486 0.00016862151
-0.0014621784 0.004044564 -0.0048965733 -0.0017189035 0.0015900064 -0.0031315852 0.0024891095 0.001489796
0.00137118 -0.000614054 -0.001702653 0.0013093952 -0.00036974228 -0.0038722663 -0.0005898582 0.0016514496
-0.0034261262 -0.0011950688 -0.0009023865 0.0013552756 -0.0071020923 0.006295511 0.0046067494 0.0028170047
-0.00073266216 -0.0018342083 -0.0047159507 0.0026239424 -0.005345506 0.0013492312 -0.0023446155 -0.0042103785
-0.004573478 -0.0007897604 -0.0029388594 0.0017444035 -0.0016592677 -0.0036943348 -0.00048218283 -0.0002986551
0.0025469395 -0.0006342161 0.003216963 -0.004211898 -0.0055138697 0.0019472333 -0.0010362604 0.0013843384
-0.00041541184 0.00021024524 -0.0002651212 -0.001715243 0.00022991942 -0.0038161436 -0.0031834694 6.651969e-05
0.00934715 0.003231698 -0.0022622363 -0.0019014996 -0.00024575987 0.0037132548 -0.0001785132 -0.0020339289
0.00056012085 0.0023414236 0.0622441 -0.001298564 0.0013516668 0.0032084899 -0.00071978435 -0.0038247753
0.006922882 -0.0038668963 0.00023281477 -0.0038041484 0.010685902 0.06010276 -0.0022182378 0.0020593957
0.059262138 0.0006651178 -0.0028219183 -0.0013099898 -0.0006133182 0.0042087506 0.0014555249 0.0010317019
0.012920006 0.06083812 0.0026358664 0.0012638908 0.0013446345 -0.0024604541 0.060754277 0.06096827
-0.0016048817 0.014741899 0.0015222118 1.4801248e-06 0.005203596 0.020261437 0.011632888 0.009954536
-0.0004658463 0.015730487 0.0044286246 0.06429718 -0.00017911721 0.0059951725 0.0038725275 -0.0021223286
0.009256319 0.00097642164 0.009508072 0.027544541 0.0025567152 0.060473982 0.0017731608 0.004678414
0.0013954428 -0.002688353 -0.0039010826 0.03181379 0.010313844 -0.0034576533 -0.00525783 -0.00014744897

model.6.bias f4 [64]
00000000: b5fd 993a 1266 4fbb e2cd 75ba eef1 f73c
00000010: ba14 573a 3b59 1e38 a721 ed3c 33a9 37bb
00000020: 3362 cfbc d8ec 0b3d a133 003d b419 ec3b
00000030: 6f1a 033c f32c a6ba a4c1 06bd 5631 e1bc
00000040: 7f2a b2ba be13 e53b 5a44 79b8 a86b d7bc
00000050: 9e2c 2a3d 63bc 063d baa1 073d 6e16 75ba
00000060: 1f3f 28bd 7e0e ccbc 0426 8d3a 6229 353a
00000070: 9b20 eebb a4f1 583d 7191 553b b1b2 003b
00000080: 880e cd3a 97a6 9b3a 687e f63c 9d8d 0cbd
00000090: 3a98 85bb d1bc 11b9 4586 f1bc 1769 c53c
000000a0: f407 933a 4a1f f1ba ffd6 3dba c8de c9ba
000000b0: 68d4 20bd bf1a 37bb 28f9 e53c 897a ec3c
000000c0: dcab 803d 89f8 13bd b0e6 943b 27b4 e23a
000000d0: 7773 ca3b d8c5 7d3d eb45 88bb af80 bdba
000000e0: 49e0 2bbb aa28 c739 fede bdbc fb97 e43a
000000f0: 971e d0ba e5cd 073d 980f 17bd 4e25 013d
0.0011748584 -0.0031646532 -0.0009376687 0.030266728 0.00082046876 3.7753238e-05 0.02894671 -0.0028024435
-0.02531538 0.03416142 0.031299237 0.0072052125 0.008001908 -0.0012678191 -0.032899514 -0.027489346
-0.0013592987 0.006990879 -5.9429884e-05 -0.026296452 0.041546457 0.032894503 0.03311322 -0.00093493506
-0.041075822 -0.024909254 0.0010768776 0.00069107686 -0.0072670705 0.05296482 0.003258791 0.0019637758
0.001564459 0.0011875209 0.030089572 -0.03431474 -0.0040769847 -0.00013898617 -0.02948297 0.024097962
0.001121758 -0.0018396166 -0.0007241815 -0.0015401477 -0.039265066 -0.0027939526 0.028072909 0.028867023
0.062827796 -0.036125693 0.0045441017 0.0017296121 0.0061783153 0.061956257 -0.0041587255 -0.0014457906
-0.0026226214 0.00037986535 -0.02317762 0.0017440313 -0.0015878257 0.03315534 -0.036880106 0.031529717
