CSSRS/RSIMDCL/checkpoint/pore2background_7_3rsim/latest_net_F5.pth (torch, 44759 bytes, 6 tensors)

model.0.weight f4 [64, 4, 3, 3]
00000000: df83 62bd fbe0 ffbc b79d 42bd a8e1 a8bd
00000010: a11c 90bd d3f2 8cbd 9f2c 51bd dca2 14bd
00000020: cbdf 43bd f512 c9bd 2c8c 1ebc 364a bbbd
00000030: 6661 dcbd 0021 4cbd d03c eebd 9c07 a2bd
00000040: 7638 38bc cf48 babd 608f 50bc 7d1f 5c3d
00000050: 1b72 a9bc 4387 81bb b8d4 a73c 9454 4bbc
00000060: 974b 19bc e5e9 413d 30bd b3bc bb49 dfbb
00000070: dd6e 25bd 92cd 3abc a9b7 63bd ba18 89bc
00000080: eaa4 77bd 5715 04bc 88fa 25bd acd5 55bc
00000090: f7be 33bc ce57 723c 65fb e7bc ab8c ddbc
000000a0: 71e9 d7bc abb4 80bd 8f92 36bc 5a49 8f3c
000000b0: c392 fcbb 75b8 b6bd 64fd 62bd 49c6 a2bd
000000c0: d4ee e7bd bd40 eebc 2d31 02be ac7a 75bd
000000d0: 91c8 6dbd 2e27 83bd 8191 003d fddc abbb
000000e0: bd3e 233d 9952 0dbd 8270 a23c 87b3 e7bc
000000f0: 839d b6b9 09c1 423c 4dc3 be3b 05c2 313c
00000100: 8a47 0e3c b77b b9bc 74b3 f3bc 9894 903c
00000110: 51dd 4dbd 6d7b 1b3c 2c53 a53c 1e79 b5bc
00000120: ef44 79bd 7cc4 4ebd e13c 5abd 0473 b9bd
00000130: 0fe0 a1bd 87a2 b6bd 9e4b 82bd 3f18 40bd
00000140: 497e 90bd bc35 b5bd 47ab a8bc 0990 b0bd
00000150: fa4c f0bd 4c39 6abd df0d e2bd cafe b4bd
00000160: 6c86 83bc 332a afbd c961 c3bc 581e 3b3d
00000170: 6629 62bc c037 bb39 cc8c 963c e8e4 f8bb
00000180: a8c5 c2bc ba8b 3d3d dc8e ccbb fd65 4fbc
00000190: 7c43 61bd e41a 603c ef0b 89bd 5646 00bd
000001a0: 84b3 78bd b899 dabb 2dd3 5bbd 777e 363c
000001b0: 0af3 5abd b438 04bd 97cd 2ebd d144 96bd
000001c0: d397 b0bd 8168 84bd 0273 49bd 42d4 cfbc
000001d0: c854 2fbd 6c6e 97bd c615 16bc b50f d1bd
000001e0: a30f e7bd 2ac7 84bd f4d6 debd 46b7 9bbd
000001f0: 579d 02bd 76ac a1bd fa46 1c3a 21b9 6b3d
00000200: 770d 95bc 8afc 10bb 5953 ae3c 3f8d 8bbc
00000210: fa1d 61bc bd90 1b3d 51f1 a0bc 14be 17bb
00000220: 3cf4 07bd 92ce a7bb 9c6b 53bd 182d c5bc
00000230: baf6 8dbd 3859 ae3b 288b 05bd 2748 583c
00000240: 5655 55bd 6dac 4ebc 1244 2cbd 43f2 70bd
00000250: 25cf 73bd 46a6 8fbd 5590 2abd 55b0 51bc
00000260: 7271 0abd 3dcc d4bd ec76 8bbc f372 c1bd
00000270: 234e 0abe 1137 4ebd ca90 0abe b8ef d4bd
00000280: fb9b 12bd 12f8 d9bd 2ab6 0a3a 811b a73c
00000290: c634 873c ac0b 7ebb 7276 fa3c 9362 56bc
000002a0: d194 2d3c c7ea 083d 315c 28bb e5eb 66bc
000002b0: bc5a 88bc ad86 83bc 9348 97bd b698 84bc
000002c0: 1dac 8dbd a86a d9bc bb4d 0cbd 135e 32bc
000002d0: fb78 76bd a9d5 cfbc 01cf 83bd a5ea b5bd
000002e0: 7410 88bd 0c83 b5bd 9b06 6ebd b474 debc
000002f0: a9a3 2abd 0b5a d5bd eb35 fcbc f07f cfbd
00000300: bd27 09be e624 8bbd 0442 f3bd 9ced d2bd
00000310: 2c17 25bc 2afc c5bd 5042 bebc e446 e53c
00000320: 1309 91bc 44f3 923a 5391 113d 9a11 afbc
00000330: cb35 8d3b 0769 c83c 29a2 90bc 58bd 0fbc
00000340: 0cd2 69bd b226 2ebc c54f 4cbd 3003 b0bb
00000350: dcc6 8fbd 85f5 78bb d892 dcbc 0385 c2bc
00000360: 731e 7fbd 6151 2fbd 616a 77bd cce8 b1bd
00000370: 42d0 9fbd d123 b0bd b48c 63bd 6b35 28bd
00000380: 7b21 7abd a590 a2bd ac43 98bc f6d7 abbd
00000390: 33c9 d4bd b81b 73bd fa70 dbbd f060 95bd
000003a0: c69a 99bc 8ff7 a7bd 3d8c 8fbc 5fa0 153d
000003b0: 792d 9f3a 38e4 cebb 1ac8 ac3c 57a3 da3b
000003c0: f048 7ebc 983e 153d 35c1 58ba 47a2 e3ba
000003d0: f0a3 06bd 1bb8 a93b 2a48 7fbd ee8a 85bc
000003e0: ca55 82bd f301 e5ba 2d7d 0fbd 3cf7 c73b
000003f0: 7154 21bd c4cc 3abd aea8 61bd 77c1 a2bd
-0.055301543 -0.031235209 -0.04751369 -0.082461655 -0.070367105 -0.068822525 -0.051067945 -0.036288127
-0.047820847 -0.09818069 -0.009676974 -0.09145014 -0.10760765 -0.04983616 -0.11632693 -0.079116076
-0.01124393 -0.090959184 -0.012729496 0.053740967 -0.020684293 -0.003952892 0.020487174 -0.012410302
-0.009356401 0.0473422 -0.021940798 -0.0068142093 -0.04038893 -0.011401551 -0.055595074 -0.016735423
-0.06046001 -0.008061728 -0.04052213 -0.013051432 -0.010970823 0.014791442 -0.028318116 -0.027044615
-0.02635643 -0.0628446 -0.011143341 0.017491031 -0.007707925 -0.08921901 -0.055417433 -0.07947976
-0.1132485 -0.029083604 -0.12714072 -0.059931442 -0.058052603 -0.06403957 0.031388763 -0.0052448497
0.039854754 -0.0345026 0.019829039 -0.028283847 -0.000348311 0.0118868435 0.0058216215 0.0108494805
0.008684048 -0.022642 -0.029748656 0.01764898 -0.050259892 0.009489876 0.020181261 -0.02215248
-0.060856756 -0.05048035 -0.053280715 -0.090551406 -0.07904064 -0.089177184 -0.06362079 -0.046898123
-0.07055337 -0.0884814 -0.020589484 -0.086212225 -0.11733432 -0.05718355 -0.11037802 -0.0883766
-0.016055308 -0.08552971 -0.023850339 0.045683235 -0.0138038155 0.00035708956 0.018377684 -0.007595647
-0.02377589 0.04627583 -0.006242616 -0.012658593 -0.054996 0.013678286 -0.06691729 -0.031317078
-0.060718074 -0.0066711567 -0.05366819 0.01113855 -0.053454436 -0.03228064 -0.042676535 -0.073373444
-0.08622708 -0.06465245 -0.049181946 -0.025369767 -0.042805463 -0.07394108 -0.009160465 -0.10208074
-0.11282279 -0.064833 -0.10880843 -0.07603316 -0.031888332 -0.078942224 0.0005961504 0.0575496
-0.018194897 -0.0022123181 0.021279978 -0.017035125 -0.013740057 0.03797983 -0.019646319 -0.0023154067
-0.033191904 -0.0051210606 -0.051616296 -0.024069354 -0.06931825 0.0053206943 -0.032603413 0.013200796
-0.052083336 -0.012614352 -0.042057104 -0.05882479 -0.05952372 -0.07014136 -0.041641552 -0.0127983885
-0.033799596 -0.10390518 -0.01702448 -0.09445753 -0.1350637 -0.050345484 -0.13531795 -0.10397285
-0.035793286 -0.10643019 0.0005291427 0.020398857 0.016504657 -0.0038764281 0.030574057 -0.013085025
0.010594563 0.033427026 -0.0025689716 -0.014094328 -0.016644828 -0.01605543 -0.07386889 -0.0161861
-0.06917594 -0.026540115 -0.034253817 -0.010886687 -0.06017397 -0.025370436 -0.06435967 -0.088826455
-0.06643763 -0.08862886 -0.05811177 -0.027155258 -0.041659985 -0.10417565 -0.030787429 -0.10131824
-0.13394065 -0.06794147 -0.11877826 -0.10299227 -0.010076325 -0.09667237 -0.02322498 0.027987905
-0.017704522 0.0011211415 0.035538983 -0.021370698 0.004309391 0.024464143 -0.017655449 -0.00877317
-0.057085082 -0.010629343 -0.04988076 -0.0053714737 -0.07020351 -0.0037988138 -0.02692549 -0.023745066
-0.062284898 -0.04280222 -0.060404185 -0.086869806 -0.07803394 -0.086005814 -0.055554107 -0.04106657
-0.061067086 -0.07937745 -0.018586956 -0.08390801 -0.10389938 -0.059352607 -0.10714908 -0.0729388
-0.01875056 -0.08201515 -0.017522926 0.036529895 0.0012144289 -0.006313827 0.02109151 0.0066723037
-0.015520319 0.036436647 -0.0008268536 -0.0017367088 -0.032871187 0.005179418 -0.06232468 -0.016301598
-0.06364019 -0.0017471894 -0.035031486 0.0061024707 -0.03938717 -0.045605436 -0.055092506 -0.07947057

model.0.bias f4 [64]
00000000: c580 8e3f ee73 4c3f f773 893f 8777 8c3f
00000010: e9b9 8e3f 0f08 943f 0842 833f 7b65 923f
00000020: dafd 8d3f ef6e 843f 7d5b 8c3f ee86 8a3f
00000030: 68c9 963f 1d13 913f 65f7 853f 7de8 8e3f
00000040: 1d2d 893f f4b4 8e3f 5aa2 8d3f 7efd f93e
00000050: bb09 8b3f 004c 953f a759 8b3f 6612 883f
00000060: 0c86 c2ba 9516 8d3f 95f0 903f 38bd 7a3f
00000070: 2c43 993f 8463 933f d705 873f 8baa 903f
00000080: cc4b 8b3f 437d 503f 8dfd f53e 62e5 823f
00000090: 02a7 773f d06c 893f 0eac 8b3f e326 923f
000000a0: b31b 843f 09e2 553f 3d51 8b3f 97c2 7e3f
000000b0: 4273 823f 2372 8e3f 320d 933f f6c5 453f
000000c0: 9bdd 903f c157 8c3f 8bb1 8a3f b0b1 943f
000000d0: cb37 3b3f b7bf 8a3f 4fb6 933f 965f 913f
000000e0: 5e5c 853f 0d70 673f 0b22 883f 4540 723f
000000f0: 78de 873f 3a1a 953f ffb8 8f3f 3df0 4d3f
1.1133047 0.79864395 1.0738515 1.0973977 1.1150485 1.1564959 1.0254526 1.1437219
1.1093094 1.0346354 1.096542 1.0822427 1.1780214 1.1333958 1.0466124 1.11647
1.0716892 1.1148973 1.1065171 0.48826212 1.0862345 1.1663818 1.0886735 1.0630615
-0.0014840974 1.1022516 1.132342 0.97944975 1.1973624 1.1514745 1.0548657 1.1302046
1.0882506 0.81441134 0.48045006 1.0226252 0.9673921 1.0736332 1.0911882 1.1418117
1.0320953 0.8354803 1.0884167 0.9951567 1.0191424 1.1128582 1.1488402 0.7725519
1.1317629 1.096428 1.0835432 1.1616726 0.7313201 1.0839757 1.1540011 1.1357296
1.0418813 0.9040535 1.0635389 0.9462932 1.0614767 1.1648629 1.1228331 0.804447

model.4.weight f4 [64, 64]
00000000: 1439 9d39 bc98 663a ad6f acba b905 98bb
00000010: 8eb2 37ba a07a 92ba 64e6 03bb e64f 64b9
00000020: 0a4e 623b ae3a 4cbb 3e46 9bba 8b77 0ab9
00000030: 7b99 35bb 7862 bdba 483b 233b ea9d 81ba
00000040: 4ece 923a 0b21 403b e708 10bb 47ea abbb
00000050: 7398 503a 693f af35 e17b f139 3960 08bb
00000060: 7f10 84bb d832 c8ba ac06 eab8 c52a 0abb
00000070: f0f5 6bbb 025b 32ba 9046 413b f98f 6ebb
00000080: 6a0b 043a e72a a1ba d204 bc3b 77d3 27bb
00000090: f8e1 98bb 8d86 373b be80 1dbb 1d25 2639
000000a0: 4e5e 20bb dcf9 bc39 98e3 63bb 8e02 b1ba
000000b0: f724 883a a9f0 c23a 99ef 0bbb a1eb 5fba
000000c0: 8b9d 67ba 2a23 fc3a 8151 31ba d8b1 56ba
000000d0: 9c3c 0b3c 58fa 28ba 214e f739 14d2 ad3a
000000e0: fc84 7f3b 96ea 093b 1ef8 72bb 57f7 e9ba
000000f0: 974a 103b 6290 9cbb 0b73 94bb 37e4 09bb
00000100: 4074 69ba 0dda e8ba 6a75 0cbb 5661 2c3b
00000110: 2572 723b e7d5 87ba 7384 9c3b 3730 62bb
00000120: 74b0 72bb b9bf 5eba f7b1 48bb 42d5 b13a
00000130: 718b 8aba 91b1 56bb e958 173b e1be 49b9
00000140: f8e9 663a bdd7 863b 3c42 1abb 7b0b de3a
00000150: 2df8 263b e81b 5d3b 00ff 15ba 52f2 b53a
00000160: 7674 783b a815 1d3a 0308 36b8 142a 41b6
00000170: f654 243b 3877 583b a6cf b83a 2d5c 9bb8
00000180: 6c89 d0ba a8f1 f339 4586 c439 8999 3c3a
00000190: 1253 b6b9 b868 9cbb 3636 10bb d3b3 e7ba
000001a0: f31e 3c3b 62f8 daba 0ebb e2ba 615d 233a
000001b0: 6c52 36ba b59b f43a 1764 9bba 91db 95ba
000001c0: de02 0bbb 5ed8 18ba 9924 c8ba 4f59 2fbb
000001d0: ebfa 85bb 8f18 a639 5cf7 32bb 4921 553b
000001e0: f121 8939 7de2 c53a 30ff 6bbb 86c6 023b
000001f0: ce06 a2b7 562b 9fba f5f3 0dbb e36c ff3a
00000200: 933c 383a 89e4 49bb a061 a8ba 996f 163b
00000210: 374b 833b 0d6a 003c 342e 13ba 0766 c43a
00000220: 2ea8 42bb 2a08 a637 4934 383b 0592 70bb
00000230: 6ee4 aa3b 3d3f 393a c715 403b d401 573b
00000240: 46ee 29bb c6a4 ec3a 6f2e 0bb9 c27d c4ba
00000250: 153c c0bb 6e80 45bb 678b 1fbb 445b 003b
00000260: 47af d7ba 4e55 e6ba 166f a5b8 547b 34bb
00000270: db08 6c3b 0ab7 3ab6 e294 70bb 49a8 9d3a
00000280: 2ae6 78ba c700 b239 4400 21b9 2772 32bb
00000290: 3bcf cc3a be2c cbb9 a547 e33a fa9f a339
000002a0: fb08 51bb bee7 ba39 531c 313a 2bd4 c2bb
000002b0: 51f5 9dba 2021 ea38 7438 e2ba c1ee 3cbb
000002c0: df84 133b f605 97ba 3249 013b ab7c 74ba
000002d0: a883 a0bb d7ae c9bb fd9c 0439 546a 4abb
000002e0: 85d5 243b 281e 92bb d7b8 fdba e048 963b
000002f0: 8a96 6cbb 7e18 aa39 e3fd fdba 1093 c6bb
00000300: 2993 34bb a9b3 8ebb 5abc fc3a f4a5 163a
00000310: e0e5 88ba 3e33 cbbb f5bb 713a 579d d8ba
00000320: e8ab 44bb 1054 40bb a481 a5ba 3d12 83ba
00000330: 8fbd 70bb 799a 28bb 8d2d 67ba 6fe2 a83a
00000340: a801 22bb ac8f 6cbb f250 b7bb 3bb1 2c3b
00000350: 1997 be38 449c e839 b6cc 0bbb b17b 48bb
00000360: 8c97 83bb a64d 25b8 4cbf e5ba 150b 7239
00000370: 8da6 e9ba ec4d 7fbb a984 31b9 493a 63bb
00000380: 92d4 493a 22c6 ecba fcf8 3639 3357 a83a
00000390: d39d 6f3a 8f90 45bb bb13 1abb 45c1 073b
000003a0: 8f19 95ba e2cd a1b9 3b96 1bba f022 2a3a
000003b0: c8fd 113a bccb 863b f09b 4dba 591d 99bb
000003c0: 5c33 81bb c433 7dbb 7933 9eb9 85f2 74bb
000003d0: 58a8 7bbb c142 9c3b ae0a 1f3b 9635 1abb
000003e0: 0290 13bb 6425 813a b6f5 01ba 70ba 5dba
000003f0: d50c dc39 b15b 913b c060 abbb c0ab 44ba
0.000299879 0.0008796563 -0.001315584 -0.004639354 -0.0007007503 -0.0011175461 -0.0020126337 -0.00021773539
0.0034531378 -0.0031162906 -0.0011846495 -0.00013205239 -0.002770989 -0.0014448902 0.002490716 -0.0009888981
0.00112004 0.002931657 -0.0021977962 -0.005246434 0.0007957287 1.3056971e-06 0.000460594 -0.0020809306
-0.004030287 -0.0015273942 -0.00011159232 -0.0021082622 -0.0036004744 -0.00068037224 0.0029491521 -0.0036401732
0.0005037101 -0.0012296111 0.0057378793 -0.002560822 -0.0046656094 0.0028003782 -0.0024033035 0.0001584482
-0.0024470272 0.00036044314 -0.0034773108 -0.001350479 0.0010386993 0.0014872748 -0.0021352528 -0.00085418863
-0.00088354264 0.0019236554 -0.0006764159 -0.0008189953 0.008498337 -0.00064459955 0.00047169722 0.0013261461
0.0038989177 0.0021044365 -0.003707416 -0.0017850202 0.0022017115 -0.004777954 -0.0045303158 -0.0021040568
-0.0008905567 -0.001776518 -0.002143229 0.0026303134 0.0036994305 -0.001036343 0.0047765314 -0.0034513602
-0.0037031444 -0.0008497197 -0.0030623653 0.0013567584 -0.0010570121 -0.0032759646 0.0023093766 -0.00019239962
0.0008808668 0.0041150735 -0.0023538014 0.0016940677 0.0025477514 0.0033738557 -0.0005721897 0.0013881421
0.0037911213 0.0005992302 -4.3399643e-05 -2.8783734e-06 0.0025075055 0.0033030044 0.001409997 -7.408145e-05
-0.0015910096 0.0004652862 0.00037484072 0.00071945094 -0.00034775637 -0.0047732256 -0.0022004968 -0.0017677493
0.002870497 -0.0016706104 -0.0017298178 0.0006231871 -0.0006955031 0.0018662127 -0.0011855391 -0.0011433234
-0.0021211426 -0.0005830581 -0.0015269696 -0.0026756113 -0.0040887496 0.00031680285 -0.0027308082 0.003252106
0.00026155965 0.0015097406 -0.0036010258 0.0019954755 -1.9315074e-05 -0.0012143652 -0.0021660302 0.0019487407
0.0007028069 -0.0030806384 -0.0012846477 0.00229547 0.004006769 0.0078377845 -0.000561449 0.001498402
-0.0029702294 1.9792544e-05 0.0028107336 -0.0036708128 0.005215219 0.0007066613 0.0029309855 0.0032807486
-0.0025929376 0.0018054477 -0.00013273371 -0.0014991092 -0.0058665373 -0.0030136365 -0.0024344565 0.0019585649
-0.0016455435 -0.001757303 -7.8885045e-05 -0.002753933 0.003601602 -2.7822703e-06 -0.0036709835 0.0012028302
-0.00094947463 0.00033951385 -0.00015354255 -0.0027228685 0.0015625724 -0.00038752513 0.0017340077 0.00031208975
-0.0031896222 0.00035649346 0.0006756235 -0.0059457025 -0.0012051259 0.000111641595 -0.0017259256 -0.0028828832
0.0022509617 -0.0011522162 0.0019727466 -0.00093264383 -0.004898507 -0.0061548757 0.00012646984 -0.003088613
0.0025151682 -0.0044591613 -0.0019357455 0.004586324 -0.003610047 0.00032443175 -0.0019378032 -0.0060600117
-0.0027553535 -0.0043549133 0.0019282207 0.0005746775 -0.0010444485 -0.006201177 0.0009221428 -0.0016526383
-0.003000969 -0.002934698 -0.0012627137 -0.0009999942 -0.003673408 -0.0025726839 -0.0008818738 0.0012884865
-0.0024720225 -0.0036096377 -0.005594366 0.0026350755 9.08805e-05 0.00044366915 -0.0021331734 -0.0030591304
-0.0040158685 -3.941138e-05 -0.0017528324 0.00023083047 -0.0017826125 -0.0038956357 -0.00016929455 -0.0034672192
0.0007699217 -0.0018064419 0.00017449626 0.001284337 0.0009140644 -0.0030145978 -0.0023510295 0.0020714563
-0.0011375415 -0.00030861708 -0.0005935167 0.00064901914 0.00055691274 0.0041136425 -0.0007843366 -0.004672688
-0.00394289 -0.003863559 -0.00030174459 -0.0037375998 -0.0038399901 0.0047687 0.002426784 -0.0023530475
-0.0022516255 0.0009853062 -0.0004957573 -0.00084582623 0.0004197123 0.0044359793 -0.0052300394 -0.00075023994

model.4.bias f4 [64]
00000000: 0000 0000 a28d d2b9 0000 0000 a6da 50ba
00000010: a28d d2b9 7138 b3bb 9b2d 2cbb d560 823d
00000020: 0000 0000 dff4 07ba a18d d2b9 a28d d2b9
00000030: a28d d2b9 e1f3 80bb a18d d2b9 2149 d3b9
00000040: a28d d2b9 40e4 9138 a7da 50ba a28d d2b9
00000050: a28d d2b9 2149 d3b9 802f 95bb 5f67 a0bb
00000060: 111c 223b 4185 ed3d 0000 0000 123b ff3d
00000070: 0000 0000 303a cebb a28d d2b9 2149 d3b9
00000080: a28d d2b9 a8da 50ba a28d d2b9 852f 1b3d
00000090: beec e33d 406c 43ba b742 0e3e 8f12 d53d
000000a0: a18d d2b9 0000 0000 a60a 6c39 fe0c 383e
000000b0: 0a43 ea3d a18d d2b9 0000 0000 a18d d2b9
000000c0: a28d d2b9 2149 d3b9 a537 8239 f613 a338
000000d0: dc4f 11bb a28d d2b9 968e 253e 0000 0000
000000e0: f334 f73d a28d d2b9 fe7b a73d 7ade 5e3b
000000f0: a18d d2b9 0cc1 1c3d a18d d2b9 d556 45b8
0.0 -0.00040159846 0.0 -0.00079671515 -0.00040159846 -0.005469375 -0.00262723 0.063661255
0.0 -0.000518633 -0.00040159843 -0.00040159846 -0.00040159846 -0.0039353226 -0.00040159843 -0.0004029954
-0.00040159846 6.956654e-05 -0.0007967152 -0.00040159846 -0.00040159846 -0.0004029954 -0.0045527816 -0.0048951353
0.0024735967 0.11597682 0.0 0.12462439 0.0 -0.0062935576 -0.00040159846 -0.0004029954
-0.00040159846 -0.00079671526 -0.00040159846 0.037887115 0.11129139 -0.000745479 0.13892637 0.104039304
-0.00040159843 0.0 0.0002251068 0.17973706 0.11438568 -0.00040159843 0.0 -0.00040159843
-0.00040159846 -0.0004029954 0.0002483699 7.776164e-05 -0.0022172844 -0.00040159846 0.16167673 0.0
0.12070646 -0.00040159846 0.081779465 0.0034007118 -0.00040159843 0.03827004 -0.00040159843 -4.704933e-05

model.6.weight f4 [64, 64]
00000000: 679e 05bb 0bb8 0e3b 8ba1 dfba 4b39 113b
00000010: 4acc 40bb c422 243c f28b 86bb b99b 873b
00000020: 3d13 993b 7003 c23a 5ba8 1e3a 6e29 f8bb
00000030: 0c51 08bb a629 0e3b d329 f53a 05b3 253a
00000040: c479 073a 6549 273a b3b4 ddba 0422 94bb
00000050: e78b fd3a 5492 e0ba 3e61 8d3b e854 e2bb
00000060: ec84 873b 9da7 c13b 8f33 dc3a e8e4 a43b
00000070: b429 c33a bf82 d53b f5d3 84ba 5c6b 2f3b
00000080: d73e 9fbb e6b9 143b 1906 2839 9079 a03a
00000090: 8922 893b 836c 96ba 8190 cd3b 8fe1 763b
000000a0: f3b6 b73a 62e7 7e3a de3b 9b3a 5f42 783b
000000b0: 174b 8f3b 03e1 133b ea8b 413b fa50 b5ba
000000c0: e1a2 feba a9da 913a fbb0 943a 4064 adbb
000000d0: f62e 5bbb 9839 c73a 8e79 ce3b f53f e9ba
000000e0: 47a9 5b3b f63b 073b 4967 6c3b e002 903b
000000f0: 807d 023a 59de 883b 7c3e 9bba b065 a639
00000100: 1879 ce3a 47b6 8cbb 0a28 4db9 3258 deba
00000110: 953e ab3a 101e 193a 0678 9f3a 496d 0ebc
00000120: 2fdf 2abb 2491 abba 8d06 9738 88b3 86bb
00000130: 9d65 2ebb 6fe1 eb3b 0f39 db3a c7f8 b43a
00000140: 576c a6b8 0b2c c9ba 7ff3 4b3a 64f6 c23a
00000150: 5426 a5ba 69b6 2fbb 87e1 e6bb de4f 683b
00000160: 7ca8 e7bb 785b d1bb 6bb0 6a3b 9bde 14bc
00000170: 5ea2 833b b38a a83b 7072 abba c889 1dba
00000180: 6168 4c3b 7d21 1039 bb88 02bb d6dc 8cbb
00000190: 7848 1cbc 19f7 8ebb d2f5 94bb 4129 e8bb
000001a0: 6c05 843a 84b4 8dbb 550e eeba 8c65 1abc
000001b0: 4c93 fcbb e13e 0039 12f2 243b 2000 73bb
000001c0: 6203 04bb f97c 273a 2e30 f9ba c6ec f4bb
000001d0: 5814 1abb 45f0 65ba a723 eabb e1d0 a8bb
000001e0: c1ed 1abc 6acb d539 47fc 09bc 8b82 f3bb
000001f0: fa81 1b3b 9e7d fcbb e164 8db9 79bc 7e39
00000200: 0064 48b9 d14e 143b d896 71bb fc37 0abb
00000210: 43b0 3c3b 3390 833a c0b5 443b bb2d 92bb
00000220: 5be4 373a 86ad fbba b137 3fb9 455b d3ba
00000230: d6a7 12ba 104a de3a a8b3 8e3a 03de 9039
00000240: 2ab4 353b 9c93 22ba 7fc0 303a eb42 8039
00000250: c5a4 793b 44b2 02ba 0a0f 5cbb 3528 d13b
00000260: dcd0 55bb 06a6 7fbb eb67 893a 976d a9bb
00000270: 5937 37bb cbb6 b33b 3690 ab38 d663 973b
00000280: ea6e b1b8 2ff8 e1ba f750 1dbb 11bf 00ba
00000290: 508c 97bb b305 7eba 3082 80bb 10ad 63bb
000002a0: 64c5 38bb 89fc b3ba 6d63 8aba de34 84bb
000002b0: 2de7 02bb 2766 553b 9e70 3d3a 4c48 003b
000002c0: 5b29 e9ba a2d7 47bb fe2c 86ba 1ea2 b23b
000002d0: e31f cb3b 88af bd3b 1aa1 6dbb 1945 fd3a
000002e0: 9af6 44bb b80d 8d3a 7f4a 7fbb 6ef8 69bb
000002f0: 5ae2 69ba 00ab 92bb 63de 59ba b462 043b
00000300: fbce 56b9 66d0 8038 6426 be39 708e 32ba
00000310: a1ce 383b 9ffd 3b3c a244 3e3a ae56 723d
00000320: 14e2 d93a cc0b 1439 41f6 483b db35 5dbb
00000330: 710b 963a cc3e 2abc 59d4 94b9 162e da3a
00000340: 0734 c63a b460 4e3c a797 5db9 9a1f a93a
00000350: fd66 49bb 1bee 61ba 7e27 633d 5628 7cbb
00000360: 2c5d 5f3d bbcb 6f3d 8dbb 0639 21f2 763d
00000370: 230e 75ba 007d ffbb c9fc 073b fa30 4eba
00000380: 4ab2 cab9 d023 2a3b b91e 3d3b df9a 723d
00000390: 93c0 793d 9fdc 93ba 1d62 733d 410d 763d
000003a0: 8cc6 1bba 49bc 0f3b db9c 783c 059a 783d
000003b0: 15a3 7d3d 6d35 c43a e764 db3a 94ef 853b
000003c0: 1c1c a33a f180 ee3a da7f 913c 6580 ad3b
000003d0: bb9c 41bb e074 333b 23fc 773d 85c7 6abb
000003e0: 4faf 803d 4001 54b9 c32d 783d c872 6c3d
000003f0: e487 bb3b 4e90 723d 29b9 0db9 505b 043c
-0.0020388605 0.0021777179 -0.0017061693 0.0022159393 -0.002941864 0.010018054 -0.0041060383 0.0041384366
0.004671483 0.001480205 0.00060523086 -0.007573298 -0.002080026 0.0021692305 0.0018704481 0.00063209265
0.0005167986 0.0006381481 -0.0016914814 -0.0045206565 0.0019344062 -0.0017133453 0.0043145707 -0.0069070943
0.0041357186 0.0059098736 0.0016800034 0.0050321706 0.0014889748 0.0065158303 -0.0010133969 0.0026766872
-0.004859786 0.0022693812 0.00016024 0.001224326 0.004185025 -0.0011476431 0.0062733297 0.0037671064
0.0014016315 0.000972381 0.0011843403 0.0037881357 0.004372965 0.0022564537 0.0029532858 -0.0013833337
-0.0019427204 0.0011127788 0.0011344248 -0.0052914917 -0.003344474 0.0015199659 0.0063011115 -0.001779555
0.0033517645 0.0020635105 0.0036072305 0.004394874 0.00049778074 0.0041768965 -0.0011844183 0.0003173775
0.0015752641 -0.00429419 -0.00019565239 -0.001696354 0.0013064916 0.00058409665 0.0012166507 -0.008693048
-0.002607297 -0.001308952 7.201461e-05 -0.0041107573 -0.002661086 0.0071985046 0.0016725379 0.0013807052
-7.935677e-05 -0.0015348209 0.0007780119 0.0014874456 -0.0012599924 -0.0026811606 -0.007045928 0.0035447995
-0.0070696454 -0.0063890778 0.003581072 -0.009086276 0.0040171584 0.0051434874 -0.001308037 -0.0006009606
0.0031190144 0.00013745386 -0.0019917923 -0.0042987866 -0.009538762 -0.0043629524 -0.0045459056 -0.007084996
0.0010072417 -0.0043244977 -0.001816223 -0.009423625 -0.007707989 0.00012230455 0.00251687 -0.0037078932
-0.0020143618 0.0006389167 -0.0019011551 -0.0074745147 -0.002351066 -0.00087714597 -0.0071453634 -0.0051518534
-0.009456099 0.0004077808 -0.008421964 -0.0074313334 0.0023728595 -0.0077054044 -0.00026968776 0.00024293539
-0.00019110739 0.0022629986 -0.0036863592 -0.0021090498 0.0028791584 0.0010037482 0.0030015558 -0.004461018
0.00070149236 -0.0019201494 -0.00018235926 -0.0016125223 -0.00055944675 0.0016959328 0.0010887282 0.00027631232
0.0027725794 -0.0006201805 0.00067425513 0.0002446392 0.0038092595 -0.000498567 -0.00335783 0.006382967
-0.003262571 -0.003900887 0.001048324 -0.005170535 -0.0027956574 0.005484437 8.180777e-05 0.0046200557
-8.460677e-05 -0.0017240102 -0.0024004558 -0.00049112836 -0.004624881 -0.00096901803 -0.0039217696 -0.0034740604
-0.0028193826 -0.0013731878 -0.0010558196 -0.0040346226 -0.0019974217 0.0032562108 0.0007226559 0.0019574342
-0.0017788814 -0.0030493517 -0.0010236797 0.005451455 0.0061988696 0.005788747 -0.0036259354 0.0019322961
-0.0030054213 0.0010761535 -0.0038954315 -0.0035701054 -0.00089219736 -0.004475951 -0.0008311031 0.0020200433
-0.00020485737 6.142333e-05 0.00036268227 -0.0006811386 0.0028199332 0.011474042 0.0007258152 0.059164695
0.0016623163 0.00014118775 0.0030664357 -0.0033754024 0.0011447502 -0.0103909485 -0.0002838697 0.0016645815
0.0015121707 0.012596298 -0.00021132697 0.0012903095 -0.0030731552 -0.00086185493 0.055457585 -0.003847619
0.054532215 0.058543902 0.00012849104 0.060289506 -0.0009348115 -0.0077968836 0.0020750037 -0.00078655744
-0.00038661278 0.0025961287 0.0028857423 0.059229728 0.06097467 -0.001128096 0.05941974 0.060071234
-0.00059423666 0.0021932295 0.015174116 0.06069376 0.061923105 0.0014969535 0.0016738445 0.004087398
0.001244429 0.0018196387 0.01776116 0.005294847 -0.0029542882 0.0027382895 0.06054319 -0.003582449
0.062834375 -0.00020218361 0.060590517 0.05772665 0.0057229865 0.05921965 -0.00013515785 0.008078411

model.6.bias f4 [64]
00000000: 544c 8c3a 3b06 4bbb a2b0 a7ba a800 013d
00000010: b596 0a3a fb9a 0bba 3dfa 113d 34e6 82ba
00000020: 9053 ddbc 6314 0e3d 53ca ee3c 0717 3a3b
00000030: a12d 073c 4f8f aeba 68c0 f2bc 60f5 edbc
00000040: 52a4 abba 9bf0 9b3b 9ffc a039 9594 cabc
00000050: 5d28 173d 4e59 033d 5e45 1d3d 516c 20ba
00000060: 8824 1cbd 52b5 dfbc 02ef c53a cfef 8f3a
00000070: fb92 bbbb 8932 1c3d 2fc0 bd3a be16 e83a
00000080: 1765 be3a d4e9 b73a d417 ff3c 6ba2 0cbd
00000090: 5ec8 20bb 4ffd 08ba cd61 06bd cf45 c33c
000000a0: 247e 113b 91d9 71ba ac84 39b9 9385 703a
000000b0: 1678 0bbd 6569 27bb e97c 313d 8d4d f93c
000000c0: 795b 783d 2570 07bd 51e1 873b 1df8 3839
000000d0: a57b a23b aca0 503d 08b8 5fba 1d4c 8dba
000000e0: c151 66ba 14a7 bd39 b206 d3bc f3fd f93a
000000f0: 1aa6 86ba f947 023d 25d8 19bd 5067 113d
0.00107039 -0.0030979055 -0.001279373 0.031494766 0.00052867393 -0.0005325523 0.035639036 -0.0009986819
-0.027017385 0.03468741 0.02914921 0.0028395073 0.008250625 -0.0013317856 -0.029632762 -0.029047668
-0.0013095236 0.004758907 0.00030705796 -0.024729053 0.036903728 0.03206759 0.03839623 -0.0006119656
-0.038120776 -0.02730814 0.0015101137 0.0010981503 -0.0057243085 0.03813413 0.0014476831 0.0017706973
0.0014525977 0.0014031478 0.031139292 -0.03433458 -0.002453349 -0.0005225734 -0.032808114 0.023836998
0.002220043 -0.00092258403 -0.00017692399 0.00091751775 -0.03405007 -0.0025544998 0.043332014 0.030432487
0.06063411 -0.033065934 0.004146733 0.00017640037 0.0049585872 0.05093448 -0.00085341977 -0.001078013
-0.0008785986 0.00036173372 -0.025760029 0.0019072875 -0.0010272891 0.03180692 -0.037559647 0.035498917
