CSSRS/RSIMDCL/checkpoint/pore2background_5_5rsim/latest_net_F5.pth (torch, 44759 bytes, 6 tensors)

model.0.weight f4 [64, 4, 3, 3]
00000000: 2c69 9ebd 221b 75bc 86ab 5ebd b7c6 d5bd
00000010: 4965 1bbd 8b4f 9cbd 4a7b 94bd 22a5 0fbd
00000020: a0b5 40bd 4478 7c3c 706a 983d e227 0139
00000030: 81ce 603c 6039 d23d 61a2 e6ba 8052 923c
00000040: d20c 983d c452 ad3a 3e31 733d 2fc7 1ebd
00000050: d0f8 803d 6fc7 243d d215 7cbb 30c1 2f3d
00000060: 8eb3 833d 83d4 1fbd 1617 883d aef5 eebd
00000070: 5e83 19bc 1fa8 00be 3695 79bd c7e5 20bc
00000080: e01c 6ebd 1cd8 ddbd ee4e 8e3b e9c3 07be
00000090: e342 7bbd acee 21bd e0c7 15bd 4121 bebd
000000a0: e3b7 3ebd 4e78 8abd e3d8 82bd dcf4 32bd
000000b0: cec6 21bd 742a cb3c 41e7 a33d d1ed 883b
000000c0: 249e 623c 93dd b13d b32d ddbb 230f bc3c
000000d0: 0ee1 863d 5d5a 2f3c bfc7 5f3d 9a05 6cbc
000000e0: 47e1 803d dc20 363d 9247 90bc 9ae1 233d
000000f0: f870 653d 38b1 58bc 1fe2 8e3d bcb9 d5bd
00000100: 7b2a 53bc a934 d7bd ab9f 4cbd 6aca e0bb
00000110: 6317 85bd 2cda c6bd 282b 66bc b72c dcbd
00000120: 02af 99bd 214e f6bc 88b4 51bd 3125 b4bd
00000130: bfa7 44bd fa06 8ebd 4656 8abd 395f 2ebd
00000140: 6d6f 34bd 8b66 453c 5929 b53d 6a18 8cbb
00000150: c86f c6bb d321 c43d 0645 25ba 62cd ea3b
00000160: 5011 b03d cabe 03bc 19b8 933d 3749 13bd
00000170: 4dbf 853d 80ea 293d c418 a7bc d08a 1a3d
00000180: aa73 823d 1e98 d3bc dd36 8d3d 16b5 0bbe
00000190: 324b 13bc f9b8 eebd 142c 9fbd e5c2 28bb
000001a0: d1bf 83bd f226 00be 77c6 25bc 9bf8 fabd
000001b0: 893f 80bd 7828 9ebc a0bd 22bd 0399 bfbd
000001c0: e691 cebc 6dda 8fbd e685 84bd 97b2 a8bc
000001d0: 4dc2 2cbd c253 f63c a2ad 7a3d e977 9d3c
000001e0: ad10 973c 1abc c03d 8d43 6a3c 1d04 d33c
000001f0: c443 743d 60e4 953c 4a6e 803d 693e 11bd
00000200: 7d29 853d 3318 383d e6ed 7abc 2ce0 3a3d
00000210: c3bf 8b3d 1b18 06bd 4fda 8f3d 9696 e7bd
00000220: a114 86bb 6646 e6bd 2005 7ebd 4e42 46bb
00000230: 5eed 7ebd 778f f4bd ed31 423b 7067 e8bd
00000240: 411b 8cbd 8a9a a1bc 4a55 24bd d07e c4bd
00000250: e44f 9abc ccb5 8fbd f219 8dbd 429a b2bc
00000260: ba15 2dbd 5277 bc3c 2dfc 983d 0147 043c
00000270: 1641 793b 75c3 c83d 9323 d83b 7311 b33c
00000280: 76fd 923d f7b0 4d3c 4732 473d 439f 3fbd
00000290: 9def 853d 1d78 fc3c 5b25 b4b9 5552 0d3d
000002a0: 9e5e 593d 7e7b 2fbd 11f4 803d 24b9 e0bd
000002b0: 1855 82bc 24da fdbd ca74 85bd 5b47 773b
000002c0: 5c62 9cbd 1366 efbd 9e98 943b b83a fcbd
000002d0: ed7b 5ebd 4a35 98bc 2d3c 46bd 2e53 aabd
000002e0: 5ff3 02bd b5f5 72bd 9db1 60bd 6111 05bd
000002f0: aae6 eebc 7caa a33c 6e16 833d 9689 613c
00000300: 130b 4f3c 91ba a83d 2d21 eb3b 7ee5 c23c
00000310: 056f 883d 15f4 323c f9c0 153d d906 f5bc
00000320: 56a3 333d 7edc b23c 734b 19bc 5809 343c
00000330: 2691 2a3d 5088 d3bc 4bab 413d a96a d6bd
00000340: 719f a6bb f8fe dabd c67f 86bd 053c 64bb
00000350: a70e 7abd de43 c0bd f1c6 b8bb 9cce fabd
00000360: c53b 4ebd 71b3 d4bc 1c31 1dbd ed1d d0bd
00000370: cdc6 c9bc 1bdb 8ebd d02d 9ebd 89fa cdbc
00000380: acaf 26bd e0af bf3c a4b4 963d a3ec 533c
00000390: 1156 23bb cb30 c13d 49ab 73ba 411f d23b
000003a0: 65cc 9e3d b60d 883b 28f8 2d3d 5f0e f8bc
000003b0: 1ed1 473d 4bd0 983c 1549 51bc 4daf c73c
000003c0: 6a24 4d3d 8b64 b8bc a9d2 7e3d 5d26 02be
000003d0: 8276 dcbb 8fd1 fcbd bc88 8ebd 49c5 433a
000003e0: df09 53bd 5bb2 febd 60b8 d6bb 2ccf 04be
000003f0: e305 4cbd e3e3 debb b7db ccbc 035c a2bd
-0.07734904 -0.014960082 -0.054362796 -0.104382925 -0.03793839 -0.07632359 -0.07250078 -0.035069592
-0.04704821 0.015409533 0.07442176 0.00012317256 0.013721109 0.1026485 -0.0017596 0.017861605
0.0742432 0.0013223519 0.059373133 -0.038764175 0.06297457 0.040229257 -0.0038465154 0.042908847
0.06430732 -0.039021026 0.06645028 -0.116679534 -0.009369699 -0.12564133 -0.060933314 -0.009820408
-0.058133006 -0.10832235 0.0043429052 -0.13258328 -0.061343085 -0.039534256 -0.03656757 -0.092836864
-0.046562087 -0.067612275 -0.06389024 -0.043690547 -0.039496236 0.024800517 0.080030926 0.0041787405
0.013831649 0.0868484 -0.0067498325 0.022956436 0.065858945 0.010702697 0.054633852 -0.014405632
0.06292968 0.04446493 -0.017612252 0.040010072 0.05601594 -0.013225846 0.06976723 -0.10435817
-0.012888546 -0.10508091 -0.04995696 -0.006860067 -0.06498601 -0.09709582 -0.014048375 -0.10750716
-0.07504083 -0.030066552 -0.05119756 -0.08796156 -0.048011538 -0.069349244 -0.067547366 -0.04257128
-0.044051576 0.012048374 0.08845777 -0.0042753713 -0.006055806 0.09576764 -0.0006304536 0.007165597
0.08597052 -0.008041093 0.07212848 -0.035958495 0.06530628 0.041483402 -0.020397551 0.03773004
0.063697174 -0.025829371 0.0689523 -0.13643298 -0.008990096 -0.116563745 -0.07772079 -0.0025750932
-0.064330705 -0.12514856 -0.0101181185 -0.12254449 -0.06262118 -0.019306406 -0.03973162 -0.093553565
-0.025216054 -0.07024083 -0.064708516 -0.02059297 -0.042177487 0.030069236 0.061200745 0.019222217
0.018440569 0.094108775 0.014298332 0.025758797 0.05963494 0.018297374 0.06271036 -0.03545991
0.06502054 0.044944953 -0.0153155085 0.045623943 0.06823685 -0.032737833 0.07024061 -0.11308019
-0.0040918146 -0.11243896 -0.062016606 -0.0030251923 -0.06223809 -0.11941426 0.002963181 -0.11347854
-0.06841136 -0.01972701 -0.0401204 -0.095945 -0.018836923 -0.07017097 -0.06889714 -0.021802071
-0.04225705 0.023006115 0.07469974 0.008073569 0.003803318 0.098029055 0.0065960377 0.021858906
0.0717725 0.012554399 0.048631933 -0.046782743 0.06539843 0.030818993 -0.00034360107 0.034502346
0.05306875 -0.04284238 0.06296552 -0.10972813 -0.015909716 -0.12395123 -0.06516416 0.003773174
-0.07635948 -0.11689391 0.004534795 -0.12315887 -0.054317404 -0.018580098 -0.04839723 -0.083166465
-0.031970378 -0.059316356 -0.054856885 -0.032487277 -0.029162724 0.019978754 0.064007625 0.013765713
0.012636918 0.0823871 0.0071755857 0.023791071 0.066618 0.0109224515 0.036560986 -0.029910492
0.04385694 0.021833654 -0.009356367 0.010988556 0.04164233 -0.025821835 0.0472825 -0.104695626
-0.005084925 -0.10693163 -0.065673396 -0.0034825813 -0.06104913 -0.09387945 -0.00563895 -0.12246439
-0.05034997 -0.02596447 -0.038376912 -0.10161958 -0.024630928 -0.06975385 -0.07723582 -0.025143879
-0.040694878 0.023399293 0.07358673 0.012934837 -0.0024923126 0.09433135 -0.0009295238 0.006412417
0.07753829 0.004152025 0.04247299 -0.03028029 0.048783414 0.01865401 -0.012773772 0.024375582
0.050083555 -0.02250888 0.06221262 -0.12709947 -0.0067279944 -0.12344658 -0.06959674 0.00074680574
-0.051523086 -0.12436362 -0.006552741 -0.12969655 -0.0498103 -0.0068020686 -0.025007112 -0.07927706

model.0.bias f4 [64]
00000000: 18b1 6d3f 7d71 683f f51a 773f 9f37 643f
00000010: 28ab 673f 7421 573f b87d 623f a635 4b3f
00000020: abbf 4c3f 7bd3 603f af74 713f a1db 603f
00000030: 7827 2b3f 3e4f 603f 9abd 7a3f 7dbd 593f
00000040: 33a5 693f d87e 613f 4f8f 573f 6e87 4c3f
00000050: 2ae4 643f e409 603f 3828 713f 82f0 653f
00000060: 677c 623f 98ee 633f d33b 6b3f f863 6b3f
00000070: 3044 673f 7e65 5e3f 23f9 ab3e 5a25 583f
00000080: 38ad 3b3f 471f 563f 32f8 643f 8453 593f
00000090: 43f0 683f 05f1 663f c9c8 4d3f 231d 5f3f
000000a0: b028 5b3f 8eb0 603f 1f43 6f3f 73b1 733f
000000b0: aabd 5c3f c2e0 583f 3ba2 583f 8234 643f
000000c0: 4840 6b3f b3a5 5e3f f158 613f 4fd0 603f
000000d0: 81dd 523f 5a20 453f 7494 393f b866 513f
000000e0: 5963 733f cd03 523f 2243 623f 5fa8 543f
000000f0: 98b4 6a3f 0925 4c3f 2fee 623f ba34 643f
0.9284835 0.9079817 0.9652551 0.8914737 0.9049554 0.8403542 0.8847308 0.79378736
0.7997996 0.87822694 0.9431867 0.8783513 0.668571 0.87620914 0.9794556 0.8505476
0.912677 0.88084173 0.84203047 0.7989415 0.8941065 0.8751509 0.94201994 0.8982011
0.8847107 0.8903594 0.9188816 0.91949415 0.9033842 0.86873615 0.33588514 0.84431994
0.73311186 0.83641475 0.89441216 0.8489306 0.9099161 0.90211517 0.803845 0.87153834
0.8560896 0.877694 0.93461794 0.9519264 0.86226904 0.84717953 0.84622544 0.8914262
0.9189496 0.86971587 0.8802634 0.87817854 0.8236924 0.7700249 0.72492146 0.8179736
0.9507347 0.8203705 0.88383687 0.83069414 0.91681814 0.7974401 0.8864469 0.89142954

model.4.weight f4 [64, 64]
00000000: c542 e639 2596 46ba b947 5bb9 8c2c 183a
00000010: a3e4 6b3a 35f8 f13a 7812 f03b 10ea 38bb
00000020: 9cce 2eb8 a0be 8ebb 758e 753a 5d38 65bb
00000030: e6c8 3bbb 4b27 e4b7 54f2 4a3b 2d86 9eb9
00000040: b847 adbb 1b7f 96ba 92d2 c7ba ca30 2bbb
00000050: 0d09 b33a 0bcb 2bbb 0bae 873a b91b 8ebb
00000060: b3f7 a739 c51c 3fbb b750 85bb 90fd 25ba
00000070: 48bd 9036 caf5 98ba 6085 07bb 2ee6 9bbb
00000080: 4a86 0839 a12c 9238 f458 c43b 3c15 a73a
00000090: 2bcb 6db9 f2ec 39bb de59 6fba 66e8 1f3b
000000a0: e4e2 12bb cb57 4dba 2d02 9aba 7791 91bb
000000b0: 4a5d 62ba 81c9 853a 5b08 ecba 2a48 aeba
000000c0: ebec 7fbb 58b5 4fba 45f4 273b 370d 893b
000000d0: 8438 3abb 2472 bb3a 0975 8dba a013 da3a
000000e0: 08c0 80bb fd1c 6cbb e7ce bdba 8fc2 12ba
000000f0: 1376 b63a b0f8 df3a 524c be3a 04f2 a13a
00000100: 1ffa 0e3b 2536 c9ba 3fea 763a 673c 1bb9
00000110: b906 273a f532 8b3b c032 86b9 b85d 03ba
00000120: cfc4 8dbb 1e8a 513a 99ad 4aba 4c07 b63b
00000130: 464c 73b9 7c61 263b a7a3 1bbb 3086 23bb
00000140: dfe8 05bb b66e 94bb 47b6 7aba 12c5 293b
00000150: a2c8 053b a486 133a 4523 333b b467 8939
00000160: 34e9 caba 4cb8 87bb a027 27bb dc71 7f3a
00000170: aef3 a4b9 36f0 0bba 8bae 5739 7ed6 8dbb
00000180: 8c7d 61ba e964 933a b21e 7ebb 25b4 9cbb
00000190: f119 4cbb 671b 3cbb cbaa 52bb 3935 923b
000001a0: 5bbf a0bb 08b1 b2ba c2cc a93a 52b7 73ba
000001b0: 3f25 02bb 5b66 4cbb a7e7 1abb 2828 083b
000001c0: 8e4e 4dba fa61 42bb d981 4fbb 5be8 a6bb
000001d0: e6fd 2ebb 87b7 d7bb eba4 69bb 4bc9 68bb
000001e0: 6bd9 b0bb 789f 7b3b 32e6 4ebb 4522 27b8
000001f0: 1676 52bb 70b5 c6bb 6951 06bb 1f60 183b
00000200: 4c4d feba 4b41 363a 90d9 573b 994e 163b
00000210: 2dea 8bbb 46e9 96ba b2ed e93a 6b1d 49ba
00000220: 6f76 843b 2532 6fbb 1528 9bba aed0 4bbb
00000230: b451 8038 efa1 3f3b e956 c939 1b6a c2ba
00000240: 4abc c73a 4987 58ba acee 7aba ca73 c13a
00000250: 49c9 013b 5daa 38ba c96b 03bb 5967 5f3a
00000260: 78a1 4dbb b4c5 e039 a921 a5b9 3b4c 6fbb
00000270: 0ed9 003b 225d 11ba db6e 04bb c3e8 6abb
00000280: e777 793a 31e0 a0bb 90e7 833a 666a a5b9
00000290: b6ca 2a3a 14ac 393a b9e0 1eba 571b b1b9
000002a0: 9d2b b0bb 0777 25bb 86b7 80b8 a635 b03a
000002b0: 509a 6fbb db90 e3ba e401 a7ba 9799 b4ba
000002c0: eda5 8abb b99d 01bb 2d0f 2fbb 66c4 9cbb
000002d0: 49a9 153b 4bc7 353b 8ec3 b93a 1219 803b
000002e0: 4c72 e0ba 24aa c53a e5ed 77bb 47ea 483a
000002f0: 7dcb 713a 16b2 10ba be0f 17bb e7c8 3e3b
00000300: 44f7 95ba 5c68 0f3b 1c84 953b e3b2 a9b9
00000310: bb45 1b3b e591 9fb8 5638 e1b9 7187 c339
00000320: 05b0 34b9 907a ed3b 9fcc 113b 54ab 90bb
00000330: ea05 87ba b8b4 1f3b 800e fcba 12fd 993a
00000340: 0416 80bb 3bc5 33ba a5b4 d53a fcb9 8539
00000350: d0a5 daba 3996 a6ba 5942 a5ba 6f37 27bb
00000360: 65a6 27ba 6045 87bb 27ce 303a 8f72 cf3b
00000370: 9e7d fcba 4129 21ba a844 9439 9dfd 06bb
00000380: 44c5 23bb d0e2 3f3a 6977 e9ba 77b2 a6ba
00000390: 99a6 72bb 4fab 133b 0851 3fb9 bd51 1abb
000003a0: 381e ab3a 5c4c a2b9 f113 083a 2dc1 bbbb
000003b0: 12b6 053b 6776 d339 4947 5eba 04b9 aabb
000003c0: 8c31 76ba b2e9 8a39 cce2 71ba de29 29bb
000003d0: 851a 453b 0004 8c3a 8b81 52b9 a713 7e3a
000003e0: 00a0 c4bb d372 4d39 78da ef39 8fe9 0bbb
000003f0: 34fc 723b 2cff 30bb 0cd6 823b f1b8 e33a
0.00043918766 -0.0007575474 -0.00020912186 0.0005804978 0.0008998608 0.0018460812 0.0073264204 -0.0028215684
-4.1677253e-05 -0.0043562204 0.0009367236 -0.0034976222 -0.002865368 -2.7198015e-05 0.0030967193 -0.00030236077
-0.0052880906 -0.0011481972 -0.001524525 -0.002612161 0.0013659314 -0.0026213552 0.0010351551 -0.004336801
0.00032037272 -0.0029161435 -0.00406846 -0.0006332034 4.3135697e-06 -0.001166993 -0.0020678863 -0.004757664
0.00013019997 6.970135e-05 0.0059920494 0.0012747417 -0.00022677767 -0.002836999 -0.0009130518 0.0024399995
-0.002241307 -0.00078332116 -0.0011749916 -0.0044423896 -0.0008635117 0.0010207148 -0.0018007861 -0.0013296653
-0.0039051126 -0.00079234457 0.0025627774 0.0041824835 -0.0028415034 0.0014300984 -0.0010792325 0.0016637929
-0.003929142 -0.003602802 -0.0014481217 -0.00055984495 0.0013920687 0.0017087664 0.0014518595 0.0012355451
0.0021816564 -0.0015351219 0.00094190607 -0.00014804454 0.0006371546 0.004248018 -0.00025596283 -0.00050112186
-0.00432644 0.00079932983 -0.00077315565 0.005555069 -0.000232027 0.0025387695 -0.0023748667 -0.0024951808
-0.0020432991 -0.0045297993 -0.00095639046 0.0025904817 0.0020413776 0.0005627668 0.0027334255 0.0002620794
-0.0015480877 -0.004141843 -0.0025505796 0.00097444444 -0.00031462073 -0.00053382234 0.0002056902 -0.004328548
-0.0008601777 0.0011245284 -0.003877562 -0.004782217 -0.0031143392 -0.0028702857 -0.0032145258 0.004461911
-0.004905624 -0.0013633082 0.0012954699 -0.0009297031 -0.0019858626 -0.0031188938 -0.002363661 0.0020775888
-0.0007831835 -0.002966045 -0.0031663089 -0.005093617 -0.0026701628 -0.0065831575 -0.0035651277 -0.003552037
-0.005397012 0.0038394611 -0.0031570313 -3.984782e-05 -0.0032113842 -0.0060641095 -0.0020495302 0.0023250652
-0.0019401698 0.00069524784 0.0032936074 0.0022935031 -0.0042698593 -0.0011513613 0.0017847328 -0.0007671925
0.0040424387 -0.0036498394 -0.0011837507 -0.0031099725 6.118734e-05 0.0029240807 0.0003840246 -0.0014832647
0.001523861 -0.0008259905 -0.0009572308 0.0014759239 0.0019803813 -0.0007044429 -0.0020053259 0.0008522175
-0.003137676 0.0004287191 -0.0003149633 -0.0036513943 0.0019660625 -0.0005545189 -0.0020207677 -0.0035844303
0.0009516463 -0.004909538 0.0010063518 -0.00031550525 0.00065151916 0.00070828316 -0.0006060708 -0.0003378044
-0.005376293 -0.0025247948 -6.1376995e-05 0.0013443723 -0.0036560483 -0.0017361896 -0.0012741652 -0.0013778683
-0.0042312057 -0.0019777848 -0.0026711926 -0.0047841547 0.0022836498 0.0027737196 0.001417266 0.0039092386
-0.0017123907 0.0015080613 -0.0037831005 0.00076643046 0.00092237425 -0.0005519701 -0.0023050155 0.0029111446
-0.0011441489 0.0021882271 0.004562868 -0.00032367473 0.0023692686 -7.608886e-05 -0.00042957318 0.0003729421
-0.0001723171 0.0072472766 0.0022247208 -0.004414955 -0.0010301445 0.0024369191 -0.0019230396 0.0011748394
-0.0039088745 -0.0006857698 0.0016304447 0.00025506306 -0.0016681496 -0.0012709565 -0.0012608274 -0.0025515219
-0.0006395339 -0.004128143 0.0006744586 0.006330795 -0.0019263511 -0.000614781 0.00028279913 -0.0020597943
-0.0024989406 0.00073198695 -0.0017812076 -0.0012717982 -0.003702557 0.0022532528 -0.00018245366 -0.0023547255
0.001305527 -0.0003095594 0.000519096 -0.0057298155 0.0020402712 0.00040333273 -0.000847925 -0.005210044
-0.00093915383 0.00026495528 -0.0009227216 -0.0025812308 0.0030075621 0.0010682344 -0.00020075419 0.00096922595
-0.006000519 0.00019593099 0.00045748404 -0.0021348929 0.0037076594 -0.0027007563 0.0039928015 0.0017373842

model.4.bias f4 [64]
00000000: 0000 0000 147b 8bba 0000 0000 a18d d2b9
00000010: 2249 d3b9 6caf 81bb 0000 0000 0000 0000
00000020: a18d d2b9 2149 d3b9 a28d d2b9 3e30 e63d
00000030: 4d85 3cba 0000 0000 0000 0000 0000 0000
00000040: ed87 a439 8372 efb9 d2b9 1c3d 0000 0000
00000050: ca0a 96ba 2286 853c 9d6c afba 7255 153e
00000060: b429 02ba 0000 0000 a28d d2b9 c867 133e
00000070: db29 a5bb 0000 0000 a28d d2b9 0000 0000
00000080: 0000 0000 aa2c bfba 4dbd b1ba a28d d2b9
00000090: 2149 d3b9 0000 0000 2249 d3b9 67c0 e23d
000000a0: a28d d2b9 f728 46ba 0000 0000 a18d d2b9
000000b0: 0000 0000 a840 4aba 0000 0000 cc64 0c3e
000000c0: 2ee0 beba a28d d2b9 f293 dbb9 7900 92b9
000000d0: 02c9 5cb9 a28d d2b9 2149 d3b9 28c3 d639
000000e0: cd2a ccba 0000 0000 a38d d2b9 1db1 b4bb
000000f0: a28d d2b9 592c 0eba 0000 0000 bc81 e739
0.0 -0.0010641539 0.0 -0.00040159843 -0.00040299544 -0.0039576795 0.0 0.0
-0.00040159843 -0.0004029954 -0.00040159846 0.1123967 -0.0007191494 0.0 0.0 0.0
0.0003138179 -0.0004567095 0.03826315 0.0 -0.0011447307 0.016299311 -0.001338381 0.14583376
-0.00049653207 0.0 -0.00040159846 0.14395058 -0.00504039 0.0 -0.00040159846 0.0
0.0 -0.0014585454 -0.0013560444 -0.00040159846 -0.0004029954 0.0 -0.00040299544 0.11071854
-0.00040159846 -0.0007559205 0.0 -0.00040159843 0.0 -0.0007715323 0.0 0.13710326
-0.001456266 -0.00040159846 -0.00041881163 -0.00027847642 -0.00021055716 -0.00040159846 -0.0004029954 0.00040962663
-0.001557672 0.0 -0.0004015985 -0.0055142776 -0.00040159846 -0.00054234784 0.0 0.00044156413

model.6.weight f4 [64, 64]
00000000: fb80 b33b 14d9 58b9 daa2 81ba 4a0b ef38
00000010: 5d72 b73a ad93 ae3b d059 82bb a241 7739
00000020: 1944 8f3a 6b8d 9a3b e853 bcb9 4264 4a3d
00000030: d34d f33c 531e ccba a940 8c3b fb9b 23bb
00000040: 9f7e 323c 1f02 04bb b57f 433d 44fe db3a
00000050: d024 033d fd28 4b3d f6de 3239 da11 4d3d
00000060: f2fb bc3a ea90 26bb 9407 fe3a 556a 543d
00000070: 0fcc 8138 0671 8539 c144 f93a 323e a13a
00000080: fea3 fb39 b3d4 8a3b 68fb adba d1d6 c439
00000090: 0518 d8ba 439b 6cba 15e0 f439 2b39 533d
000000a0: e060 813b 2c6a 4dbb 19c7 693a e714 f43a
000000b0: 86e4 e8ba 9219 5ebb 6085 8eb8 5bcf 4d3d
000000c0: fc33 2c3a 6a83 9aba 9b2b 8cba 11c6 28ba
000000d0: 6032 fcba c4f5 4eb8 97d4 113b 553c 5c3c
000000e0: 5016 453c b26f 7e3a b3af a9bb 958d 08bc
000000f0: eaa3 183b 1c9b 0fbb 0d13 193b 231a 743c
00000100: ec18 23bb 9f6f ecb9 9476 ecba d565 31ba
00000110: 2df8 6bbb 8e0d b3b9 0e47 9fbb 7000 153b
00000120: c1be 283b 7d1f a7ba 2f98 0abb 641c 773d
00000130: 71d6 143d 74e2 483b 4403 22bb 8343 203b
00000140: 806d 673c 1298 863a 004f 693d 34ee 0ebb
00000150: d928 213d 2a5b 723d a1d7 30bb 4422 743d
00000160: 8783 7ebb 23ac 9bbb 3308 053b 36c5 813d
00000170: 385d 383b 19bf 13bb 270c 963a d520 36bb
00000180: 77e6 053a 4a98 223b cb71 b43a 53bb 403a
00000190: 4fd8 6ebb 4b3a daba 8adc a73a 787d 803d
000001a0: ef9e 30bb facc f3ba 1ee9 263b cc29 fc3a
000001b0: b6c7 1bbb 240b d239 649c 4dba fd73 7d3d
000001c0: d657 99ba 2c63 51b9 92a8 40bb c4d7 db3a
000001d0: f3dc b3ba 0b88 a4b9 51fe 853a 0339 903c
000001e0: 84ae 783c 1919 8739 bd56 b8ba 50bb 27bb
000001f0: 6ec5 343b 5860 19bc 3703 88ba 90c6 993c
00000200: 0c48 99bb 760c bdba 8a42 bdba 4669 05ba
00000210: ce2f a93a 90a0 263b b8a2 e4ba 0dda 45ba
00000220: 814e 4ebb a4d4 533a 66be 593a eabb 49bd
00000230: eba7 edbc 99d0 0d39 9907 da3a e6fa e63a
00000240: ca4c 28bc 9dc4 36b8 d5bf 36bd 4012 293b
00000250: d573 ffbc d682 43bd b346 02bb 20d2 50bd
00000260: f12d 11bb 928d 653a c006 c0ba d5e0 4cbd
00000270: 0d7e ca3b c68e c3ba aad5 1f3a 8728 84bb
00000280: e22d 2fbb 604a 363b ff86 b53b 9b98 3d3b
00000290: 2c87 48bb 6258 3dba 0e59 1d3a 23cf 42bd
000002a0: 9750 123b cc49 083b 07d8 55bb 3848 6bba
000002b0: 061b 0f3b f3cf 653a d8a7 8d3a e27b 4bbd
000002c0: a9ab f9ba 7800 f039 d618 bd3a e900 34ba
000002d0: 83d9 5a3a 6a8a 6eba e00f 043b 12f0 4fbc
000002e0: a014 15bc e945 aeba c744 b13a 9cdf aabb
000002f0: 404c 2bbb a527 fbb9 2760 a439 877e 62bc
00000300: 8a88 e0ba 1b12 8b3b f4f3 02bb bcd6 113b
00000310: e215 d7ba a76b 08bb ebe1 eb39 a063 953b
00000320: 23db d9ba 7a21 12bb 728d 25bb 234d 93bb
00000330: 97f8 11bb 9993 30ba 9241 d5b8 c1e7 463b
00000340: e24f 48ba bfe1 113a 33f9 bbbb 7035 69bb
00000350: 8d44 23bb 9a01 15bb d65f 833b d4ed 47bb
00000360: 5741 5cba 767b a63a a5e9 16bb daf7 a6bb
00000370: e0a0 e1bb eb9a aaba c7c2 613b e281 0dba
00000380: f3e3 ec3a 5302 68bb f1f4 aeb9 f086 823b
00000390: 625b f1ba bc2d 77ba 8953 88ba f851 2bbb
000003a0: 240f 503a e723 673b 0b31 53ba 8d66 38ba
000003b0: eee1 0ebb 9e36 173b c2b2 853a c23e 84bb
000003c0: 71c5 d63a 5d5a 473b 5a9c 313b 0cf6 b23b
000003d0: c63a dfbb 2575 0939 718e bfb9 8f7c b0ba
000003e0: 376a 87ba 4f18 a73a 58fc a6ba da43 1dbb
000003f0: 163d 08bb 206b eb3b 448d 133c fba6 69ba
0.005478022 -0.00020680233 -0.0009890452 0.00011398511 0.0013995875 0.005327663 -0.0039779916 0.00023580206
0.0010930329 0.0047165654 -0.0003592067 0.04941202 0.029700195 -0.0015573002 0.004280169 -0.0024964798
0.010894447 -0.0020142866 0.047729213 0.0016784151 0.03201753 0.049599636 0.00017058462 0.050065853
0.0014418347 -0.0025415965 0.001938092 0.05185922 6.189208e-05 0.00025451946 0.0019017683 0.0012301861
0.00047996634 0.0042367815 -0.0013273777 0.00037544084 -0.001648665 -0.00090258213 0.0004670626 0.05156819
0.003948316 -0.00313438 0.00089179125 0.0018621952 -0.0017768301 -0.0033889753 -6.795931e-05 0.050246578
0.00065690256 -0.0011788432 -0.0010694148 -0.00064382056 -0.0019241087 -4.9343114e-05 0.0022251958 0.013442119
0.0120292455 0.0009705975 -0.0051784157 -0.008334537 0.002329106 -0.002191252 0.0023357302 0.01489881
-0.002488668 -0.00045096592 -0.001804071 -0.00067671883 -0.0036006079 -0.0003415164 -0.0048607653 0.0022735856
0.0025748464 -0.0012750473 -0.0021147837 0.06032981 0.03633732 0.0030652555 -0.0024721185 0.0024454303
0.014125228 0.0010268709 0.056960106 -0.002180946 0.039345596 0.059168972 -0.0026983994 0.05960299
-0.003883572 -0.004750745 0.0020299077 0.06336443 0.0028131735 -0.0022544323 0.0011447713 -0.0027790566
0.00051078893 0.002481001 0.0013766823 0.0007352132 -0.0036444848 -0.0016649453 0.0012806815 0.06273931
-0.00269502 -0.0018600516 0.0025468539 0.0019238531 -0.002377016 0.00040062622 -0.00078434334 0.061878193
-0.0011699151 -0.00019968738 -0.002939735 0.0016772677 -0.0013722464 -0.00031381877 0.0010222887 0.01760531
0.0151783265 0.00025767906 -0.0014063936 -0.0025593825 0.0027583498 -0.009361349 -0.0010376935 0.01877144
-0.004677778 -0.0014423269 -0.0014439386 -0.00050892343 0.0012907924 0.0025425293 -0.0017443513 -0.0007547446
-0.0031479897 0.0008080697 0.00083062646 -0.049251474 -0.029010734 0.00013524517 0.0016634344 0.0017622381
-0.010272214 -4.357529e-05 -0.04461654 0.0025798231 -0.031183163 -0.047732197 -0.0019878566 -0.05098164
-0.0022152627 0.00087567524 -0.0014650449 -0.050019104 0.006179577 -0.0014919869 0.0006097207 -0.0040331515
-0.002673023 0.0027815327 0.0055397744 0.0028930071 -0.0030598147 -0.0007222948 0.0006002345 -0.047560822
0.0022325867 0.002079594 -0.0032629983 -0.00089753 0.0021836176 0.00087666436 0.0010807468 -0.04967869
-0.0019048351 0.00045776716 0.0014426957 -0.00068665907 0.0008348452 -0.0009099605 0.0020151064 -0.012691515
-0.009099156 -0.0013295981 0.0013524526 -0.0052146446 -0.0026137978 -0.00047903988 0.00031352157 -0.013824112
-0.0017130536 0.0042441017 -0.0019981833 0.0022253236 -0.001640972 -0.002081612 0.00044991015 0.0045589954
-0.0016621094 -0.0022297786 -0.002526131 -0.0044952794 -0.0022273415 -0.0006735861 -0.00010168845 0.0030350538
-0.0007641298 0.000556495 -0.005736494 -0.003558483 -0.0024912686 -0.002273655 0.0040092273 -0.0030506747
-0.00084020704 0.0012701589 -0.0023027447 -0.005095464 -0.006885633 -0.001301614 0.0034448372 -0.0005398077
0.0018073305 -0.0035401776 -0.00033370362 0.003983371 -0.0018414075 -0.0009429117 -0.0010400872 -0.0026141386
0.00079368264 0.0035269202 -0.0008056319 -0.0007034324 -0.0021802145 0.0023073326 0.0010200369 -0.0040358016
0.0016385746 0.003041885 0.002710125 0.00546146 -0.0068124263 0.00013108978 -0.00036536486 -0.0013464856
-0.0010331337 0.0012748333 -0.0012739999 -0.0023996742 -0.0020788363 0.007184401 0.009005848 -0.00089131267

model.6.bias f4 [64]
00000000: 4c9c cf3c 9942 cc3c 75a7 b2bc 2b14 f1b9
00000010: c6c4 c7bc 1cab a1ba c223 9e3b ce36 eaba
00000020: 7c5b 443b 561e 00bd a3db 523b 2158 0cbb
00000030: e166 9d3a 4243 333b fd4c a7bc e198 e7bc
00000040: 4a6f c73c b608 013d 4025 0d3b a923 e9bb
00000050: bfb8 63bb 7288 7a3b b634 0a3c 17bf 9b3c
00000060: 6270 7a3b 67b3 babc b8cf a7bb 7536 af3b
00000070: 7a78 bdbb 7b50 bdbb 02d0 963c 4c36 11ba
00000080: ab1f 22bd f2bc daba d4be 8739 e099 7bbb
00000090: 1a9b e43c 929e 10bc 95f8 9cbc 7e62 50bb
000000a0: bef8 ee3a 3663 97bc 7497 81bb a6ec 873c
000000b0: b3dd 993c 6ef8 0c3c 0be7 b1bb 919c ab3c
000000c0: dd50 32bb 5a64 283b 05fb d53b 7624 bb3c
000000d0: ba72 ca3c 9de4 f8bc 76b4 203d 2331 e2bb
000000e0: 9da4 e9bc ccca 063d 4b09 8a3a 8121 973c
000000f0: 3780 c3bc 2488 31bb bf79 d73c d0dc a83b
0.025343083 0.0249341 -0.021808365 -0.00045982128 -0.024385821 -0.001233432 0.00482604 -0.0017869116
0.0029961755 -0.03127893 0.003217437 -0.0021414834 0.001200881 0.0027353321 -0.020422453 -0.02827114
0.024345059 0.031502448 0.0021537095 -0.0071148467 -0.0034747568 0.00382283 0.008435419 0.019012017
0.0038213958 -0.022790624 -0.0051211976 0.005347068 -0.005782184 -0.0057774163 0.018409733 -0.0005539402
-0.039580982 -0.001668839 0.00025891385 -0.0038391277 0.02790599 -0.008826869 -0.019161502 -0.0031796987
0.001823209 -0.018479925 -0.003954822 0.016592335 0.018782472 0.008604152 -0.005429154 0.02094868
-0.0027208843 0.002569458 0.006530168 0.022844534 0.024712909 -0.030382449 0.0392346 -0.00690283
-0.028520877 0.032908246 0.0010531334 0.018448593 -0.023864849 -0.0027089203 0.02630317 0.005153276
