CSSRS/RSIMDCL/checkpoint/pore2background_5_5rsim/latest_net_F6.pth (torch, 44759 bytes, 6 tensors)

model.0.weight f4 [64, 4, 3, 3]
0	0xbc678ef7	-0.014133207
1	0xbd2a9d14	-0.041653708
2	0xbca5e5e6	-0.020251226
3	0xbd4007e8	-0.04688254
4	0xbd3352a3	-0.04377998
5	0xbd167670	-0.036734045
6	0xbd19ac39	-0.03751776
7	0xbd3e2882	-0.04642535
8	0xbc9883b5	-0.01861749
9	0x3c8294a6	0.015940022
10	0x3d0baeac	0.034102127
11	0xbc7bc9e7	-0.0153679615
12	0x3c7293ce	0.014805747
13	0x3c3ec3ab	0.011643331
14	0x3b5f1d01	0.0034044387
15	0x3b94e7ce	0.004544235
16	0x3d0a71e7	0.033800032
17	0xbb3437dd	-0.0027499117
18	0x3cd8f466	0.026483726
19	0x3b8b12d9	0.00424419
20	0x3cd64708	0.026156917
21	0x3c9f61fe	0.019455906
22	0xbc62494a	-0.013811419
23	0x3c830084	0.015991457
24	0x3d0566f4	0.032568887
25	0x3bc7459f	0.0060812975
26	0x3cea2764	0.028583236
27	0xbcc8fe1d	-0.024535233
28	0xbc7af72d	-0.01531772
29	0xbcd906d1	-0.026492508
30	0xbc116857	-0.008874974
31	0x3ccbb088	0.02486445
32	0xbbf5f9d2	-0.0075065875
33	0xbd11dd8f	-0.035611685
34	0xbc496756	-0.012292704
35	0xbd19b21f	-0.037523385
36	0x3a32ff91	0.00068282435
37	0xb7176857	-9.024595e-06
38	0xb7d3bbd4	-2.5240624e-05
39	0xb9b5368d	-0.00034563654
40	0x395697d5	0.00020465192
41	0xb8ec7f9d	-0.00011277127
42	0x39af8e09	0.00033484426
43	0xb9cd2b56	-0.00039132935
44	0xba2abfc6	-0.0006513562
45	0xb9bc8edb	-0.0003596459
46	0x39486c25	0.00019113773
47	0xb9b80c94	-0.00035104586
48	0xbad9d607	-0.0016619571
49	0xb868885d	-5.544011e-05
50	0xbaacd8d3	-0.0013187177
51	0xb9b7aa8a	-0.00035031541
52	0x3a772650	0.0009428011
53	0xbae2af2a	-0.0017294635
54	0x3a7e8c14	0.00097102043
55	0x3a56ef66	0.00081991253
56	0x39d83b3e	0.0004124287
57	0xb96ef8de	-0.00022790159
58	0x3a2db6e6	0.000662668
59	0x3a1fbe9c	0.00060937717
60	0x3a1ac432	0.0005903869
61	0x397a39ac	0.00023863342
62	0xba226a47	-0.0006195646
63	0x3a9ca1b7	0.001195005
64	0x3920f891	0.00015351387
65	0x3754d6f9	1.2686237e-05
66	0x38ce56ab	9.8389886e-05
67	0xba41f78a	-0.0007399252
68	0x362f3a4f	2.6110972e-06
69	0x3916acbb	0.00014369462
70	0x3a1185c2	0.00055512425
71	0xb94567da	-0.00018826072
72	0xbd03e27e	-0.03219842
73	0xbd5afc7f	-0.053463455
74	0xbd388663	-0.045050036
75	0xbd7d7122	-0.06187547
76	0xbd783a3e	-0.06060242
77	0xbc51e428	-0.012810744
78	0xbd209d29	-0.03921238
79	0xbd25391d	-0.04033767
80	0xbd39969e	-0.045309655
81	0xbcf11cce	-0.02943268
82	0x3dacf529	0.08445198
83	0xbc8c8999	-0.017155455
84	0x3c1db112	0.009624736
85	0x3d9c5621	0.07633615
86	0x3843f296	4.671755e-05
87	0xbc27fa79	-0.010252588
88	0x3d8a9258	0.06766194
89	0xbd385524	-0.04500307
90	0x3d471f69	0.04861394
91	0xbd5fb856	-0.054619156
92	0x3c04a8ca	0.008096883
93	0x3d9a339b	0.07529374
94	0xbda19c95	-0.07891194
95	0x3cfed079	0.031105267
96	0x3c38a5fa	0.011270041
97	0xbd4a3642	-0.04936815
98	0x3c03578e	0.00801648
99	0xbdc90deb	-0.09817108
100	0xbd3fc55f	-0.046819087
101	0xbdd1ba8a	-0.10240658
102	0xbdafdb1d	-0.085867144
103	0x3ab899c7	0.0014083915
104	0xbdb4c463	-0.0882652
105	0xbdcde5ff	-0.10053634
106	0xbd329a80	-0.043604374
107	0xbd9afc43	-0.07567646
108	0xbd39c10b	-0.045350116
109	0xbc9544b2	-0.018221233
110	0xbc6c2c9b	-0.014414932
111	0xbd1aa0ce	-0.03775101
112	0xbd1de348	-0.03854683
113	0xbd86e29d	-0.06586192
114	0xbd5a4015	-0.05328377
115	0x3a0a17ab	0.0005267809
116	0xbc132db9	-0.008983069
117	0xbbeec188	-0.0072862543
118	0x3db276b6	0.087140486
119	0xbd5047c4	-0.05084969
120	0xbb68ba7a	-0.003551154
121	0x3d993403	0.074806236
122	0x3c29069a	0.010316515
123	0x3bc87552	0.0061175013
124	0x3d6f1cbf	0.058377024
125	0x3b954f07	0.00455654
126	0x3d191cbc	0.03738092
127	0x3c46498b	0.012102495
128	0xbb3bc776	-0.0028652824
129	0x3c923c50	0.017851025
130	0xbd2013de	-0.039081447
131	0x3c8163bb	0.015794626
132	0x3c8841e7	0.016632987
133	0xbc66ad34	-0.014079381
134	0x3ad98146	0.0016594313
135	0xbdc70272	-0.09717263
136	0xbbdf6009	-0.006816868
137	0xbde28038	-0.11059612
138	0xbd860e08	-0.06545645
139	0x3bc8cc74	0.0061278883
140	0xbd964408	-0.07337195
141	0xbd552a80	-0.052042484
142	0x3cc21ebc	0.023696296
143	0xbd7d1398	-0.061786264
144	0xbd1a4cfc	-0.037671074
145	0xbd326ca7	-0.04356065
146	0xb8996a5e	-7.315421e-05
147	0xbd38b6e6	-0.0450963
148	0xbd24d493	-0.04024179
149	0xbc68fe9e	-0.014220862
150	0xbd0bf0e3	-0.034165274
151	0xbd2e5308	-0.042559654
152	0xbbad0641	-0.0052802865
153	0xb9095520	-0.0001309705
154	0x3d279253	0.04091103
155	0x398f6606	0.000273511
156	0x3c34fc81	0.01104653
157	0x3c699152	0.0142558385
158	0xbb0e5772	-0.0021719602
159	0x3b5246bb	0.0032085616
160	0x3d0fc830	0.035103023
161	0x3ba8f3a9	0.0051559997
162	0x3d172199	0.036897276
163	0x3c4074ea	0.0117466245
164	0x3cb1d109	0.021706121
165	0x3cc65cbb	0.02421414
166	0xbae2aa97	-0.0017293271
167	0x3c90f348	0.01769413
168	0x3cf7ede0	0.030264795
169	0xbb83064d	-0.003998554
170	0x3c01fc10	0.007933632
171	0xbca7a580	-0.020464659
172	0xbc748838	-0.014925055
173	0xbcaafc81	-0.020872356
174	0x3b83a0ad	0.004016957
175	0x3d3247b4	0.043525413
176	0x39b7e12a	0.0003507224
177	0xbcf6d2cf	-0.030129818
178	0xbc5fad1c	-0.013652112
179	0xbd4847c9	-0.048896585
180	0xbcb97bad	-0.022641981
181	0xbd13ed33	-0.036114883
182	0xbc013a66	-0.007887458
183	0xbd088edc	-0.033339366
184	0xbd3ef90d	-0.046624232
185	0xbca19678	-0.01972507
186	0xbcbccffe	-0.023048397
187	0xbd450abc	-0.04810594
188	0xbbf0b412	-0.007345685
189	0x3bdae086	0.0066795973
190	0x3bee3b2d	0.007270238
191	0x3b6576a7	0.003501335
192	0x3cd1dded	0.025618518
193	0xb9b45782	-0.00034397474
194	0x3caf291a	0.021381903
195	0x3c40849b	0.011750366
196	0x3ca76292	0.020432744
197	0x3c99dd56	0.018782299
198	0x3c56c852	0.0131092835
199	0x3b8f2ed8	0.004369598
200	0x3c55f765	0.013059472
201	0xb9915781	-0.0002772175
202	0xbd0c82f3	-0.03430457
203	0xbc8dd06c	-0.017311297
204	0x3c33c8d8	0.010973178
205	0xbb31f0e1	-0.0027151632
206	0x3bcb9736	0.006213094
207	0xbd2f253a	-0.04276011
208	0xbce3d4c4	-0.027811415
209	0xbd325ec1	-0.043547396
210	0xbcada7dc	-0.021198206
211	0x3cd74615	0.026278535
212	0xbcc066c7	-0.023486508
213	0xbd31ea60	-0.043436408
214	0xbcf44394	-0.02981738
215	0xbd351825	-0.04421248
216	0xbd808107	-0.0627461
217	0xbbd230ae	-0.0064144945
218	0xbd0b8d20	-0.034070134
219	0xbd9297ce	-0.07157861
220	0xbceb4761	-0.02872056
221	0xbda35fe5	-0.07977275
222	0xbd7d3411	-0.061817233
223	0xba989b94	-0.0011643046
224	0xbd28f8a6	-0.041252755
225	0xbd18de0f	-0.037321147
226	0x3d5db79e	0.05413019
227	0xbd06ca6e	-0.032907896
228	0xbd02cbf0	-0.03193277
229	0x3db69e49	0.08916909
230	0x3b1df52e	0.0024102437
231	0x3ad80124	0.0016479832
232	0x3db703eb	0.08936294
233	0xbd2df813	-0.04247291
234	0x3b5f64e8	0.0034087244
235	0x3b9775d7	0.004622202
236	0xbb51866b	-0.0031970988
237	0x3d84a34a	0.064764574
238	0xbca38ac0	-0.019963622
239	0x3c80b845	0.015712867
240	0x3d558835	0.05213185
241	0xbd02ab1b	-0.03190146
242	0x3d397faf	0.045287784
243	0xbd47a6eb	-0.04874317
244	0x3d07cd27	0.033154633
245	0xbd60e36b	-0.054904383
246	0xbd08b5da	-0.033376552
247	0x3d1297c7	0.035789277
248	0xbd908770	-0.07057083
249	0xbdc09689	-0.09403712
250	0x3b4aa973	0.0030923754
251	0xbde52bda	-0.11190005
252	0xbc849ce9	-0.016188102
253	0xbd3540c8	-0.044251233
254	0xbb6cc679	-0.003612904
255	0xbceb17ea	-0.028697927

model.0.bias f4 [64]
0	0x3ece6602	0.403122
1	0xbac3563f	-0.0014903023
2	0x3f1599f8	0.5843806
3	0x3ebe838d	0.3720974
4	0x3ec9e32c	0.3943113
5	0x3ece78f3	0.40326652
6	0x3ef6796e	0.48139518
7	0x3ecce20a	0.40016204
8	0x3f122900	0.5709381
9	0x3e3db6c1	0.18526746
10	0x3e826026	0.2546398
11	0x3ed92f3c	0.4241885
12	0x3ed2dabb	0.41182503
13	0x3eccc2a9	0.39992264
14	0xba8bc2cd	-0.0010662914
15	0x3f087d5a	0.5331627
16	0x3f058bed	0.52166635
17	0x3ed36806	0.412903
18	0x3ecb770c	0.39739263
19	0x3ecd3d99	0.40086058
20	0x3ed5693e	0.41681856
21	0xba85bb47	-0.0010202908
22	0x3ece9405	0.40347305
23	0x3f10a1eb	0.5649707
24	0x3ece0316	0.4023673
25	0x3ed28011	0.41113332
26	0x3edc389e	0.43011945
27	0x3ec75654	0.3893305
28	0x3ecb4bff	0.39706418
29	0x3ece2a3d	0.402666
30	0x3ed66ff3	0.41882285
31	0xbb192aeb	-0.0023371528
32	0x3ed02840	0.40655708
33	0x3e1deafb	0.15421669
34	0x3ec3ee27	0.38267633
35	0x3f156a58	0.5836539
36	0x3eedc7d1	0.4644151
37	0x3ed3c6f1	0.41362718
38	0x3f139426	0.5764793
39	0xbb45948b	-0.0030148353
40	0x3ed3e473	0.4138523
41	0x3ed53635	0.4164292
42	0x3ee3a92e	0.4446501
43	0x3ecc524e	0.39906543
44	0x3ee0b3e4	0.43887246
45	0x3ed16269	0.40895393
46	0x3ed35d9a	0.4128235
47	0x3f185be3	0.5951521
48	0x3ef8d537	0.4860017
49	0x3ed01b7d	0.40645972
50	0x3f08be20	0.5341511
51	0xbb8bc1f6	-0.0042650653
52	0x3f08aa9f	0.5338535
53	0x3ed741b9	0.4204233
54	0x3ed2de49	0.41185215
55	0x3ecf924a	0.40541297
56	0x3ed2b9ec	0.41157472
57	0x3ee0f4e5	0.4393684
58	0x3edaf590	0.42765474
59	0x3ee76864	0.4519683
60	0x3ed6f155	0.41980997
61	0x3ed62fea	0.4183343
62	0x3ed91862	0.42401415
63	0x3f14ef48	0.58177614

model.4.weight f4 [64, 64]
0	0xbb1b36fb	-0.0023683894
1	0xba965561	-0.0011469537
2	0x3b0498c7	0.0020232664
3	0x39a09f4b	0.0003063626
4	0x39e2a4c6	0.00043228845
5	0xbaa2e4e4	-0.0012427834
6	0x3adb9d2e	0.0016755217
7	0x3a894b02	0.0010474625
8	0x3b83ff57	0.0040282416
9	0xbb0b7346	-0.0021278425
10	0xba97e902	-0.0011589827
11	0xbb727e4a	-0.0037001544
12	0x3aaf5ee7	0.0013379724
13	0xbaba5d1c	-0.0014218423
14	0x3add2f6f	0.0016875098
15	0xbb2d8b93	-0.0026480898
16	0x3b3ee60d	0.002912882
17	0xbb498dd7	-0.003075471
18	0x3b038649	0.0020069054
19	0xb930807c	-0.00016832532
20	0x393dddf4	0.00018107129
21	0x3b432949	0.0029779247
22	0xbb4adb3b	-0.0030953425
23	0x39fb2bce	0.00047907088
24	0xbaea6021	-0.0017881432
25	0x3ab23f00	0.0013599098
26	0xbb285ffd	-0.002569198
27	0xbb97e763	-0.0046357377
28	0xba587960	-0.00082578324
29	0x3924ab38	0.00015704043
30	0xbb6e2963	-0.0036340586
31	0xbb32121e	-0.0027171443
32	0xbaea6c81	-0.001788512
33	0x3ae523ce	0.0017481984
34	0xbaf7fc8a	-0.0018919867
35	0x3adfdf7d	0.0017080155
36	0xbae82e5b	-0.001771401
37	0xbc134fc2	-0.008991184
38	0x3a38053c	0.0007019823
39	0x384133f2	4.6063164e-05
40	0x3b6aad6a	0.003580893
41	0x3938809c	0.00017595518
42	0xbb4c0d58	-0.0031135883
43	0x3b1840d8	0.002323201
44	0x3ac66830	0.0015137251
45	0xbb770de7	-0.0037697495
46	0x3b1338bc	0.0022464236
47	0x3ad50a1d	0.0016253624
48	0x3ae1aaf4	0.0017217086
49	0xbbe382f9	-0.0069431034
50	0x3b031da1	0.0020006674
51	0xb950a79c	-0.00019898865
52	0xba49715e	-0.00076844345
53	0xbbbbfe4e	-0.0057371026
54	0xbaffb96b	-0.0019510215
55	0xbaf618f0	-0.0018775743
56	0x3a9f28db	0.0012142913
57	0x3b4b8005	0.0031051647
58	0xba5523bb	-0.00081306294
59	0x3ad9d31b	0.00166187
60	0xbb27b2e2	-0.00255888
61	0xb9e06447	-0.00042799322
62	0x3af48b92	0.0018657318
63	0xbb3ed4f9	-0.002911864
64	0xbb7ae473	-0.003828314
65	0x39d3b3c2	0.00040378986
66	0x3a5b26cf	0.000835997
67	0xbaf65654	-0.0018794038
68	0x3ad85154	0.001650373
69	0x385a2c8c	5.2016738e-05
70	0xba5c1579	-0.00083955337
71	0xb959ab4c	-0.00020758546
72	0x3aa41ee2	0.0012521411
73	0x3b2e7c0e	0.0026624235
74	0x3bbd96b5	0.005785788
75	0x3b0683c8	0.0020525325
76	0xb91c06b9	-0.00014879824
77	0xb87e53a1	-6.0636205e-05
78	0xb99d4cf8	-0.0003000272
79	0x3ac587a4	0.0015070331
80	0x3aa0d4bc	0.0012270431
81	0x3a2faf81	0.00067018723
82	0x399b91d2	0.00029672548
83	0x3afab005	0.0019125944
84	0x3b578b2a	0.0032889345
85	0xba87afa7	-0.0010352031
86	0xbb739925	-0.0037170139
87	0x3a97204e	0.0011530013
88	0xbb7fdcf5	-0.0039041613
89	0xb9d0108c	-0.0003968518
90	0x3a5fc4a7	0.00085360784
91	0x3949a544	0.0001923042
92	0xbb44717e	-0.0029974873
93	0xbb8692a4	-0.0041068364
94	0x3ae29eec	0.0017289794
95	0x3a716a40	0.0009209253
96	0xbb40d5f5	-0.0029424403
97	0xba50a132	-0.000795859
98	0xbb4be71b	-0.0031113091
99	0x3b49db7b	0.0030800987
100	0x3bd01552	0.006350198
101	0xba459a8e	-0.0007537984
102	0x3a8eb136	0.0010886553
103	0xbaacfb96	-0.0013197537
104	0x3b377a29	0.0027996397
105	0x3b0b0edd	0.0021218576
106	0xbb8bbc43	-0.004264386
107	0x3b8caffe	0.004293441
108	0x38c6203d	9.4473806e-05
109	0xbb515220	-0.003193982
110	0x3a2c5cef	0.00065751275
111	0xbb486c50	-0.0030582137
112	0xbb028f62	-0.0019921889
113	0xbb208d5d	-0.0024498322
114	0x3b661635	0.0035108451
115	0xb9004ff6	-0.00012236819
116	0xbaba86c5	-0.0014230838
117	0xbba7de3c	-0.005122928
118	0xbadc572a	-0.0016810645
119	0xb886dcfd	-6.43078e-05
120	0xbb092785	-0.0020928096
121	0x3ad2f5c6	0.0016094975
122	0xba9f6655	-0.0012161235
123	0xb8a4c71b	-7.857216e-05
124	0xba273b60	-0.0006379392
125	0xbb1c5f1c	-0.00238604
126	0x3b38f497	0.0028221959
127	0xbad73f50	-0.0016422067
128	0x3aaa654c	0.001300016
129	0xb9bb8659	-0.00035767516
130	0x3b610957	0.0034337842
131	0xbb4b59d8	-0.0031028893
132	0x3a2d82f7	0.00066189416
133	0x38b866a8	8.792925e-05
134	0x3a664810	0.0008784542
135	0x3a417ec5	0.0007381256
136	0x39ab5227	0.0003267687
137	0xb9f2e583	-0.00046328836
138	0x3a72c0ac	0.0009260278
139	0xbad45951	-0.0016200935
140	0xbb9a6611	-0.0047118743
141	0xbb318235	-0.0027085666
142	0x392f35ba	0.00016709315
143	0xb8f2b0b1	-0.000115723706
144	0x3af44677	0.0018636723
145	0xbb292465	-0.0025809046
146	0x3bc771da	0.00608657
147	0xbac03409	-0.0014663945
148	0xbb2774bc	-0.0025551757
149	0x3af93d76	0.0019015509
150	0xbb897516	-0.004194866
151	0x3b1fec17	0.0024402195
152	0xbb8d1fc0	-0.0043067634
153	0x3aef38da	0.0018251196
154	0xbb0c728a	-0.0021430575
155	0x3a6b7759	0.0008982323
156	0x3aae86cc	0.0013315319
157	0xba48810b	-0.00076486234
158	0xbb1cd240	-0.002392903
159	0xba3f9b83	-0.0007309245
160	0xbadd583e	-0.001688726
161	0x39a3e43a	0.00031259825
162	0x3a9646d9	0.0011465206
163	0xba74487c	-0.00093186623
164	0xba84ea0b	-0.0010140551
165	0xbbb1cdf2	-0.005426162
166	0x3a35baf8	0.00069324626
167	0xb9a05aba	-0.00030585175
168	0xba794db1	-0.0009510173
169	0x39d736a5	0.0004104871
170	0xba459e01	-0.0007538498
171	0xbaa9d526	-0.00129572
172	0x3aff3663	0.0019471165
173	0x3a5a9fa9	0.0008339831
174	0xbb568b11	-0.0032736699
175	0xba8b7e6a	-0.0010642533
176	0xbb4795fb	-0.0030454386
177	0x3abdfb8b	0.0014494521
178	0x3a552989	0.00081314944
179	0x3ad22482	0.0016032609
180	0x3abbe0d1	0.0014333968
181	0xbac59511	-0.0015074332
182	0xbb5eb571	-0.003398266
183	0x3a83d869	0.0010059002
184	0x3a4c790e	0.0007800021
185	0xbba2a607	-0.0049636397
186	0xba8293dd	-0.000996228
187	0x3aae2311	0.0013285597
188	0x39e2e9bf	0.00043280234
189	0x3a5e7bf0	0.0008487096
190	0xbb8290ee	-0.003984562
191	0x3ab69e77	0.0013932724
192	0xbb998023	-0.0046844645
193	0x3b317eea	0.0027083703
194	0xbbbb52cf	-0.0057166587
195	0xbb850606	-0.004059556
196	0xbbcc2b62	-0.0062307576
197	0xbbb48029	-0.005508442
198	0xbc4ecce7	-0.012622095
199	0xbb8cc25b	-0.00429563
200	0xbc0adc0e	-0.008475317
201	0xbc036c54	-0.008021433
202	0xbc27ccc6	-0.010241693
203	0xbbaa7c7f	-0.0052028294
204	0xbc05ba03	-0.008162024
205	0xbbef6fb3	-0.0073070168
206	0xbb906a7a	-0.0044072242
207	0xbbec383f	-0.0072088535
208	0xbbf00668	-0.0073249824
209	0xbbc53e6c	-0.006019404
210	0xbbb75309	-0.0055946154
211	0xbc29d752	-0.010366278
212	0xbc078691	-0.008271829
213	0x3b6e132a	0.003632734
214	0xbc1f36cf	-0.009717657
215	0xbb44d2fd	-0.0030032985
216	0xbbe23b0b	-0.006904011
217	0xbbe0ed3a	-0.006864217
218	0xbbaf42ba	-0.0053485306
219	0xbba07122	-0.004896299
220	0xbb5e1257	-0.0033885443
221	0xbbc327bf	-0.005955666
222	0xbb8adee7	-0.004237998
223	0xbb7238d6	-0.0036960146
224	0xbb8eff20	-0.0043639094
225	0xbc09938e	-0.008396996
226	0xbbf2c325	-0.007408517
227	0xbbf66718	-0.007519614
228	0xbc1e42d9	-0.009659492
229	0xbbdce169	-0.006740738
230	0xbc0f97b6	-0.008764198
231	0xbbe9b31c	-0.007131947
232	0xbc2d0102	-0.010559322
233	0xbbe04952	-0.006844678
234	0xbba40ae0	-0.005006179
235	0xbbc8be99	-0.0061262366
236	0xbbb67ccd	-0.0055690766
237	0xbbc7f618	-0.0061023347
238	0xbb731193	-0.0037089332
239	0xbbcd79f5	-0.006270642
240	0xbc1ad24d	-0.009449554
241	0xbb37f063	-0.0028066866
242	0xbbedcb33	-0.0072568893
243	0xbba62aac	-0.005071005
244	0xbb22e548	-0.00248559
245	0xbc42bf6b	-0.011886458
246	0xbbd8783f	-0.0066061313
247	0xbbae905b	-0.005327267
248	0xbb9ed4f1	-0.004847162
249	0xbaeae3d0	-0.0017920677
250	0xbc1bc64a	-0.009507725
251	0xbc051826	-0.008123433
252	0xbc1e17e8	-0.009649254
253	0xbc28dde1	-0.010306806
254	0xbc0bb7b2	-0.008527683
255	0xbba16dfa	-0.0049264403

model.4.bias f4 [64]
0	0x00000000	0.0
1	0x00000000	0.0
2	0x39954697	0.00028472088
3	0xbbd8afb2	-0.0066127414
4	0x00000000	0.0
5	0x3994c36c	0.0002837436
6	0xbb3032c0	-0.0026885718
7	0xb9d28da2	-0.00040159846
8	0x39a8be30	0.00032185158
9	0xbb1d150a	-0.002396884
10	0xb9d28da2	-0.00040159846
11	0xb9d28da2	-0.00040159846
12	0xb9d34921	-0.0004029954
13	0x3a0c0599	0.000534141
14	0xba083ab6	-0.0005196737
15	0x39a9941a	0.00032344536
16	0xb9d28da2	-0.00040159846
17	0xbae321c3	-0.0017328787
18	0x3deb8b46	0.11501174
19	0xb9d28da2	-0.00040159846
20	0xbaeba68c	-0.0017978712
21	0xb9d28da2	-0.00040159846
22	0xb9d28da2	-0.00040159846
23	0x3e431a61	0.19053032
24	0xbbb0018c	-0.005371278
25	0x3df66527	0.12031012
26	0xbb96619d	-0.004589273
27	0xb9d28da2	-0.00040159846
28	0x39a92b98	0.00032266672
29	0xbb3792fd	-0.0028011196
30	0xb9fe9eed	-0.00048565064
31	0xb9d28da2	-0.00040159846
32	0xbbd3db71	-0.0064653684
33	0xb9d28da2	-0.00040159846
34	0x00000000	0.0
35	0x00000000	0.0
36	0xb9d28da1	-0.00040159843
37	0xba89cf79	-0.0010514102
38	0x3e05825c	0.1303801
39	0xbbcf5150	-0.006326832
40	0x3e1ef41b	0.15522806
41	0xb9d34923	-0.00040299547
42	0xba6f0eb1	-0.00091193157
43	0xb9d28da2	-0.00040159846
44	0xb9d28da1	-0.00040159843
45	0xbbf7a8ac	-0.007557949
46	0x396d18cb	0.00022611317
47	0x3dec80c8	0.115480006
48	0xb9d28da1	-0.00040159843
49	0xb9d28da1	-0.00040159843
50	0xb9a5fc78	-0.00031659356
51	0xb9d28da2	-0.00040159846
52	0x00000000	0.0
53	0x3d901e7e	0.07037066
54	0x3dbc1192	0.09183039
55	0x00000000	0.0
56	0x00000000	0.0
57	0xb9d28da2	-0.00040159846
58	0x398dadef	0.00027023206
59	0xb9d28da2	-0.00040159846
60	0xba6d8a03	-0.0009061398
61	0x00000000	0.0
62	0xbbcc1448	-0.0062280037
63	0x00000000	0.0

model.6.weight f4 [64, 64]
0	0x3bf9afa0	0.007619813
1	0x3b3746fb	0.0027965892
2	0x3c24b742	0.010053458
3	0xba8093a1	-0.0009809622
4	0xba8245fa	-0.0009939068
5	0x3c6c9ed0	0.014442161
6	0x3b0be3a0	0.0021345392
7	0xba2e2389	-0.00066428684
8	0x3c6b5481	0.014363409
9	0x3a033080	0.00050044805
10	0xbb60b4a5	-0.003428736
11	0xba99789b	-0.0011708917
12	0x3b557a06	0.0032573952
13	0x3c6f6ed8	0.01461383
14	0xbb45ce1b	-0.0030182663
15	0x3c5cc16d	0.013473851
16	0xbadde561	-0.0016929322
17	0xbb2a6c74	-0.0026004585
18	0x3d5b0d0f	0.05347925
19	0x3a8b9199	0.001064825
20	0x3a733db7	0.00092789106
21	0x3abefd19	0.0014571279
22	0xbb596cb1	-0.0033176357
23	0x3d518c99	0.051159475
24	0x3d401b25	0.046900887
25	0x3d5b50ca	0.053543843
26	0xbb6c1b97	-0.0036027187
27	0x3b762b70	0.0037562512
28	0x3c38c6d9	0.011277878
29	0x3ae1fd80	0.0017241687
30	0x3afc37b2	0.0019242673
31	0x3b03d2e3	0.0020114712
32	0x3860ef5b	5.362868e-05
33	0xbad5e5b7	-0.0016319071
34	0xbb303eed	-0.0026892975
35	0xba521cf9	-0.00080151815
36	0x3977c987	0.0002363083
37	0x3a6c089e	0.00090039696
38	0x3d64aa4d	0.055826474
39	0xb9523d11	-0.0002004991
40	0x3d48a8eb	0.048989218
41	0x3a56696d	0.0008179162
42	0x3a3dc796	0.00072395185
43	0x3a65d257	0.0008767
44	0xbb631b87	-0.0034653859
45	0xbc29d86f	-0.010366543
46	0x3b954481	0.0045552854
47	0x3d5ff048	0.05467251
48	0x3b04635f	0.0020200831
49	0x3b262a53	0.0025354817
50	0xbb5239a3	-0.0032077811
51	0x3abe19b2	0.0014503507
52	0xbb1c6b24	-0.0023867572
53	0x3d33b3c4	0.04387261
54	0x3d4282a2	0.047487862
55	0x3b895812	0.004191407
56	0xbb3f0494	-0.0029147016
57	0x3b447d57	0.0029981935
58	0x3c5af3ad	0.013363761
59	0x39bd9783	0.00036161774
60	0xbb863ab5	-0.004096354
61	0x3b859907	0.00407708
62	0x3bf8f93d	0.007598071
63	0xbba067ab	-0.0048951707
64	0x3b084e42	0.0020798598
65	0x3b3f56fb	0.0029196132
66	0x3c55d104	0.0130503215
67	0xbbf82e95	-0.0075739124
68	0x3a911a8d	0.0011070535
69	0x3c96b770	0.018398017
70	0xbb2d74a4	-0.0026467228
71	0x3a3a3460	0.00071031414
72	0x3c931c76	0.017957907
73	0x3a0d5f3e	0.00053929153
74	0x3994e16d	0.00028396715
75	0x3a40c76c	0.0007353935
76	0x382e7fc9	4.1603842e-05
77	0x3c998e9d	0.018744761
78	0xbc2f7e2f	-0.010711237
79	0x3c88fece	0.016723063
80	0x3a5b0629	0.0008355105
81	0x3ac1d586	0.0014788366
82	0x3d783ebb	0.0606067
83	0xba4ebae9	-0.0007886128
84	0xbb64c7a8	-0.0034909043
85	0x384402cd	4.673265e-05
86	0x3a144da7	0.0005657323
87	0x3d7c8725	0.06165232
88	0x3d6f4268	0.05841294
89	0x3d7da9c7	0.06192949
90	0xbbcfc382	-0.006340445
91	0xbad762c4	-0.0016432633
92	0x3c68cadd	0.014208523
93	0x3b53a575	0.0032294665
94	0x38da83f6	0.0001041963
95	0x3871543d	5.753733e-05
96	0xbb227260	-0.002478741
97	0x39c9cf2d	0.00038492066
98	0xbba2d4bd	-0.004969208
99	0x3b2ab610	0.002604846
100	0x3ae79945	0.0017669579
101	0x3a21d351	0.0006173151
102	0x3d756e83	0.059919845
103	0x3b327d02	0.0027235155
104	0x3d820abb	0.06349703
105	0xba4d4105	-0.0007829818
106	0x3b4a5cf8	0.0030878168
107	0xbb37b56c	-0.002803172
108	0xbaec6c98	-0.0018037735
109	0xbb10e3c3	-0.0022108413
110	0x3bb2868e	0.005448169
111	0x3d7ad63b	0.061239462
112	0x3b1cc32d	0.0023920045
113	0x3c0d864c	0.008637976
114	0x3bb9e6ea	0.005673279
115	0x3aa02e39	0.0012220807
116	0x3a2fa1fd	0.00066998583
117	0x3d6fe495	0.058567602
118	0x3d83eed9	0.06442041
119	0xbaa4610e	-0.0012541132
120	0xbaac0b0f	-0.0013125854
121	0xba5ca91e	-0.00084175344
122	0x3c8be7c1	0.017078282
123	0x3b4013a5	0.0029308584
124	0x3c17a00e	0.009254469
125	0xb9f47290	-0.00046624662
126	0x3c3f04cf	0.011658861
127	0xbb63271d	-0.0034660765
128	0xba7d59d9	-0.00096645724
129	0x3b76ff83	0.0037688918
130	0xbc1ce901	-0.009577037
131	0x3be6daf7	0.0070451456
132	0x3a250fc6	0.0006296601
133	0xbc6976e6	-0.014249539
134	0x3bddf6ae	0.0067737913
135	0x39ec8784	0.00045114395
136	0xbc5dd4c6	-0.013539499
137	0xbb519833	-0.0031981587
138	0x3aecb894	0.001806038
139	0x39a4368f	0.00031321167
140	0xbb79c9b4	-0.003811461
141	0xbc67fcb9	-0.014159375
142	0x3a98c761	0.0011656099
143	0xbc52a5c5	-0.012856905
144	0xbaf1908f	-0.0018429923
145	0xba8dd32e	-0.0010820383
146	0xbd488b50	-0.048960984
147	0xbb2c2c87	-0.0026271658
148	0xbb60cbad	-0.0034301088
149	0xba7dfcc0	-0.0009688847
150	0xb9e032e2	-0.0004276252
151	0xbd55f046	-0.052231096
152	0xbd3c9753	-0.04604275
153	0xbd47d019	-0.04878244
154	0xbbc650c9	-0.006052111
155	0x3b22862e	0.0024799216
156	0xbc2c0039	-0.0104981
157	0xba99e808	-0.0011742124
158	0x3adb044f	0.0016709658
159	0xbb799091	-0.0038080553
160	0xbafd7f8f	-0.0019340384
161	0xbb7b180e	-0.0038313898
162	0xbada0493	-0.0016633443
163	0x3b2a8380	0.0026018322
164	0xbb9e9b04	-0.0048402566
165	0xb97a258a	-0.00023855842
166	0xbd42b421	-0.047535066
167	0xbb7ecf1f	-0.0038880778
168	0xbd558161	-0.05212534
169	0x3b866a96	0.0041020615
170	0x3b2ffb42	0.0026852642
171	0x3b003e6c	0.0019568456
172	0xbbafef5c	-0.00536911
173	0xbba7d98f	-0.0051223706
174	0xbb8b21d7	-0.0042459774
175	0xbd4d7d19	-0.05016813
176	0xba40c2a3	-0.0007353222
177	0xbb22d332	-0.002484512
178	0xbb8fa8dd	-0.0043841437
179	0xb9958f6a	-0.00028526346
180	0xbb93ef2c	-0.0045145955
181	0xbd47c104	-0.04876806
182	0xbd486dfb	-0.04893301
183	0xbaadb3a6	-0.0013252392
184	0x3b797875	0.0038066183
185	0xbb089406	-0.0020840182
186	0xbc4ec024	-0.012619052
187	0xb9408d2c	-0.00018363137
188	0xbb48faaa	-0.0030666986
189	0x3b11a087	0.0022220926
190	0xbc08ebfc	-0.008357044
191	0xbb0ed0fc	-0.0021792045
192	0x3b170f3f	0.002304986
193	0xbb25d224	-0.0025302256
194	0xba4ef2fc	-0.0007894484
195	0xb9da9dea	-0.00041697855
196	0xbabf5f15	-0.001460048
197	0xba8ecf3d	-0.0010895502
198	0x3a694b14	0.0008899432
199	0x3b82ab1c	0.003987683
200	0xba6b4983	-0.00089754927
201	0xbaec82d0	-0.0018044356
202	0x3b272e69	0.002550984
203	0xbb4bc8a9	-0.0031094945
204	0xbb359f31	-0.0027713294
205	0xba6971e8	-0.0008905218
206	0xbb701a72	-0.0036636856
207	0xba318adb	-0.0006772705
208	0x3a947714	0.0011326992
209	0xba3eecea	-0.0007283228
210	0xbaa7d2c2	-0.00128039
211	0x3aafa16a	0.0013399546
212	0xba5fed7e	-0.0008542164
213	0x3922e6f6	0.00015535564
214	0x3a8c4ca5	0.0010703994
215	0xbbd35227	-0.0064490023
216	0xbb70639b	-0.0036680463
217	0xbbba2c26	-0.0056815324
218	0xbab9ce74	-0.0014175908
219	0xbb7c8d6c	-0.0038536442
220	0xba635c43	-0.0008673111
221	0x3a85a89a	0.0010197342
222	0x3bd563b7	0.006512131
223	0x3ab0bdde	0.0013484319
224	0x3b0508e0	0.002029948
225	0x39fac5cc	0.00047831086
226	0xbb1755b9	-0.0023091866
227	0xba99bb93	-0.0011728875
228	0x3b71ba95	0.0036884893
229	0x3b8f7589	0.004378025
230	0x3a098a8c	0.00052467803
231	0x3b6670bf	0.0035162417
232	0xbbe69536	-0.0070368303
233	0x3a9fa3a0	0.0012179501
234	0x3b051d46	0.0020311638
235	0xbaa9cea4	-0.001295526
236	0x3b413e66	0.0029486655
237	0x3a52099a	0.0008012295
238	0xb9948c2c	-0.00028333196
239	0x35565bed	7.985498e-07
240	0x3ac41d10	0.0014962275
241	0x3abd5a1a	0.0014446408
242	0x380b5746	3.3221462e-05
243	0x3af84ee3	0.0018944409
244	0xbb8c40cb	-0.004280185
245	0xbb01646d	-0.0019743696
246	0xbbb1d994	-0.0054275487
247	0x3bac84de	0.0052648624
248	0xba298407	-0.0006466512
249	0xbac08358	-0.0014687581
250	0xba629328	-0.0008643144
251	0x392b75c5	0.00016351703
252	0x3b40e103	0.0029430992
253	0x3a27110d	0.0006373085
254	0x39e59b3e	0.00043793948
255	0x3a9b3d69	0.0011843863

model.6.bias f4 [64]
0	0x3ca6d728	0.020366266
1	0x3d15f2e9	0.03660861
2	0xbcb0ba0e	-0.021573093
3	0xbb13b6f6	-0.0022539473
4	0xbce4ba29	-0.0279208
5	0x3a6ce099	0.0009036153
6	0x3b27d10a	0.0025606775
7	0x395ac1c3	0.00020862282
8	0x3c00b5ab	0.007855813
9	0xbcd82d0b	-0.026388666
10	0x3acf4bcd	0.0015815437
11	0xb6b1c87f	-5.298352e-06
12	0xbabc2901	-0.0014355482
13	0x3a602ce3	0.00085516105
14	0xbcabd9bc	-0.020977847
15	0xbcd99ac6	-0.02656306
16	0x3d0c842f	0.034305748
17	0x3ccf7e7a	0.025328863
18	0x3921ca98	0.00015429629
19	0xbbad7f1f	-0.005294695
20	0x39ff70de	0.00048721483
21	0xba492e94	-0.0007674482
22	0x3bac4f71	0.0052584936
23	0x3c9c3f46	0.01907314
24	0x3aa7be6a	0.0012797837
25	0xbccb9fbc	-0.02485644
26	0xbab6cf97	-0.0013947365
27	0x3b2a3e9b	0.0025977257
28	0xbb7f6977	-0.0038972774
29	0xbb3ebc6e	-0.0029104012
30	0x3c99116e	0.018685069
31	0x3b2466f8	0.0025085788
32	0xbd5718ba	-0.052513815
33	0xbaf0a225	-0.001835887
34	0x3a00f463	0.0004919229
35	0xba152cbd	-0.00056905654
36	0x3cc6808e	0.024231222
37	0xbc3ab537	-0.011395744
38	0xbcaad6c3	-0.02085436
39	0xbb1ac441	-0.0023615512
40	0xba5a9910	-0.0008338848
41	0xbcafb6ae	-0.021449413
42	0xbabb7cd0	-0.0014304165
43	0x3c934330	0.017976373
44	0x3cc6e767	0.024280263
45	0x3c235093	0.009967941
46	0xbb5a8386	-0.0033342554
47	0x3cab6cd3	0.020925915
48	0xba0fb733	-0.0005482316
49	0x39aaba5a	0.0003256377
50	0x3b72bf47	0.003704028
51	0x3cb78b1d	0.022405202
52	0x3cd29c34	0.02570925
53	0xbd348a53	-0.04407723
54	0x3d80faa8	0.06297809
55	0xbb887c38	-0.0041651987
56	0xbce8e993	-0.02843169
57	0x3ce9454d	0.028475428
58	0xbab4c4a7	-0.0013791517
59	0x3ca989e4	0.020695634
60	0xbc84864b	-0.016177317
61	0x3990079a	0.00027471484
62	0x3d0a71be	0.03379988
63	0x3b39b3dc	0.0028335964
