CSSRS/RSIMDCL/checkpoint/pore2background_5_5rsim/latest_net_F4.pth (torch, 44759 bytes, 6 tensors)

model.0.weight f4 [64, 4, 3, 3]
-0.036964305 0.015823878 -0.02417765 -0.030838834 0.043435335 -0.014835947 -0.035529718 0.016322188
-0.019848265 0.008058061 0.039237272 0.011976544 0.02215404 0.0038572375 0.017860046 0.012544772
0.0098194005 0.015219217 -0.016738757 0.005747934 -0.0037676534 0.021056972 0.011856156 0.018822491
-0.00904362 -0.0076720077 -0.010710728 -0.05457861 -0.004219895 -0.054775048 0.0013868846 -0.009790822
-0.014658753 -0.050299205 0.0019619984 -0.039400715 -0.043096077 0.017138986 -0.039308865 -0.043010846
0.046654597 -0.027724698 -0.03274775 0.019957915 -0.035518486 0.016907224 0.016729092 0.006085901
0.021954153 0.028764714 0.02480242 0.018370895 0.022731194 0.01480561 -0.008668091 -0.00783239
0.0014481985 0.015724365 0.0006961977 0.010585292 -0.0073758923 -0.005115043 0.0057566813 -0.047506757
-0.015944868 -0.04856072 0.012075987 -0.013014433 0.0075880513 -0.04379618 -0.0106339585 -0.048662927
-0.039982412 0.02143102 -0.023446672 -0.034240972 0.054446157 -0.018964263 -0.03840091 0.023180518
-0.028079089 0.015471646 0.0143854255 0.014256991 0.03239591 0.007998879 0.019535886 0.019091455
0.0025719926 0.020074673 -0.0055812947 -0.006764833 -0.0032642041 0.028281549 0.008799988 0.020356562
-0.0064307936 -0.010201909 -0.0066440473 -0.05728085 -0.0072506126 -0.04981195 -0.0069062286 0.0022206425
-0.007148078 -0.052581877 0.006735464 -0.060052518 -0.041883368 0.009004071 -0.027967712 -0.038342535
0.037103195 -0.021747148 -0.03938064 0.010826952 -0.02391784 0.017801005 0.023960184 0.015079004
0.03460584 0.009342544 0.034169514 0.016918927 0.01940466 0.01261302 -0.00015797271 -0.0010167706
-0.00037885414 0.020716947 0.011314387 0.023099218 -0.004602521 -0.0029356577 -0.0038869146 -0.038060263
-0.010658329 -0.048227463 0.0060194083 -0.010258461 -0.003346332 -0.04278632 -0.012206286 -0.042633124
-0.046614435 0.016114276 -0.014903866 -0.025512185 0.05371268 -0.025270516 -0.021707598 0.035961322
-0.025931925 -9.811143e-05 0.0149693 0.01194962 0.021720763 0.033695467 0.01778269 0.014939542
0.040560428 0.0187561 -0.023361057 -0.023490932 0.0025568202 0.021401308 4.0050065e-05 -0.006183363
-0.023647694 -0.0078364685 0.0014780181 -0.059722576 0.005477207 -0.053719778 0.010474197 -0.0016417477
-0.01878263 -0.05577253 -0.00864891 -0.057634052 -0.046385705 0.024200901 -0.03948617 -0.043243024
0.033997446 -0.032529555 -0.04026977 0.012159459 -0.037839647 0.0066932137 0.032666445 -0.009109944
0.0196607 0.019339023 -0.0055893324 0.024602747 0.041148487 -0.0023892217 -0.0061983354 -0.018265298
-0.001245839 0.017887112 -0.013437268 0.014061494 -0.0022740678 0.0016599557 -0.007465645 -0.03973859
-0.019832948 -0.05584264 0.011377058 -0.004469007 -0.014557477 -0.032336388 -0.0077681006 -0.033339288
0.0130508775 -0.00021809833 -0.019767547 -0.021680601 -0.013291939 -0.0068993974 0.019908464 0.0004093969
0.01976173 -0.0037997095 -0.014459299 -0.0020297493 0.0068653068 0.0037775736 0.019156814 -0.008302506
-0.001701397 -0.008439524 -0.012024437 -0.01126981 0.012577442 0.012831547 -0.008638186 -0.02188211
0.0021680554 0.008135185 -0.015708601 -0.005509571 0.0012025393 0.0052526616 0.011262069 0.016763914
-0.009277171 0.024460677 0.009415067 -0.020705627 -0.02430439 0.034002386 -0.015216133 -0.030360296
00000000: e267 17bd 14a1 813c 3510 c6bc b9a1 fcbc
00000010: 40e9 313d 7912 73bc 9c87 11bd 1cb6 853c
00000020: d498 a2bc f505 043c 43b7 203d 4439 443c
00000030: 647c b53c b5c9 7c3b 3b4f 923c 9688 4d3c
00000040: 8de1 203c 065a 793c b81f 89bc 2a59 bc3b
00000050: bcea 76bb ac7f ac3c 5340 423c a031 9a3c
00000060: b12b 14bc 7765 fbbb 0d7c 2fbc d28d 5fbd
00000070: 0c47 8abb cd5b 60bd 20c8 b53a af69 20bc
00000080: 442b 70bc 8a06 4ebd df94 003b a562 21bd
00000090: 8385 30bd 0f67 8c3c 5502 21bd 242c 30bd
000000a0: e418 3f3d e81e e3bc 8122 06bd c87e a33c
000000b0: d57b 11bd 0581 8a3c 730b 893c 3d6c c73b
000000c0: 32d9 b33c faa3 eb3c 722e cb3c 8f7e 963c
000000d0: c536 ba3c 3b93 723c 9c04 0ebc 6d53 00bc
000000e0: 7ad1 bd3a 62d0 803c 0981 363a ef6d 2d3c
000000f0: 78b1 f1bb 179c a7bb 8ba2 bc3b 7296 42bd
00000100: d09e 82bc 9be7 46bd 5cda 453c 7d3a 55bc
00000110: 30a5 f83b a063 33bd 0e3a 2ebc c752 47bd
00000120: 99c4 23bd 1b90 af3c 3c13 c0bc 4340 0cbd
00000130: ef02 5f3d f15a 9bbc 464a 1dbd 12e5 bd3c
00000140: 1e06 e6bc c97c 7d3c d9b0 6b3c 2896 693c
00000150: 93b1 043d bb0d 033c b909 a03c af65 9c3c
00000160: e08e 283b a473 a43c 4be3 b6bb 88ab ddbb
00000170: 42ec 55bb b5ae e73c d32d 103c cec2 a63c
00000180: 68b9 d2bb e825 27bc 4fb6 d9bb 539f 6abd
00000190: 8c96 edbb 9e07 4cbd a54d e2bb 3388 113b
000001a0: 6d3a eabb 1860 57bd 2bb5 dc3b a1f9 75bd
000001b0: e58d 2bbd d085 133c 8b1c e5bc 100d 1dbd
000001c0: 85f9 173d 1327 b2bc 984d 21bd 8763 313c
000001d0: 59ef c3bc 6ad3 913c 2648 c43c ed0d 773c
000001e0: dabe 0d3d 7811 193c 55f5 0b3d 9099 8a3c
000001f0: 86f6 9e3c d7a6 4e3c 7aa5 25b9 2945 85ba
00000200: f1a0 c6b9 96b6 a93c fb5f 393c 923a bd3c
00000210: bfd0 96bb 2a64 40bb 9bbb 7ebb 14e5 1bbd
00000220: 46a0 2ebc 298a 45bd 753e c53b 1b13 28bc
00000230: 234e 5bbb b540 2fbd e0fc 47bc 12a0 2ebd
00000240: c7ee 3ebd 1602 843c 582f 74bc eefe d0bc
00000250: d401 5c3d 1d04 cfbc 22d4 b1bc 2e4c 133d
00000260: 306f d4bc 2cc1 cdb8 cb41 753c 57c8 433c
00000270: beef b13c 4204 0a3d 01ad 913c fbc4 743c
00000280: b122 263d 65a6 993c b05f bfbc 0e70 c0bc
00000290: 5390 273b cc51 af3c 6efb 2738 cf9d cabb
000002a0: cfb8 c1bc 8864 00bc 0fba c13a a99f 74bd
000002b0: 247a b33b 4509 5cbd f79b 2b3c e92f d7ba
000002c0: 08de 99bc bd71 64bd 28b4 0dbc af11 6cbd
000002d0: f0fe 3dbd f840 c63c 40bc 21bd 991f 31bd
000002e0: e840 0b3d b63d 05bd eaf1 24bd 7838 473c
000002f0: bffd 1abd bf52 db3b 40cd 053d e041 15bc
00000300: 7a0f a13c df6c 9e3c b826 b7bb b38b c93c
00000310: 518b 283d 7d94 1cbb 681b cbbb 1ba1 95bc
00000320: 6c4b a3ba fe87 923c fd27 5cbc 2e62 663c
00000330: 8708 15bb df92 d93a 5fa2 f4bb efc4 22bd
00000340: b578 a2bc 41bb 64bd d766 3a3c bf70 92bb
00000350: 7c82 6ebc 2973 04bd 8d8b febb c78e 08bd
00000360: 59d3 553c 53b1 64b9 8def a1bc 849b b1bc
00000370: 6fc6 59bc 5714 e2bb 1317 a33c 52a4 d639
00000380: 5ae3 a13c 8c04 79bb b2e6 6cbc 8b05 05bb
00000390: 5ef6 e03b 2b91 773b c0ee 9c3c 3c07 08bc
000003a0: 6901 dfba ee45 0abc 2502 45bc 02a5 38bc
000003b0: 9e11 4e3c 693b 523c 2e87 0dbc 1c42 b3bc
000003c0: ef15 0e3b 7049 053c 53af 80bc a289 b4bb
000003d0: 869e 9d3a 851e ac3b 8b84 383c 7a54 893c
000003e0: 47ff 17bc c261 c83c a741 1a3c d99e a9bc
000003f0: 001a c7bc 1646 0b3d 164d 79bc 28b6 f8bc

model.0.bias f4 [64]
0.56385785 0.57985485 0.57462126 0.5749242 0.5739265 0.57250434 -0.0067029223 0.5805019
0.5727088 0.5872362 0.57885396 -0.0023786006 0.5835048 0.5655062 0.55769336 0.58293504
0.57223755 0.5565057 0.5659983 0.586597 0.5817522 0.56661654 0.5767849 0.38082632
0.57216287 0.577035 0.57368624 0.578914 0.5821123 0.5123491 0.577261 0.56609255
0.5718963 0.46989578 0.5805026 0.5856431 0.5685942 0.56260926 0.5753476 0.5658591
0.57805616 0.56543076 0.5768251 0.5641143 0.5533501 0.5656253 0.56751233 0.5850721
0.5712054 0.5608901 0.5747138 0.57233053 0.5677032 0.484417 0.5772071 0.5780344
0.5449021 0.5681424 0.56931305 0.5518127 0.5706643 0.58427685 0.5713993 0.56833863
00000000: fd58 103f 5e71 143f 611a 133f 3b2e 133f
00000010: d9ec 123f a58f 123f 30a4 dbbb c69b 143f
00000020: 0b9d 123f 1d55 163f c62f 143f 4ce2 1bbb
00000030: 9260 153f 04c5 103f fec4 0e3f 3b3b 153f
00000040: 297e 123f 2877 0e3f 44e5 103f 392b 163f
00000050: b6ed 143f c80d 113f 2da8 133f abfb c23e
00000060: 4479 123f 91b8 133f 1add 123f b533 143f
00000070: 5005 153f 5029 033f 60c7 133f 71eb 103f
00000080: cc67 123f 2e96 f03e d29b 143f b5ec 153f
00000090: 648f 113f 2907 103f fb49 133f 24dc 103f
000000a0: 7dfb 133f 12c0 103f cfaa 133f cb69 103f
000000b0: 5aa8 0d3f d2cc 103f 7d48 113f 49c7 153f
000000c0: 843a 123f 7e96 0f3f 7220 133f 4184 123f
000000d0: ff54 113f 8105 f83e d8c3 133f 10fa 133f
000000e0: b47e 0b3f c871 113f 80be 113f 9943 0d3f
000000f0: 0e17 123f 2b93 153f 3947 123f a47e 113f

model.4.weight f4 [64, 64]
-0.003473153 -0.0013410691 -0.0029345744 -0.0014845299 -0.0006314875 0.0011456151 -0.00017989404 -0.00044858054
-0.0037823054 0.0057308055 -0.0019026872 0.0019392887 0.003141797 -0.0033121943 0.00041692072 0.0008117524
-0.0015312618 -0.0059496188 -0.0005438649 0.0012697856 0.0007577312 0.005272701 -0.0007173577 -0.0002975507
-0.0025071485 0.0011369123 -0.0018472323 -3.7166257e-05 0.0068114838 -0.0007341241 0.0059795817 -0.0032284085
-0.00033956717 -0.001959034 -0.00037676742 -0.0019994143 0.0023710877 -0.0015391385 -0.0008048152 -0.0032316777
0.0009193479 0.0014527508 0.00012068749 -0.0020134924 -0.0012381631 -0.0039013918 0.002118882 -7.769152e-05
-0.0029802418 0.00025690513 0.0015484345 -0.000452926 -0.0011491947 -0.003275607 -0.0022967667 -0.00022814519
0.0027850014 -0.0029985216 -0.0008023687 -0.0041931667 -0.0044693714 0.004374842 -0.0007730007 0.0036811323
-0.00873125 -0.005721317 -0.004426264 -0.0023520149 -0.009416771 -0.008161637 -0.001339494 -0.0043929615
-0.0062660966 -0.0036998887 -0.0103098545 -0.0022530097 -0.0027825974 -0.005970544 -0.01006793 -0.00995516
-0.008919976 -0.0073296297 -0.01024194 -0.0023879227 -0.0033259352 -0.007783588 -0.0071543986 -0.0004555609
-0.008555342 -0.0018288994 -0.0048512206 -0.0070614824 -0.008554235 0.0017199897 0.00095774175 -0.00630651
-0.004294749 0.0004222739 -0.004613765 -0.0033000286 -0.0083616255 -0.0036381956 -0.008029436 -0.007750074
-0.005642688 -0.00235252 -0.0050844396 -0.0073218197 -0.0023940867 -0.0043525766 -0.003889706 0.0009535758
-0.0072313296 -0.006528752 -0.004791108 -0.00687883 -0.0068904813 0.003137743 -0.0025938952 -0.0040920344
0.0004665682 -0.005442756 -0.003930877 -0.010555131 -0.006066831 -0.008298804 -0.0056787236 -0.009349577
0.0017312804 0.0034401577 -0.005896731 -0.0012337565 -0.0015718985 -0.0004070602 0.0020912716 0.003571288
-0.0023211627 0.004982701 0.0026924498 0.0038745534 -0.004058435 0.0042137126 0.002166923 0.00071678206
-0.0048550535 -0.0012059042 -0.0012901395 -9.1242684e-05 0.00035104572 -0.0025706766 -0.0014454154 -0.0015416534
-0.0063937437 -0.0024415692 -0.00045822037 -4.85477e-05 0.0013660656 -0.003077425 -0.003592557 0.00097607955
-0.00051632285 0.00037063228 -0.0029042868 0.0002289005 -0.003019493 -0.006715001 -0.0041830777 -0.00011746854
0.0015657694 0.0022320275 -0.0018400172 0.0015805948 -0.0026123668 -0.001992845 0.00058152585 -2.637407e-06
0.00072891783 -0.0028486985 0.0008390635 8.3776256e-05 -0.001464404 0.0009393478 -0.0059416657 -0.00094470195
-0.003964463 0.00067238964 -0.0020026546 0.0032074857 -2.222817e-05 -0.0023487092 0.0019124299 0.000105923275
-0.00022211102 0.0044999444 0.0017309432 0.001414269 0.0021802813 -0.004323993 0.003279706 -0.00043976028
-0.0047840225 0.0015088648 -0.00019140347 -0.00107501 0.00021686612 0.0020859856 -0.0025841207 0.00056748063
0.00094222167 0.0017481955 0.00050447765 0.0031667647 0.003706174 0.00022634603 0.0010614983 0.0009443225
-0.0005419714 -0.0033901636 -0.00028829486 0.00109665 0.0030751645 -0.002095552 -0.000675874 -0.0048991893
0.0026625693 0.004960519 -0.0021741549 -0.0009112784 -0.004653625 -0.00018012807 -0.0018807966 0.0012974464
0.0020012558 -0.004833605 0.00041793662 -0.0027801185 -0.001529768 0.002016821 0.0011030918 0.00013500598
0.0032722792 0.0009836821 0.0026063474 -0.00013864343 0.00013834758 -0.00060446595 -0.0025789149 -0.0053203013
-0.0022505154 -0.0032760322 -0.0027651489 0.0009407198 0.0027987529 0.0017989723 -0.00034455565 -0.0024930676
00000000: d79d 63bb d0c6 afba fd51 40bb 8f94 c2ba
00000010: 698a 25ba 7728 963a f0a1 3cb9 762f ebb9
00000020: 8ee0 77bb 7bc9 bb3b 9763 f9ba bb2f fe3a
00000030: 9be6 4d3b 6611 59bb 2796 da39 c8cb 543a
00000040: 9fb4 c8ba 05f5 c2bb 2892 0eba ef6e a63a
00000050: 7ba2 463a 9fc6 ac3b 0f0d 3cba 9400 9cb9
00000060: f94e 24bb 7204 953a d51e f2ba f7e2 1bb8
00000070: de32 df3b 3c72 40ba 5ef0 c33b b593 53bb
00000080: ef07 b2b9 2363 00bb de88 c5b9 9b08 03bb
00000090: 4064 1b3b ebbc c9ba 3cfa 52ba 8eca 53bb
000000a0: 6500 713a 3a6a be3a 9a19 fd38 ccf4 03bb
000000b0: dc49 a2ba 7eae 7fbb f1dc 0a3b 51ee a2b8
000000c0: 2950 43bb 39b1 8639 d7f4 ca3a b376 edb9
000000d0: 93a0 96ba 91ab 56bb 5a85 16bb 423a 6fb9
000000e0: 9284 363b d882 44bb 0d56 52ba d566 89bb
000000f0: ce73 92bb d65a 8f3b 33a3 4aba 273f 713b
00000100: 840d 0fbc e379 bbbb 320a 91bb 4324 1abb
00000110: cd48 1abc 63b8 05bc f691 afba d5f2 8fbb
00000120: d453 cdbb d579 72bb aaea 28bc 3ba7 13bb
00000130: 3d5c 36bb 8ea4 c3bb f6f3 24bc f81a 23bc
00000140: 1725 12bc 642d f0bb cfcd 27bc b27e 1cbb
00000150: eff7 59bb 780d ffbb 726f eabb 59d8 eeb9
00000160: b52b 0cbc aeb7 efba fdf6 9ebb 0264 e7bb
00000170: 1027 0cbc 4771 e13a f610 7b3a d7a6 cebb
00000180: f7ba 8cbb a564 dd39 112f 97bb 4b45 58bb
00000190: 33ff 08bc cb6e 6ebb e58d 03bc 55f4 fdbb
000001a0: 4ce6 b8bb bc2c 1abb 5f9b a6bb e0eb efbb
000001b0: 1ce6 1cbb 0fa0 8ebb 70ea 7ebb 64f9 793a
000001c0: caf4 ecbb 24ef d5bb bafe 9cbb cf67 e1bb
000001d0: 8cc9 e1bb 98a2 4d3b 57fe 29bb 7916 86bb
000001e0: b99d f439 2659 b2bb 96ce 80bb 6eef 2cbc
000001f0: 44cc c6bb b5f7 07bc 9614 babb f82e 19bc
00000200: 21ec e23a 4574 613b 5d39 c1bb 00b6 a1ba
00000210: 2908 ceba b26a d5b9 b70d 093b 450c 6a3b
00000220: a61e 18bb ed45 a33b d073 303b 38ec 7d3b
00000230: 9ffc 84bb 2f13 8a3b ef02 0e3b 6ee6 3b3a
00000240: 2417 9fbb 6e0f 9eba e619 a9ba 8b59 bfb8
00000250: 8f0c b839 cc78 28bb 1874 bdba 4e11 caba
00000260: 9c82 d1bb bc02 20bb 4c3d f0b9 b29f 4bb8
00000270: 8e0d b33a a0ae 49bb 1b71 6bbb 97df 7f3a
00000280: d759 07ba 6c51 c239 d955 3ebb 0305 7039
00000290: b0e2 45bb 8309 dcbb 3312 89bb 7159 f6b8
000002a0: 813a cd3a 3547 123b bb2c f1ba f62b cf3a
000002b0: 3e34 2bbb 649a 02bb 8a71 183a 4ffe 30b6
000002c0: d914 3f3a 3bb1 3abb 99f4 5b3a 09b1 af38
000002d0: 3ff1 bfba 903e 763a 4eb2 c2bb e0a5 77ba
000002e0: 53e8 81bb 4e43 303a f83e 03bb ae34 523b
000002f0: a276 bab7 cdec 19bb 80aa fa3a 2023 de38
00000300: 79e6 68b9 4574 933b d1e0 e23a fe5e b93a
00000310: 0de3 0e3b 48b0 8dbb 56f0 563b a08f e6b9
00000320: 4ac3 9cbb 1ac5 c53a 7ab3 48b9 5ae7 8cba
00000330: 8e66 6339 08b5 083b 5a5a 29bb fbc2 143a
00000340: 6dff 763a b523 e53a ec3e 043a 7f89 4f3b
00000350: 48e3 723b 4d57 6d39 f921 8b3a 698c 773a
00000360: 1613 0eba 822d 5ebb 4826 97b9 78bd 8f3a
00000370: b388 493b 8755 09bb 232d 31ba 6189 a0bb
00000380: 807e 2e3b d98b a23b 447c 0ebb dce2 6eba
00000390: 707d 98bb c3e0 3cb9 1085 f6ba 140f aa3a
000003a0: 8027 033b 3863 9ebb 811e db39 a632 36bb
000003b0: 7f82 c8ba a42c 043b 9e95 903a 6490 0d39
000003c0: bc73 563b e5ee 803a 41cf 2a3b d060 11b9
000003d0: 6511 1139 0675 1eba 0303 29bb ec55 aebb
000003e0: 627d 13bb b3b2 56bb 8037 35bb a39a 763a
000003f0: 486b 373b 7ecb eb3a 7aa5 b4b9 bc62 23bb

model.4.bias f4 [64]
-0.00040159846 -0.0025137037 -0.0006904109 -0.00040159846 -0.0004029954 -0.00040159843 0.00032172623 0.0
0.00024184318 0.0 0.00032866554 -0.00040159843 0.0 -0.00082110375 0.00021485801 -0.00040159846
-0.009647254 -0.0009539749 0.00024664868 0.0 -0.0005989904 0.0 -0.0015602361 -0.0005144308
-0.0004029954 -0.0004015985 0.08715573 -0.00040159846 -0.00084476447 0.1290341 0.12292281 -0.00040159846
-0.0007454787 -0.00040159846 0.0 0.00018503776 0.00022847774 0.0003693907 -0.0005659037 0.00025538693
-0.0003959614 0.09904484 0.0 -0.002106117 -0.0005989904 -0.0004615636 0.0 0.0
0.0 0.0 -0.0009332015 -0.006726957 0.0 -0.00040159846 0.0 0.14816263
0.20417705 -0.00040159846 0.1414943 -0.0007184695 -0.00040159843 -0.00040299544 -0.00040159846 0.109577805
00000000: a28d d2b9 f3bc 24bb b1fc 34ba a28d d2b9
00000010: 2149 d3b9 a18d d2b9 5dad a839 0000 0000
00000020: 4997 7d39 0000 0000 be50 ac39 a18d d2b9
00000030: 0000 0000 573f 57ba 824b 6139 a28d d2b9
00000040: 840f 1ebc 2c14 7aba a050 8139 0000 0000
00000050: 9105 1dba 0000 0000 d680 ccba deda 06ba
00000060: 2149 d3b9 a38d d2b9 b47e b23d a28d d2b9
00000070: 2f73 5dba 8421 043e f4be fb3d a28d d2b9
00000080: 3b6c 43ba a28d d2b9 0000 0000 b206 4239
00000090: 8793 6f39 c8aa c139 2859 14ba 74e5 8539
000000a0: 0a99 cfb9 05d8 ca3d 0000 0000 c806 0abb
000000b0: 9105 1dba 05fe f1b9 0000 0000 0000 0000
000000c0: 0000 0000 0000 0000 18a2 74ba ce6d dcbb
000000d0: 0000 0000 a28d d2b9 0000 0000 f2b7 173e
000000e0: ca13 513e a28d d2b9 e2e3 103e ac57 3cba
000000f0: a18d d2b9 2249 d3b9 a28d d2b9 546a e03d

model.6.weight f4 [64, 64]
-0.0007365419 -0.0020964057 -0.004138091 0.002671483 0.0020176638 -0.0036161344 0.017791323 -0.0023395766
0.0059777163 0.00032109587 0.0116615 0.0019114013 -0.004708005 -0.00322215 0.005996281 -0.0038293276
0.047104705 0.0012702341 0.010404029 -0.0059633534 -0.0016567099 -0.0027492165 -0.0012187479 -0.0037596957
-0.0012485569 0.005623473 0.050110612 -0.0028982586 -0.0021644756 0.051625103 0.049973127 -0.00247221
-0.00016514712 0.00085713755 -0.00029672 0.007865081 0.008720686 0.010190627 0.0012494376 0.011952407
-0.00021571216 0.050350174 -0.0021155225 -0.0011774796 0.0006397256 0.0017919947 0.0026720047 -0.002002301
0.0025066074 -0.0014734057 0.0034860654 -4.853183e-05 -0.0065833833 0.0013550281 -0.0009554421 0.046283785
0.052289847 -0.0017723143 0.05117943 -0.00059117156 -0.0018205419 0.001572612 -0.0010754094 0.048682313
-0.0019382255 0.004970793 0.0008121 -0.0003735643 0.0007570664 0.0016482557 0.022488022 -0.0019487293
0.0075873733 0.00116015 0.014763082 0.0001159164 -0.0038450775 0.00070230424 0.007620771 0.00332595
0.057052724 -0.001679471 0.013381731 -0.0010451905 0.001535166 -0.005320709 -0.004415485 0.004965682
-0.0041247066 -0.0009381167 0.056842003 0.0015954165 -0.0013524302 0.061565448 0.06220533 0.0018400447
0.0014603751 0.0069976593 0.0011550137 0.009915929 0.010921094 0.012923704 0.004682175 0.015302697
-0.0015168444 0.058434874 0.00040482412 0.00028031584 0.0018364261 0.0005685316 0.0003940773 0.0014601202
0.0027631153 0.0029416503 -0.00012763267 -0.0012242099 0.00234947 -0.0027206722 0.0027874934 0.06516835
0.059492335 0.0042242953 0.061173536 0.006024568 -0.00439734 -0.0025860234 0.0005959345 0.060660835
-0.0038136046 0.0035560378 -0.0013597382 -0.0009123449 -0.0056505585 -0.0041971384 -0.017157052 -0.004559071
-0.0058762557 -0.00025534496 -0.0109067755 0.0005580141 0.0014190436 0.00059646537 -0.0058103316 0.00024779263
-0.045926124 -0.0022912289 -0.0098399045 0.00021970582 -0.00040761186 0.0017491065 -0.005761687 -0.007144456
0.00013411527 -0.002821249 -0.049302462 0.001572026 -0.00091662543 -0.04818777 -0.046738874 0.0015259392
0.0022550889 0.006067858 -0.005060499 -0.007352417 -0.008234158 -0.009761697 0.0027754363 -0.011035926
-0.0034153587 -0.04867148 0.0010236547 -0.0016186734 0.0042985557 0.00016298715 0.0010655128 -0.0005659591
-0.0028455523 -0.0010688375 -0.0027172456 -0.002503303 -1.7690765e-05 -0.00017123831 -0.0005151697 -0.04815589
-0.05270946 0.0005857225 -0.048321806 0.0019813708 -0.0013324571 -0.002150732 0.0007783067 -0.04687081
-0.0006808377 0.0059907064 0.0018975405 -0.0027925598 -0.0043270797 0.0004705277 -0.0014802166 -0.001850848
-0.0002545495 0.0040323036 -0.00089213456 0.0010245044 0.0022132965 0.0022934282 -0.00044718286 -7.8986246e-05
-0.003630943 0.0020232224 -0.0006151787 0.0039385916 -0.0009757837 -0.0021765644 -4.197332e-05 -0.0005717318
-0.0025700764 -0.0014220147 -0.0043845326 -0.004118133 -0.0030789308 -0.0050300364 -0.0054719304 -0.0047590383
0.0020108148 0.0029530658 -0.0032634533 -0.0005058377 -0.00089037785 -0.0011525654 -0.0023255255 -0.0007094689
0.0008080176 0.0003603752 -0.0033107724 -0.0015864328 0.003085979 -0.0030397207 -0.0067624915 0.0015837984
0.00019478152 -0.0034133238 -0.0059205596 0.00037280723 -0.00012811917 0.005577584 0.0011490409 -0.003404505
-0.0027944308 0.0031254927 -0.00504026 -0.0027793264 -0.0008997506 -0.0011030092 0.00067656103 -0.0055632344
00000000: 7d14 41ba da63 09bb d398 87bb 0c14 2f3b
00000010: c83a 043b abfc 6cbb 1cbf 913c 9553 19bb
00000020: b8e0 c33b c258 a839 e00f 3f3c fc87 fa3a
00000030: 9c45 9abb b52a 53bb 737c c43b 75f5 7abb
00000040: ddf0 403d fc7d a63a a975 2a3c 3c68 c3bb
00000050: f625 d9ba 332c 34bb 65be 9fba 3a65 76bb
00000060: 9ea6 a3ba 1c45 b83b c940 4d3d b6f0 3dbb
00000070: e0d9 0dbb d874 533d 9fb0 4c3d cd04 22bb
00000080: 582b 2db9 87b1 603a 1691 9bb9 8adc 003c
00000090: 35e1 0e3c 96f6 263c 2bc4 a33a 07d4 433c
000000a0: cb30 62b9 fc3b 4e3d 94a4 0abb a955 9aba
000000b0: 42b3 273a 5de1 ea3a cd1c 2f3b 0939 03bb
000000c0: e545 243b 4b1f c1ba 7976 643b a88e 4bb8
000000d0: 6cb9 d7bb 339b b13a a276 7aba 1194 3d3d
000000e0: e12d 563d 004d e8ba 86a1 513d daf8 1aba
000000f0: 409f eeba 1a20 ce3a c0f4 8cba 1b67 473d
00000100: 0e0c feba 09e2 a23b 1ce3 543a f4da c3b9
00000110: de75 463a 490a d83a cd38 b83c 816c ffba
00000120: 809f f83b 2d10 983a dbe0 713c 2518 f338
00000130: b2fd 7bbb d71a 383a a9b7 f93b 2ef8 593b
00000140: 1eb0 693d b221 dcba 0c3f 5b3c c6fe 88ba
00000150: a037 c93a 5859 aebb c6af 90bb 29b7 a23b
00000160: 8c28 87bb f2eb 75ba 29d3 683d 4b1d d13a
00000170: 0744 b1ba 0d2c 7c3d 04cb 7e3d a82d f13a
00000180: 0f6a bf3a 9f4c e53b d463 973a 6c76 223c
00000190: 63ee 323c f2bd 533c ee6c 993b 2ab8 7a3c
000001a0: dad0 c6ba 6859 6f3d 933e d439 5bf7 9239
000001b0: 3cb4 f03a 8309 153a 299c ce39 8161 bf3a
000001c0: 6215 353b b4c8 403b 22d5 05b9 ab75 a0ba
000001d0: 91f9 193b 4e4d 32bb 61ae 363b fc76 853d
000001e0: 3cae 733d f56b 8a3b 1a91 7a3d bd69 c53b
000001f0: 9017 90bb 467a 29bb 7d38 1c3a 7f77 783d
00000200: abed 79bb 6a0c 693b 3e39 b2ba 6e2a 6fba
00000210: 5228 b9bb 2688 89bb f28c 8cbc 4264 95bb
00000220: 9b8d c0bb d2df 85b9 55b2 32bc b147 123a
00000230: 34ff b93a 1d5c 1c3a 9864 bebb 2aea 8139
00000240: 081d 3cbd 7128 16bb 8d37 21bc d560 6639
00000250: bdb4 d5b9 4642 e53a 89cc bcbb 0a1c eabb
00000260: 4ba1 0c39 b4e4 38bb 61f1 49bd 710c ce3a
00000270: b149 70ba 8a60 45bd 4371 3fbd 0602 c83a
00000280: 1dca 133b e2d4 c63b 8bd2 a5bb 8bec f0bb
00000290: 90e8 06bc 86ef 1fbc 18e4 353b 07d0 34bc
000002a0: 36d4 5fbb bf5b 47bd 272c 863a ab29 d4ba
000002b0: e6da 8c3b 88e7 2a39 ada8 8b3a df5c 14ba
000002c0: 727c 3abb 3c18 8cba d113 32bb 750e 24bb
000002d0: a166 94b7 6f8e 33b9 740c 07ba 1c3f 45bd
000002e0: e0e5 57bd 2c8b 193a 16ed 45bd e3d9 013b
000002f0: d7a5 aeba 4cf3 0cbb 4707 4c3a 9bfb 3fbd
00000300: 3f7a 32ba b04d c43b e5b6 f83a 6103 37bb
00000310: 2dca 8dbb 29b1 f639 d403 c2ba 2798 f2ba
00000320: 0e75 85b9 6a21 843b 23de 69ba aa48 863a
00000330: f40c 113b 574d 163b de73 eab9 6ba5 a5b8
00000340: 1df5 6dbb 0a98 043b f243 21ba 4d0f 813b
00000350: bccb 7fba b1a4 0ebb 820c 30b8 46e0 15ba
00000360: ba6e 28bb e562 baba 20ac 8fbb 67f1 86bb
00000370: e3c7 49bb 01d3 a4bb e14d b3bb b5f1 9bbb
00000380: e0c7 033b 3988 413b a9df 55bb 329a 04ba
00000390: 3f68 69ba ad11 97ba d867 18bb a7fb 39ba
000003a0: 25d1 533a bef0 bc39 8bf9 58bb daef cfba
000003b0: 233e 4a3b 0d36 47bb e497 ddbb 7597 cf3a
000003c0: 443e 4c39 12b2 5fbb 4101 c2bb 5775 c339
000003d0: ba57 06b9 2ac4 b63b 6a9b 963a 1e1e 5fbb
000003e0: c522 37bb 11d5 4c3b c428 a5bb 5c25 36bb
000003f0: 3edd 6bba d992 90ba 3e5b 313a cb4b b6bb

model.6.bias f4 [64]
0.021489214 0.023484025 -0.020919925 -0.00089480705 -0.022838071 -0.001687555 0.0024782468 -0.0014509016
0.0030118455 -0.047762148 0.0012233644 -0.001840839 -0.001540095 0.0005622898 -0.021058192 -0.02284827
0.025197348 0.024030304 -0.00031269123 -0.004688628 -0.00031531983 0.0008060656 0.0051266635 0.022463882
0.0014516772 -0.02161861 -0.0011142279 0.0027264894 -0.0040805405 -0.0010013249 0.02324343 -0.00028555913
-0.031102868 0.0009863535 0.0032931806 -0.0005290789 0.03964487 -0.011761264 -0.020974342 -0.0006157794
0.000687256 -0.02651646 -0.0015690143 0.018934343 0.022927264 0.0048495247 -0.0032441234 0.03062731
-0.00017761464 0.00014894224 0.0033314694 0.02030574 0.022561288 -0.028442398 0.031455334 -0.006398516
-0.030826515 0.022038035 -0.0015698128 0.022305384 -0.018818084 -0.00039014264 0.024528587 0.0033402164
00000000: 260a b03c 9261 c03c 4360 abbc 7c91 6aba
00000010: e816 bbbc f330 ddba 156a 223b 2e2c beba
00000020: 6262 453b 3ea2 43bd 4c59 a03a 4f48 f1ba
00000030: 03dd c9ba a166 133a 3b82 acbc 4c2c bbbc
00000040: ab6a ce3c 33db c43c b5f0 a3b9 10a3 99bb
00000050: 8351 a5b9 264e 533a 92fd a73b 2d06 b83c
00000060: 3446 be3a 8319 b1bc 490b 92ba e7ae 323b
00000070: 0eb6 85bb e33e 83ba 0169 be3c 19b7 95b9
00000080: 71cb febc 8848 813a 67d2 573b e2b1 0aba
00000090: a962 223d 51b2 40bc 62d2 abbc 426c 21ba
000000a0: f828 343a 0c39 d9bc 62a7 cdba 321c 9b3c
000000b0: f5d1 bb3c c3e8 9e3b 5c9b 54bb 20e6 fa3c
000000c0: 113e 3ab9 612d 1c39 c854 5a3b 3958 a63c
000000d0: 73d2 b83c 0800 e9bc 4fd7 003d a4aa d1bb
000000e0: e387 fcbc 1c89 b43c 2dc2 cdba c8b9 b63c
000000f0: 6228 9abc 0f8c ccb9 2df0 c83c 88e7 5a3b
