CSSRS/RSIMDCL/checkpoint/pore2background_5_5rsim/latest_net_F3.pth (torch, 44759 bytes, 6 tensors)

model.0.weight f4 [64, 4, 3, 3]
000000 b3 7b a9 bd 74 7c 3c bc d4 a5 89 bd 70 14 93 bd
       -0.08275547 -0.011504281 -0.06721082 -0.071816325
000010 32 c0 0c bd 22 72 e7 bc db b5 58 bd 8c 1e 3f bc
       -0.03436298 -0.028252665 -0.052907806 -0.011664998
000020 d9 fb 85 bd 02 78 63 bc 1c 23 0d 3e 32 9b 92 39
       -0.06542177 -0.013883593 0.13782924 0.0002796292
000030 2f 7b 4c 3b 5b 4d 1b 3e f0 00 f0 bb 00 90 a2 3b
       0.0031201353 0.15166228 -0.0073243305 0.004961014
000040 9e 93 cf 3d da 7d 71 bb 95 f7 70 3d 9c af 21 bc
       0.101355776 -0.0036848695 0.058829863 -0.009868529
000050 98 12 51 3d 90 2c 23 3d a6 93 37 bd fc 8b 4b 3d
       0.051043123 0.03983742 -0.044818543 0.049694046
000060 80 a4 82 3d 38 a2 97 bc 0c c1 11 3d af 20 f0 bd
       0.06379032 -0.01850997 0.035584494 -0.11724984
000070 2d 56 81 bd 93 b4 bb bd 33 19 df bd a9 20 47 bc
       -0.06315265 -0.09165301 -0.10893478 -0.012153783
000080 b6 ea ce bd 58 53 f2 bd aa 28 8f bc 3c df bc bd
       -0.10103361 -0.11832303 -0.017475445 -0.09222266
000090 a2 93 44 bd cd cb 4b bd 40 5b d6 bc e6 28 4e bd
       -0.047992356 -0.049754906 -0.026166558 -0.050331973
0000a0 3d 1a ad bd 90 63 db bc c2 24 44 bd f3 d1 74 bd
       -0.0845227 -0.026780874 -0.047886617 -0.059770536
0000b0 12 7e c8 bc 1a 15 a7 bc 1f b7 cf 3d 8e ab 99 bc
       -0.024474178 -0.020395804 0.101423495 -0.018758561
0000c0 b9 e2 49 bd 97 ba c0 3d e6 78 3a bd 8c 86 5e bc
       -0.049288485 0.09410589 -0.045525454 -0.013581883
0000d0 6f d8 cf 3d a2 1b 8a bc 17 c4 65 3d 7c 57 fe bc
       0.10148703 -0.01685888 0.05609521 -0.031047575
0000e0 dc 36 2d 3d 1d 3e 49 3d 6f cf 29 bd e2 35 73 3d
       0.042288646 0.0491315 -0.04145759 0.05937756
0000f0 e3 66 53 3d c2 48 21 bd 8a a4 4c 3d 98 93 d3 bd
       0.051611792 -0.039376028 0.049961604 -0.10330886
000100 3b d8 6d bb 39 75 c3 bd d5 83 00 be 34 e7 62 bb
       -0.0036292213 -0.09543843 -0.1255029 -0.003462267
000110 48 e0 ee bd 68 29 d3 bd 84 3a 3a bc cf 96 c5 bd
       -0.11663872 -0.10310632 -0.01136649 -0.09647905
000120 91 26 be bd 7f 48 8b bd ce cf 84 bd d8 f7 40 bd
       -0.092847 -0.06800937 -0.06484948 -0.047111362
000130 ea 96 cc bd b3 f7 02 bd e4 5e 79 bd 79 21 88 bd
       -0.09989722 -0.031974506 -0.06088151 -0.066470094
000140 f0 7d 32 bd 39 df fe bc 90 a3 c8 3d e9 b2 5c bc
       -0.043577135 -0.0311123 0.09796822 -0.01347039
000150 e3 1d 63 bd a0 78 e2 3d 8c fd 9f bd 49 9f 51 bc
       -0.055448424 0.11058164 -0.07812032 -0.012794324
000160 33 d5 d0 3d 8c 96 2a bd ef eb 8a 3d 7c 21 7e bd
       0.101969145 -0.04164748 0.06783282 -0.062043652
000170 d1 b5 71 3d 0a 92 34 3d 77 8b af bd 9e 5d 2b 3d
       0.059011284 0.044084586 -0.08571523 0.041837327
000180 23 38 81 3d 8b 87 88 bd 2e ae 95 3d 70 39 14 be
       0.06309535 -0.06666478 0.07308613 -0.14475036
000190 e7 7f ed bc 13 21 10 be f8 5f 24 be f6 de 92 3c
       -0.028991653 -0.14075117 -0.16052234 0.017928582
0001a0 dc 55 21 be 79 81 14 be 8c 6a 34 bd 0f c8 0e be
       -0.15755409 -0.14502515 -0.044046924 -0.13943504
0001b0 9b 77 c3 bd 93 0a 67 bd 8f d7 85 bd 74 5a bd bd
       -0.09544297 -0.05640657 -0.06535255 -0.09245768
0001c0 a5 b7 b5 bd fa 4c 7a bd bb aa 84 bd 92 59 4b bd
       -0.08872918 -0.061108567 -0.06477877 -0.049645968
0001d0 79 25 83 bd 4a 2c 4e bc 0a 99 ca 3d f3 64 27 bd
       -0.06403632 -0.0125838015 0.09892471 -0.040867757
0001e0 c6 14 86 bd 6f 59 db 3d 74 b0 9f bd b8 9d 44 bc
       -0.06546931 0.107104175 -0.07797328 -0.012000494
0001f0 f8 16 f1 3d 5e c2 13 bd 72 97 ec 3d 01 e7 23 bd
       0.11771959 -0.036074035 0.115523234 -0.040015224
000200 7c 08 e5 3d 1d e9 b9 3d 6e e1 76 bd 90 f1 b9 3d
       0.11183259 0.09077666 -0.06027358 0.090792775
000210 d8 16 d9 3d b2 7a a2 bd be 23 9f 3d 0b 5e fd bd
       0.1060006 -0.079335585 0.07770489 -0.12371453
000220 e9 c4 2e bc 88 84 06 be 10 4f 17 be 01 b0 ca bb
       -0.010667064 -0.13136494 -0.14776254 -0.006185532
000230 66 44 13 be a3 db 0d be 53 65 4c bc 9c 24 16 be
       -0.1438156 -0.13853316 -0.012475329 -0.14662403
000240 d8 b7 cf bd a9 3b 55 bd 43 e3 9f bd 21 30 c7 bd
       -0.10142487 -0.05205885 -0.078070186 -0.09725977
000250 2c cf ab bd 1e 3a 87 bd 1d 28 d3 bd 50 75 76 bd
       -0.08389124 -0.06602882 -0.103103854 -0.06017047
000260 ae 69 2f bd 66 cb e3 bc 36 9a f8 3d c1 68 a8 bc
       -0.042825393 -0.027806949 0.121387884 -0.020557763
000270 ca 71 47 bd 53 19 ea 3d f0 57 78 bd 9f 94 e7 bc
       -0.048692502 0.114306115 -0.06063074 -0.02826911
000280 a6 d9 eb 3d 18 18 d3 bc 4d 99 f1 3d 21 c8 62 bd
       0.115161225 -0.025768325 0.11796818 -0.05536664
000290 cf 59 e1 3d b7 a7 9f 3d 55 3e 80 bd 94 b2 ac 3d
       0.11003458 0.07795661 -0.06261889 0.084324986
0002a0 86 58 e2 3d 9f 05 7f bd 57 82 ba 3d f9 a7 0c be
       0.11052041 -0.06226122 0.091068916 -0.13735951
0002b0 d5 73 f6 bc 11 31 0f be af 10 1f be 20 a0 84 3c
       -0.03008453 -0.13983561 -0.15533708 0.016189635
0002c0 eb d5 26 be 51 8b 16 be 93 24 96 bc e9 be 14 be
       -0.1629254 -0.14701582 -0.018327987 -0.14525951
0002d0 52 5d a0 bd 4b 03 61 bd 00 df 45 bd fc f4 5f bd
       -0.078302994 -0.05493478 -0.048308372 -0.054676995
0002e0 0d 7e d2 bd 5e 9d 30 bd e0 06 61 bd b5 7e 84 bd
       -0.102779485 -0.043118827 -0.054938197 -0.0646948
0002f0 69 50 65 bd 45 f7 c6 bc 91 c9 c2 3d 2d de 2b bc
       -0.05598489 -0.02428783 0.09511102 -0.010489983
000300 72 1a 84 bd 63 51 d0 3d d5 65 88 bd 0a f1 bd bc
       -0.064503565 0.10171773 -0.06660048 -0.023186225
000310 18 a6 d1 3d 13 a2 6f bc 3e ea a4 3d b1 e8 2d bd
       0.10236758 -0.014626044 0.08052491 -0.04245824
000320 26 de 8d 3d a2 6f 67 3d b3 08 aa bd f3 ed 97 3d
       0.06927137 0.056502946 -0.083024405 0.07418432
000330 31 1b 96 3d f5 41 79 bd 04 b0 83 3d 77 ad 03 be
       0.07329405 -0.060853917 0.06430057 -0.1285914
000340 23 5a 08 bd 28 93 05 be 26 6b 14 be 25 71 52 3b
       -0.033289086 -0.13044417 -0.14493999 0.0032110896
000350 36 95 0f be 3b 86 06 be 61 2b ba bc 25 ca 01 be
       -0.14021763 -0.13137142 -0.022725763 -0.12674768
000360 6c 26 da bc 08 3e 83 bd a9 6f 88 bc 41 e9 15 bd
       -0.02662965 -0.06408316 -0.016654806 -0.0365994
000370 e8 c7 c6 bd 85 15 ca bc fc b3 48 bd 94 8d 84 bd
       -0.09706098 -0.024668464 -0.04899977 -0.064723164
000380 51 b6 9a bc d4 8d c3 3b 5d 31 ba 3d 07 1f 87 bc
       -0.018885763 0.005967835 0.090914465 -0.016494287
000390 c1 f9 42 bd b7 c0 c8 3d cb b3 42 bd 5e a2 84 bc
       -0.047601465 0.098023824 -0.047534745 -0.016190704
0003a0 25 8c 9f 3d e7 f3 b1 bc 42 96 96 3d 8d 45 15 bd
       0.07790402 -0.021722747 0.07352878 -0.036443282
0003b0 52 37 61 3d a3 9b 83 3d 4f 2c 58 bd 7b 2b 68 3d
       0.0549844 0.0642617 -0.05277663 0.05668209
0003c0 f0 51 87 3d f0 d0 27 bd 89 ba 58 3d af b0 c6 bd
       0.06607425 -0.040970743 0.05291227 -0.097016685
0003d0 06 99 c7 ba e2 53 bb bd db 73 f3 bd 94 28 cb 3a
       -0.00152281 -0.09146859 -0.11887332 0.0015499764
0003e0 09 1b 06 be 67 73 de bd fe 26 af bc c0 f9 cd bd
       -0.1309625 -0.10861855 -0.021380898 -0.10057402
0003f0 f3 52 6e bd 37 74 e2 bc 4d 34 c7 bc d2 35 65 bd
       -0.058184575 -0.027643306 -0.024316931 -0.05595953

model.0.bias f4 [64]
000000 3a 06 09 3f f9 c3 1c 3f 90 cb 3b 3f 49 2c 48 3f
       0.53525126 0.6123653 0.73357487 0.78192574
000010 78 3b 48 3f bb ee 33 3f 4f 76 1f 3f 4b d5 2f 3f
       0.7821574 0.7028615 0.622899 0.68684834
000020 8b e2 4b 3f a4 a6 1b 3f 61 f0 41 3f f7 e2 17 3f
       0.7964255 0.6080115 0.75757414 0.59330696
000030 da 0f 4e 3f 7d 09 22 3f e7 d8 1f 3f 73 66 39 3f
       0.8049294 0.6329573 0.6244034 0.7242195
000040 da 88 32 3f bc e7 22 3f 6f 22 40 bb 80 3a 47 3f
       0.6974007 0.6363485 -0.00293174 0.7782364
000050 86 b4 16 3f a2 aa 45 3f 8a 66 4e 3f 19 a1 24 3f
       0.58869207 0.7721349 0.8062521 0.64308316
000060 52 74 42 3f 92 3e 39 3f 0d af 24 3f e0 20 1c 3f
       0.7595874 0.723611 0.64329606 0.60987663
000070 f8 e6 25 3f e4 0a 63 3e 01 8f 1e 3f 46 52 25 3f
       0.64805555 0.22172123 0.61936957 0.64578664
000080 b5 51 19 3f 62 87 52 3f 3a 3a 19 3f 9d 23 3d 3f
       0.598903 0.8223783 0.5985447 0.73882467
000090 de 84 3a 3f 45 90 21 3f ed dd 2c 3f 14 80 2b 3f
       0.7285899 0.6311076 0.6752613 0.66992307
0000a0 81 00 4f 3f 1e c1 1a 3f 9c d5 1e 3f 40 0d 4c 3f
       0.80860144 0.60450923 0.6204469 0.7970772
0000b0 53 b1 a1 3e e8 0f 4a 3f 32 b7 1b 3f 57 02 46 3f
       0.315806 0.7893052 0.6082641 0.7734732
0000c0 42 81 1e 3f 83 42 77 3e d4 45 20 3f e5 e4 21 3f
       0.6191598 0.24146466 0.6260655 0.6323989
0000d0 da d7 17 3f e6 75 24 3f 94 12 19 3f e1 35 d8 3e
       0.5931374 0.642424 0.5979397 0.42228606
0000e0 63 f8 17 3f 27 b0 1e 3f e6 ab 25 bb 10 32 4e 3f
       0.59363383 0.6198754 -0.0025279461 0.8054514
0000f0 83 34 50 3f 8a 69 30 3f 2a c3 1c 3f c4 6e 4f 3f
       0.81330127 0.6891104 0.61235297 0.8102839

model.4.weight f4 [64, 64]
000000 df 85 86 bb 17 47 9c ba 78 86 9c ba 62 c8 c5 3a
       -0.004105314 -0.0011923042 -0.001194193 0.0015089626
000010 c6 ba c4 ba c0 f5 09 bb 5f 72 1d bb 14 92 3e 3b
       -0.0015009276 -0.002105102 -0.002402447 0.0029078769
000020 3b 02 01 b9 f2 59 64 3b c5 14 b8 ba 10 41 93 39
       -0.0001230323 0.003484365 -0.0014044276 0.000280865
000030 79 69 8e bb 5b 04 1a 3b e0 9b cf ba 89 33 92 3b
       -0.0043460694 0.0023501131 -0.0015839301 0.00446171
000040 cd b5 1e 3a 02 58 4e bb b0 6e 89 ba b3 cb 65 bb
       0.0006054312 -0.0031485562 -0.0010485258 -0.003506404
000050 52 f6 13 ba 5b ca 52 3a 50 d2 3b 3a 49 52 8f 3a
       -0.00056443096 0.00080410176 0.0007164823 0.0010934557
000060 7e fc f1 ba b0 50 27 b9 d2 73 fb 39 8e c5 66 3b
       -0.0018462089 -0.0001595642 0.00047960744 0.0035212967
000070 82 44 4d bb de 97 da 3a 18 57 a1 ba cd 04 89 bb
       -0.0031321351 0.001667734 -0.0012309281 -0.0041814805
000080 93 54 89 ba 6f 8c 63 3a e1 70 7c bb 54 ea 71 b8
       -0.0010477476 0.0008680289 -0.003851943 -5.7677113e-05
000090 d9 fe 0e bb 87 18 a2 b9 19 66 2d bb 33 53 b6 ba
       -0.0021819382 -0.00030917322 -0.002645856 -0.0013910293
0000a0 93 6c b6 3a c6 2f 6a bb bb f4 81 bb 1f f5 03 bb
       0.0013917856 -0.0035734042 -0.0039659417 -0.0020135117
0000b0 e5 57 69 3a 12 63 2c 3a 55 b0 b4 ba a9 42 04 39
       0.0008901342 0.0006576042 -0.0013785461 0.00012613334
0000c0 12 0b 4a 3b 47 9e a8 3a 61 28 74 3b 36 85 09 3b
       0.0030829352 0.0012864553 0.0037255513 0.002098394
0000d0 cb 01 e7 ba 8f 28 d8 ba a2 90 25 3b ed da b1 b9
       -0.0017624436 -0.001649158 0.002526321 -0.00033923183
0000e0 2e 2f c1 3b 39 3f 95 bb b6 77 0e 3b 27 52 22 39
       0.005895517 -0.004554656 0.0021738834 0.00015480128
0000f0 1a 94 0a ba 1e 96 2d 3b 20 73 58 bb 88 c9 8e 3a
       -0.0005286351 0.0026487182 -0.0033027604 0.0010893801
000100 4d 59 84 3b c6 40 0c bb 64 35 1b ba 00 85 f5 ba
       0.004038966 -0.0021400913 -0.00059207366 -0.0018731654
000110 49 9d 45 b9 95 86 d9 3a 8d c6 9c bb 61 15 39 3a
       -0.00018845977 0.0016595895 -0.0047844113 0.00070603756
000120 e8 b3 13 b8 9c ed ad b9 aa 22 65 3b c1 a2 2e 3b
       -3.5215082e-05 -0.00033174164 0.0034963288 0.0026647302
000130 5b 55 ce 3a 7b d8 3a bb 0f c0 4a 3b 8b 76 83 bb
       0.0015741991 -0.002851038 0.003093723 -0.004011934
000140 11 23 0f ba e7 df 8a bb d5 a7 c4 39 aa 0f 1f 3b
       -0.00054602424 -0.004238117 0.00037509078 0.002427081
000150 24 31 c6 bb 68 54 fc 38 31 94 a4 3b f5 24 be 3a
       -0.0060483385 0.00012032018 0.0050225486 0.0014506864
000160 15 0d 77 3a 3d 71 11 bb ac 8c 39 bb dd 04 aa 39
       0.00094242516 -0.002219274 -0.0028312607 0.0003242855
000170 1a 16 67 3a ed 87 01 3b 4c 96 63 ba 3f cc c0 ba
       0.0008815244 0.0019764856 -0.0008681759 -0.0014709308
000180 61 4e c0 3a 38 66 84 3b cf ad 88 3a 06 40 cb 3b
       0.0014671796 0.0040405057 0.0010427776 0.0062027005
000190 7b 1f 0d ba f6 fc 24 bb c3 7b f8 3a ed 17 cb ba
       -0.0005383414 -0.002517519 0.0018957782 -0.0015494801
0001a0 2a 1d 85 3b 72 b8 84 3b c5 f0 7c bb 87 39 90 3a
       0.0040623145 0.004050308 -0.0038595658 0.0011003473
0001b0 53 86 29 bb 66 82 44 b9 d0 cf 28 bb d1 66 0b bb
       -0.0025867417 -0.00018740594 -0.0025758632 -0.0021271
0001c0 d9 32 41 bb 82 ab d8 ba 9e fd 32 3a f9 f3 6d 38
       -0.002947977 -0.0016530605 0.0006827953 5.673242e-05
0001d0 71 76 56 bb b2 fe b2 b9 08 e6 7c 3a da f4 67 bb
       -0.0032724405 -0.00034140568 0.00096473144 -0.0035393746
0001e0 1e 7a 97 ba 8b ce 65 3b b7 59 88 bb f3 9d c4 3a
       -0.001155678 0.0035065736 -0.0041610855 0.0015000686
0001f0 dd 95 0e ba 2b 53 09 ba 52 5f 2b bb d4 96 da ba
       -0.00054392015 -0.0005238528 -0.0026149345 -0.001667703
000200 39 19 b9 3a 4a 67 64 3a 78 b4 45 bb c2 82 8e bb
       0.0014121897 0.0008712901 -0.0030167382 -0.0043490836
000210 9f 2a 11 bb c0 73 9d 3a d8 56 20 3b 13 1f 36 3b
       -0.0022150648 0.0012012646 0.0024465825 0.0027789518
000220 e9 24 18 bb b4 02 27 3b ac 9d 45 3a 8f b4 40 ba
       -0.002321536 0.002548379 0.00075384486 -0.0007351124
000230 f7 56 1b ba 87 8b fe 3a 8d 77 bd ba 77 fd d5 ba
       -0.00059257395 0.0019420244 -0.0014455185 -0.0016326149
000240 1f f9 19 bb 97 e3 00 3c 77 26 d4 3a c1 70 8e 3a
       -0.0023494435 0.007866762 0.001618578 0.0010867344
000250 fb 07 97 3a 03 4a db bb c0 08 a7 3a a4 a7 d2 3a
       0.0011522764 -0.0066921725 0.0012743697 0.0016071689
000260 7f 56 28 bb 5b 8f 19 bb d3 ca 4b bb ec 95 d0 ba
       -0.0025686321 -0.0023431394 -0.0031096234 -0.0015913821
000270 3a ff 93 3a 3b 30 0f 39 76 dd 98 39 7d 20 16 3b
       0.0011291273 0.0001365551 0.000291567 0.0022907548
000280 84 95 19 ba 11 98 16 bb c3 ff 21 3b f6 80 af 3b
       -0.00058587664 -0.0022978822 0.0024719096 0.0053559495
000290 b2 11 a7 bb 4a ff bd 3a e2 1c c6 3a ef fd e3 ba
       -0.005098545 0.0014495638 0.0015114809 -0.0017394404
0002a0 1e 19 6d ba e9 1d 4a b9 e0 0e 92 bb b3 37 52 bb
       -0.0009044575 -0.00019275364 -0.0044573396 -0.0032076656
0002b0 44 2b 23 39 8f df 74 3a 0d 43 f3 3a 0d 3b bf bb
       0.00015561009 0.0009341174 0.0018559411 -0.005835897
0002c0 b9 10 21 bb 22 76 aa bb 80 10 a3 ba 10 aa b3 ba
       -0.0024576618 -0.005202071 -0.001244083 -0.0013707299
0002d0 4d af 39 bb a6 2a 13 39 06 dd 2a 3a 42 36 12 bb
       -0.0028333247 0.000140349 0.00065179204 -0.0022310172
0002e0 1c 7c 87 bb 9e 53 3f 39 c7 12 9a bb 6d a1 fc b9
       -0.004134668 0.0001824633 -0.0047019455 -0.00048185457
0002f0 f4 49 60 bb 3a 13 0f ba 93 58 10 3b cd 2e fb ba
       -0.0034223767 -0.0005457882 0.002202545 -0.0019163728
000300 7b 82 a0 bb ab 4c 8c bb 8a 88 5f ba d6 65 a9 3a
       -0.004898367 -0.0042816005 -0.0008527121 0.0012924026
000310 87 fc cb b9 7e 65 52 ba 1c f4 87 3a 3b 7a f2 ba
       -0.00038907325 -0.0008025988 0.0010372433 -0.0018499562
000320 c9 70 ca ba b5 80 6a 3a b4 e2 86 bb 94 b2 40 3b
       -0.001544499 0.00089455704 -0.0041163806 0.0029403316
000330 99 ed d3 3a f1 6d 98 3b 65 42 63 3a 48 75 64 ba
       0.0016168832 0.004651778 0.00086692563 -0.0008714986
000340 ae 22 fa 3a c0 a8 c7 ba 7e 6f a6 ba 92 55 3f bb
       0.0019083822 -0.0015232787 -0.0012698022 -0.002919529
000350 13 1b 98 ba 34 5c f7 ba 49 65 50 ba ec e5 05 ba
       -0.0011604748 -0.0018872083 -0.0007949663 -0.00051078084
000360 24 ba 82 bb ab 48 be 3a bf f1 ed 3a 3f 13 5d bb
       -0.003989475 0.0014517506 0.0018153711 -0.0033733395
000370 64 bb 61 39 1a 46 5c 3a 57 ec 1a 39 b7 9f cc 3b
       0.0002152748 0.000840278 0.00014774628 0.0062446254
000380 d1 af 44 bb 50 58 c0 bb ab f1 d6 3a 57 23 52 3b
       -0.0030012021 -0.0058699027 0.0016398927 0.0032064521
000390 d4 ed c4 38 ea e0 ee ba c9 c1 a5 39 a9 4a 83 bb
       9.390307e-05 -0.0018224989 0.00031615634 -0.004006703
0003a0 df 26 4f 3a f8 52 2f bb 3b c9 a8 bb 59 36 52 3a
       0.00079022156 -0.0026752334 -0.0051509417 0.00080189627
0003b0 7b 7a df 3a a5 35 81 bb 98 bc 81 3a b6 33 41 bb
       0.0017050052 -0.0039431625 0.0009898124 -0.0029480285
0003c0 5b 2a c2 39 e7 30 eb 3a f3 55 e7 3a 87 1e b3 ba
       0.0003703412 0.0017943651 0.0017649516 -0.0013665714
0003d0 4b de 1f bb a7 06 93 bb d9 3d 88 ba 67 09 3e 3a
       -0.0024393972 -0.004486877 -0.0010394409 0.0007249326
0003e0 c7 24 96 bb 2d 55 11 ba ac 8d 87 39 ba fd ca 3a
       -0.004582021 -0.0005544003 0.0002585476 0.0015486993
0003f0 f0 8a 5c 3b e6 61 a5 ba a1 38 62 bb fd 8d 98 bb
       0.003365215 -0.0012617677 -0.0034518617 -0.004655598

model.4.bias f4 [64]
000000 00 00 00 00 a1 8d d2 b9 21 49 d3 b9 1c 7a 63 ba
       0.0 -0.00040159843 -0.0004029954 -0.00086775585
000010 a2 8d d2 b9 00 00 00 00 27 3d cf bb a2 8d d2 b9
       -0.00040159846 0.0 -0.0063244286 -0.00040159846
000020 a4 be 1f 3e 71 c9 e0 b9 00 00 00 00 aa 20 e5 3d
       0.15600067 -0.00042874695 0.0 0.11187871
000030 c5 8b a2 bb 68 4e 82 ba b4 18 6b bb a5 f9 cc bb
       -0.0049605095 -0.000994158 -0.0035872879 -0.006255346
000040 21 49 d3 b9 d2 b0 8e 3d 04 fe f1 b9 a2 8d d2 b9
       -0.0004029954 0.069673195 -0.00046156358 -0.00040159846
000050 3d 26 1f 3d 21 49 d3 b9 a1 8d d2 b9 00 00 00 00
       0.038854826 -0.0004029954 -0.00040159843 0.0
000060 67 ad 97 b8 06 fe f1 b9 ce 47 1c 3e c9 e4 e3 ba
       -7.23254e-05 -0.00046156364 0.15261766 -0.0017386909
000070 67 11 06 ba 15 31 f1 b9 a2 8d d2 b9 6b 58 cf bb
       -0.00051142875 -0.0004600367 -0.00040159846 -0.006327679
000080 f2 d1 9b b8 22 49 d3 b9 8b 04 77 bb 21 49 d3 b9
       -7.430081e-05 -0.00040299544 -0.0037691917 -0.0004029954
000090 a2 8d d2 b9 a2 8d d2 b9 00 00 00 00 29 97 a4 3d
       -0.00040159846 -0.00040159846 0.0 0.08036644
0000a0 00 00 00 00 68 81 2f ba a1 8d d2 b9 5f 5c 0b ba
       0.0 -0.0006695003 -0.00040159843 -0.00053161936
0000b0 bf 15 0a ba a1 8d d2 b9 f6 dc 3e ba a2 8d d2 b9
       -0.00052675226 -0.00040159843 -0.00072808506 -0.00040159846
0000c0 a1 8d d2 b9 02 43 bb b9 00 00 00 00 21 49 d3 b9
       -0.00040159843 -0.00035717344 0.0 -0.0004029954
0000d0 a1 8d d2 b9 21 49 d3 b9 f2 45 79 3c a1 8d d2 b9
       -0.00040159843 -0.0004029954 0.01521443 -0.00040159843
0000e0 22 49 d3 b9 a2 8d d2 b9 bb 20 16 3e 17 3d 11 ba
       -0.00040299544 -0.00040159846 0.14660923 -0.0005540414
0000f0 00 00 00 00 1d b7 23 3e a1 8d d2 b9 00 00 00 00
       0.0 0.15987821 -0.00040159843 0.0

model.6.weight f4 [64, 64]
000000 68 0a 17 bb 49 ba 9e 39 75 89 3a 3b aa 18 03 ba
       -0.0023046974 0.00030274902 0.0028463278 -0.00050009286
000010 7a 79 2a 3a c7 c5 24 3a 30 26 90 bb 2b 6d f9 39
       0.0006503087 0.00062855746 -0.0043990836 0.00047574317
000020 fb 92 4c 3d 95 cc 75 ba 9d 50 40 b8 32 e3 4b 3d
       0.04994486 -0.00093764934 -4.5851444e-05 0.049777217
000030 c5 76 bb bb d5 65 4e bb 5c ca b5 39 ed 6f e3 bb
       -0.0057209455 -0.0031493802 0.0003467378 -0.006940833
000040 49 38 2c 3b 1a 4d 47 3d 0d cd 41 ba 06 10 d0 3a
       0.0026278666 0.048657514 -0.00073929207 0.0015873916
000050 21 34 48 3d 7a 90 22 bb 42 25 e2 bb ef 55 be 3a
       0.04887784 -0.0024805353 -0.006901414 0.001452146
000060 1c 80 4a 3c 69 a4 20 ba 30 a8 54 3d 5b 3e 07 3d
       0.012359645 -0.00061280146 0.05191821 0.03301845
000070 77 dc 0a 3a a8 d6 1b 3b f7 e0 b4 b9 1c 8d ab bb
       0.0005297134 0.0023779068 -0.00034499887 -0.0052353274
000080 b8 8a d0 3c 2f b3 cd 3a a7 ca 90 bb c9 91 b9 ba
       0.025456771 0.001569366 -0.0044186893 -0.0014157827
000090 08 e4 45 ba 7c 38 ec ba f0 86 c7 3b 0d 6d 4e 3d
       -0.0007548933 -0.0018022205 0.006089084 0.050396968
0000a0 a4 97 03 3a b2 d1 09 3c 75 0b 3e 3a f6 d7 26 bb
       0.00050198496 0.008411812 0.0007249632 -0.0025458313
0000b0 1e 09 28 3b fe 25 6f 3b 91 fa 52 bb 53 5e 0d 3b
       0.00256402 0.003649115 -0.0032192806 0.0021571114
0000c0 0c 4c a3 3a 5b 2e db 3c 67 df 25 3b 10 db 08 bb
       0.0012458577 0.026755502 0.002531016 -0.0020882525
0000d0 e5 92 ac 3a 8f 2c ca 3b e9 0f 3a 3d 83 8c 8f 3a
       0.0013166337 0.0061698626 0.04542533 0.001095191
0000e0 09 27 d4 39 f5 a4 1e 3a 7e ad 52 3d be e9 1b ba
       0.00040464874 0.0006051802 0.051434986 -0.0005947611
0000f0 0a 2e 35 bb eb 6f 50 3d f6 d3 3e 3b 86 df 81 39
       -0.002764585 0.050887983 0.0029118038 0.00024771335
000100 bb 06 bc bb 6f 5f d8 ba 8e 3a 92 b9 dd 4e 06 3b
       -0.005738107 -0.0016507934 -0.00027890917 0.0020493784
000110 ae b4 8c bb 02 cc be bb b0 7d dd 3b b1 30 75 ba
       -0.0042939996 -0.0058226595 0.006759368 -0.0009353264
000120 4b b0 7c 3d 6a 9e 85 ba 8e d1 8d 3a 7f fe 80 3d
       0.061691564 -0.0010194306 0.0010819898 0.06298541
000130 5b 6e a7 b9 3f 52 b3 b9 de f2 9b 3b be 55 97 3a
       -0.00031934943 -0.0003420282 0.0047591766 0.0011545939
000140 bb 33 29 bb 1d db 6d 3d 2e e8 cc 3a 81 3e 4a ba
       -0.0025818187 0.05807029 0.001563316 -0.0007715002
000150 1e d5 7a 3d 13 9f 92 ba 77 1b 8e 39 e4 15 06 3a
       0.0612384 -0.0011186324 0.00027104813 0.00051149563
000160 6f 5e 87 3c b9 fd 02 bb fd 16 7b 3d 29 f2 24 3d
       0.016524522 -0.0019987656 0.06130122 0.040270004
000170 8b e9 18 3a 38 f9 1a 39 ca cf d8 b9 3f dd b9 bb
       0.00058331405 0.00014779426 -0.00041353545 -0.0056721265
000180 96 e4 fc 3c f1 26 1c bb 53 ee a5 3b 74 20 2a bb
       0.030870717 -0.0023826922 0.005063811 -0.0025959285
000190 94 b0 28 bb 03 d8 c4 3a 9b 93 fb 3a 8d 62 77 3d
       -0.0025740014 0.001501799 0.001919377 0.06039672
0001a0 70 97 88 ba 24 92 d9 b9 dd ec 09 3b c7 22 b6 b9
       -0.0010421108 -0.0004149835 0.0021045723 -0.00034739656
0001b0 38 cd 73 3b cf 87 86 3b c0 f4 7a bb 69 01 95 3b
       0.0037201177 0.004105545 -0.0038292855 0.0045472872
0001c0 1e 91 f9 39 c3 2c 07 3d 1d 81 f1 3a 1f d9 79 b9
       0.00047601102 0.033001672 0.001842532 -0.00023827374
0001d0 b8 0b bd 39 c8 14 7b ba d5 66 61 3d 5f 09 db 3a
       0.0003605762 -0.0009577987 0.05502971 0.0016711167
0001e0 07 da 97 3b 3f 60 71 ba 69 43 7f 3d a0 ad be ba
       0.004634145 -0.0009207762 0.062320147 -0.0014547594
0001f0 d7 68 4e bb c4 64 73 3d ae 30 ee 3a ab 6a 48 bb
       -0.0031495595 0.05942227 0.0018172467 -0.0030581157
000200 ce 1b 2d 3b 71 68 56 ba 9b e4 dd 39 26 96 6b b9
       0.0026414278 -0.0008179015 0.0004232273 -0.00022467281
000210 e6 be 60 bb 86 2e fb b9 fc 43 8c bb 3d 7e c4 3a
       -0.0034293472 -0.00047909113 -0.0042805653 0.0014991235
000220 aa c4 4b bd c1 f9 1e 3b 58 d6 70 3b b0 94 51 bd
       -0.0497481 0.0024257752 0.0036748853 -0.05116719
000230 20 11 be bb 3d 1b ad ba ad a4 80 3b 9d ed 08 3c
       -0.0058003813 -0.001320697 0.003925881 0.008357433
000240 3f d1 9a 39 0a bb 43 bd 0b f2 9c 39 26 55 71 3a
       0.0002952907 -0.047785796 0.00029934975 0.00092061085
000250 ef c1 43 bd bd 05 19 3b 39 20 b9 ba 2a f0 45 3a
       -0.04779237 0.0023349368 -0.0014123983 0.0007550741
000260 54 0e 70 bb 92 02 26 bb e7 7a 48 bd 09 58 04 bd
       -0.0036629634 -0.0025331122 -0.048945334 -0.03231052
000270 22 46 64 3b 22 0e 19 bb 21 78 66 bb 4b 2f a9 3b
       0.0034831841 -0.002335437 -0.0035166817 0.0051631085
000280 ea d1 c5 bc 57 08 0b b9 78 ef b4 3b ad ae 19 bb
       -0.024147946 -0.0001325918 0.005521711 -0.0023450062
000290 5b 4f 0c 3a 27 de 76 ba 8b b2 c9 ba 1d a1 4c bd
       0.0005352401 -0.00094172586 -0.0015388293 -0.049958337
0002a0 20 df 90 ba 22 3e 5a 3a 6c 8f 8a ba 4f 4c 83 bb
       -0.0011052825 0.00083252985 -0.0010571308 -0.0040068994
0002b0 69 44 cd bb 0d 0f e3 3a 60 30 3e 3b 77 20 23 bb
       -0.0062642586 0.0017323211 0.0029020533 -0.0024891177
0002c0 d5 71 de bb 52 57 d4 bc 19 1d b5 ba c5 b8 c8 3a
       -0.006788472 -0.025920544 -0.0013817876 0.0015313855
0002d0 d6 07 01 bb a6 e1 dd 3a 70 6f 35 bd 38 eb db bb
       -0.0019688508 0.001692821 -0.04429573 -0.00671139
0002e0 29 6e 54 bb d8 32 de 3a d4 0e 4f bd bc 2a 63 39
       -0.0032414293 0.0016952408 -0.05055125 0.00021664327
0002f0 b0 aa 29 bb c0 0f 43 bd 13 5f 58 b6 2f aa 47 bb
       -0.0025889091 -0.047622442 -3.2241849e-06 -0.0030466428
000300 0f 49 07 38 85 27 ff 3a 70 a2 ec 39 60 2f 86 3b
       3.225455e-05 0.0019466734 0.00045134453 0.004095003
000310 48 ca 5b 3b 88 66 89 ba a8 9d 8c bb d0 53 7f bb
       0.0033537317 -0.0010482827 -0.004291255 -0.0038959868
000320 23 8f b6 ba de 41 2e bb 14 8c dc 3a a7 07 a7 bb
       -0.0013928156 -0.0026589553 0.0016826415 -0.005097348
000330 56 0d d9 bb 9e 2a 22 bb 01 20 ad 3a c6 54 82 bb
       -0.006623904 -0.002474464 0.001320839 -0.003977391
000340 70 5d 96 3a 47 5f 38 bb ae ac 29 ba 72 d8 ac bb
       0.0011471938 -0.0028132962 -0.00064725697 -0.0052748257
000350 20 06 8a bb 3f a0 0e 3b 1e 6a 55 bb 36 7b 04 3b
       -0.004212156 0.0021762995 -0.0032564471 0.002021504
000360 37 77 94 3b b5 f4 46 bb 8e 1d 82 bb c4 6c 43 bb
       0.004530813 -0.003035826 -0.0039708083 -0.0029819468
000370 ce 46 9a bb c1 bc 43 ba 56 73 a8 3b 01 f2 04 bc
       -0.0047081476 -0.0007466786 0.0051407022 -0.008114339
000380 88 01 23 bb ca c8 0f 3a 9f 24 44 bb 72 d7 99 39
       -0.002487274 0.0005484937 -0.0029929054 0.00029342953
000390 4a 26 3c 3b c7 a7 cd 39 67 14 be 3a 5c 39 80 bb
       0.0028709345 0.0003922565 0.001450193 -0.003913088
0003a0 25 74 32 ba 16 ca 33 bb 15 75 99 3b 79 23 7f bb
       -0.0006807468 -0.0027433685 0.0046831467 -0.0038931055
0003b0 b2 05 d4 3a f3 0a 3c 3b 1f b6 47 3b 76 a3 9b ba
       0.0016176014 0.002869305 0.0030473543 -0.0011874277
0003c0 43 83 36 bb 68 9b 06 bb 24 5d 0f bb 3b 92 ee b8
       -0.0027849234 -0.0020539407 -0.0021875584 -0.00011375962
0003d0 dd 8f 1b bb ca c0 02 ba 84 66 65 bb 7b c8 13 3a
       -0.0023736872 -0.0004987834 -0.003500373 0.0005637479
0003e0 c5 05 81 ba 51 7c 8c 3b b6 74 af bb f0 fa ab ba
       -0.0009843638 0.0042872806 -0.005354489 -0.001312105
0003f0 f9 41 97 b9 94 ea 91 bb fc b9 bb 3a 75 9e 82 ba
       -0.00028850118 -0.0044530127 0.0014322395 -0.0009965437

model.6.bias f4 [64]
000000 b4 7b bd 3c a8 66 02 3d 31 b5 b2 bc b3 ba 2e bb
       0.023130275 0.031836182 -0.021814914 -0.0026661574
000010 08 90 ee bc 67 3f f4 39 16 70 93 3b 1d b4 40 bb
       -0.029121414 0.00046586545 0.0044994457 -0.002940423
000020 e4 12 c7 3b 67 4d 0e bd f8 59 40 3b b5 fe 87 3a
       0.00607525 -0.034741785 0.00293505 0.0010375591
000030 6b b4 25 3a 25 9b 21 3b bc ac 94 bc 92 78 02 bd
       0.0006321135 0.0024659124 -0.018148772 -0.031853266
000040 45 f6 f7 3c af dc f0 3c 70 13 01 3b 69 94 0b bc
       0.030268798 0.029402105 0.0019695424 -0.00851927
000050 75 12 31 bb ae 19 36 3b d7 6a 0a 3c b6 8d b7 3c
       -0.0027019058 0.0027786302 0.008448324 0.02240644
000060 8d 6b 5f 3b 30 68 b7 bc 92 d8 55 bb d9 ea ec 3b
       0.0034091205 -0.022388548 -0.0032630307 0.0072301445
000070 18 51 ba bb 59 28 cc ba 6d b6 b6 3c 1d 69 c8 3a
       -0.0056859367 -0.0015575989 0.022303784 0.0015290115
000080 8f 5e 0c bd 3c 60 07 38 2b 4e 26 3b 49 de 24 bb
       -0.034269866 3.2276133e-05 0.0025376182 -0.0025156906
000090 9a ed c7 3c 99 9b f5 bb a8 20 aa bc 82 3a 0c ba
       0.02440529 -0.0074953553 -0.020767525 -0.00053492945
0000a0 61 cc 31 bb 5c 7a 96 bc 63 b4 aa bb 9c ca c4 3c
       -0.0027129876 -0.018368892 -0.005209492 0.024022393
0000b0 78 57 b0 3c ed cc 90 3b 24 c2 f2 bb 7b 4b 9a 3c
       0.021526083 0.0044189603 -0.0074083973 0.01883482
0000c0 e7 93 1d bb f0 ab 3d 3b 4d 48 ac 3b f5 3b ad 3c
       -0.0024044455 0.0028941594 0.0052576424 0.021146754
0000d0 e1 6b f7 3c f0 2e 30 bd 94 7a 4b 3d 55 51 9d bb
       0.030202808 -0.043013513 0.049677446 -0.0048009553
0000e0 2b 48 ce bc c8 d1 a8 3c d0 3d 6e 3a ba cd d1 3c
       -0.025180897 0.020607844 0.000908819 0.025610793
0000f0 3c ba a8 bc 37 b1 2f bb 46 5b ec 3c 9a 23 9e 3b
       -0.020596616 -0.002680851 0.028852116 0.0048260214
